Assets/Training/results/”maze_runner”/My Behavior/My Behavior-21395.onnx (onnx, 296077 bytes, 6 tensors)

action_model._discrete_distribution.branches.0.bias f4 [5]
000000 8a 5c 24 3b 3a 2f dc bb 62 c4 7c bb 14 54 ea 3b
       0.0025079572 -0.006719497 -0.0038569202 0.007151136
000010 63 8c c5 bb
       -0.0060286983

action_model._discrete_distribution.branches.0.weight f4 [5, 256]
000000 80 cd ea 3b 6e 71 eb ba 18 1f 28 bb 30 5d d9 3a
       0.007165611 -0.0017962882 -0.00256533 0.0016583558
000010 ac 37 0b bc c0 4e 4b bc c1 2d 99 bc 2d 11 c1 bb
       -0.00849716 -0.012408912 -0.018698575 -0.00589194
000020 94 f6 13 bc 70 bc 9f bb ed d2 81 bc 05 62 18 bb
       -0.009030957 -0.0048747584 -0.015847648 -0.0023251784
000030 a3 07 42 bc f0 de 14 bc ef 25 20 bc fa aa 64 bc
       -0.011842641 -0.009086356 -0.009774669 -0.01395678
000040 6c 81 a1 bc 59 1e 6a bb 8f 6c 87 bb c5 17 4c bc
       -0.019715033 -0.0035723655 -0.0041328142 -0.012456839
000050 9f e2 b3 3b 7d e6 ca bb 7f 2e 14 bc e1 15 3e bc
       0.005489662 -0.006192027 -0.009044289 -0.011601896
000060 ae ee e0 bb 2b 1c d1 bb f2 ab 63 bc 38 b1 4c bb
       -0.0068643903 -0.0063815317 -0.013895975 -0.003123356
000070 35 39 7f 3a 2b b7 82 3b c9 e9 43 bc 59 06 20 bc
       0.00097360025 0.0039891205 -0.011957594 -0.009767138
000080 63 8a 0a 3c 63 56 b7 bb 74 87 e2 bb b0 83 4a bb
       0.0084558455 -0.005595015 -0.00691312 -0.0030901246
000090 b6 26 fd bb 97 59 35 3b f7 ff 73 bc 16 02 42 bc
       -0.007725562 0.0027671808 -0.01489257 -0.011841318
0000a0 92 6b 90 bb 71 b9 b9 bc d8 c0 46 bc d6 f9 8b bc
       -0.0044073546 -0.022671433 -0.0121309385 -0.017086904
0000b0 a4 47 5a bc 6c 38 b2 39 9e cb 27 bc eb 91 09 bb
       -0.0133227445 0.00033992843 -0.010241417 -0.0020991515
0000c0 3a 83 04 3b 5e 18 71 bb b6 7f 40 bc fd ce eb bb
       0.0020219819 -0.0036788206 -0.011749199 -0.007196306
0000d0 d1 bf 11 bc 19 ec 21 bc d4 90 55 3b 3a e6 9a bb
       -0.00889583 -0.00988295 0.0032587545 -0.004727152
0000e0 ec df 3f 38 60 70 6f 3c b9 42 df 3b 0f 06 07 bc
       4.5746492e-05 0.014614195 0.006813374 -0.008241191
0000f0 1f 47 5b bb e3 51 00 bc eb f5 3a bc 6c ea 78 bc
       -0.003345914 -0.007832023 -0.0114111705 -0.015192609
000100 ce de 05 3b c3 58 24 b9 c0 24 2a bc 1c d4 26 3b
       0.0020426991 -0.00015673325 -0.010384738 0.0025456017
000110 ce ce a5 3a b7 dd d3 bb f8 5a 55 bc 2a be 50 b9
       0.0012650134 -0.0064656395 -0.013022177 -0.00019907267
000120 c9 b1 7f bc f4 1b 8c 3a de 8f 49 bc 0b c2 3d bb
       -0.015606352 0.0010689483 -0.012302367 -0.002895477
000130 05 11 47 bc b6 40 94 3b 1b 34 00 bc 04 16 c8 bb
       -0.012150054 0.0045243157 -0.007824923 -0.00610614
000140 6a c7 08 bc f5 1c ca ba 10 0d 13 bc af 0d 99 bb
       -0.008348325 -0.0015420007 -0.008975282 -0.0046708207
000150 d2 ce 52 bc be 1a 1d bc 15 6c aa bb 6c 53 0c bc
       -0.012866693 -0.009588895 -0.0052008727 -0.008564811
000160 15 de 2a 3b 0f 1f a0 bc 74 76 72 bb fd 4c 23 bc
       0.0026072313 -0.01954606 -0.0036996873 -0.009967086
000170 04 7b 26 3c 3f f4 13 bc 98 91 a9 ba 1b 7f fd bb
       0.010161165 -0.009030401 -0.0012937067 -0.0077360994
000180 1e c1 76 3b 18 9f 2a 3b 36 44 89 3c c3 50 60 ba
       0.0037651728 0.0026034769 0.016756158 -0.00085569563
000190 ca e2 a8 bc 2c ef 9a bc e8 23 8f bb a6 28 40 bc
       -0.020615954 -0.018912874 -0.004368294 -0.011728441
0001a0 f7 0e 5d bc 08 f9 22 bc 9f 03 67 bc 66 fc de 3a
       -0.013492337 -0.009947069 -0.014099984 0.0017012476
0001b0 fb ad 3e b8 23 c5 19 3b e0 e7 9b bc ea 16 90 ba
       -4.5461562e-05 0.002346345 -0.019031465 -0.0010993157
0001c0 7b 05 e2 3b 5d dd 36 bb 17 31 96 bb 52 e6 ab bc
       0.006897626 -0.002790294 -0.0045834887 -0.020983849
0001d0 eb 04 36 3a cf 11 56 bc 2c 31 fc ba 45 a4 65 bb
       0.0006943482 -0.013065769 -0.0019240729 -0.003504054
0001e0 55 c0 f1 bb 87 56 7c bc f2 f5 91 bc ea 25 62 bc
       -0.007377664 -0.015401489 -0.017817471 -0.013802985
0001f0 d7 81 9a bc 78 49 67 bc 6e b2 22 bc a9 44 eb bb
       -0.01886074 -0.014116637 -0.009930236 -0.007179816
000200 3d aa 83 bb f6 df ee bb 54 a0 b4 bb e8 8f 03 ba
       -0.0040180967 -0.007289882 -0.0055122767 -0.0005018697
000210 c9 49 fe bb f4 8c 18 bc fd d7 54 3c 30 2d 2b bc
       -0.0077602607 -0.00931095 0.012990949 -0.010447785
000220 e3 0f 2c bc 0c 78 be bb ac 66 1d bc 7d 37 ac 38
       -0.010501835 -0.0058126505 -0.009606998 8.2119346e-05
000230 27 de 7b ba 74 da 29 bc f7 5e db bb 8d 7c 30 bc
       -0.00096079934 -0.010367025 -0.0066946703 -0.010771883
000240 53 db 0c bc 6d 5f d0 bb 4e b9 5c 3b fc cb 01 bb
       -0.008597213 -0.006359032 0.0033679786 -0.0019805422
000250 d4 8c 05 bc 24 13 34 3a 31 1e 56 bb ac 96 59 bb
       -0.008151252 0.0006869307 -0.0032671804 -0.003320138
000260 d0 d6 92 ba 12 92 dc 3b bd f3 0c bb 59 38 23 3b
       -0.0011202935 0.00673128 -0.0021507584 0.0024905412
000270 ea 04 44 3b e8 52 24 3b bd 0e 09 bc af 6d 87 ba
       0.0029910156 0.002507383 -0.00836533 -0.0010332371
000280 c8 41 76 3b 0c a6 68 bc 66 b6 6d bc 5e a0 a7 bc
       0.003757583 -0.014199745 -0.014508819 -0.020462211
000290 4a bb 66 bc 0a 7d 74 bb 87 ce 51 bb 64 64 09 3a
       -0.014082739 -0.0037305974 -0.003201397 0.00052410946
0002a0 9a 33 a1 bc 2c a2 31 bc 2c c6 fa bb 8d 0b 3d bc
       -0.019677926 -0.010841887 -0.0076530185 -0.011538398
0002b0 48 17 70 bc 58 e6 0e bb 31 2b a7 3b 0e 5c 3f 3a
       -0.014653988 -0.0021804776 0.0051015844 0.0007299789
0002c0 97 7b 25 bc b2 12 23 bb 8a e9 9b ba f1 ca d8 bb
       -0.010100267 -0.002488297 -0.0011895162 -0.0066159894
0002d0 bd f9 9b 3c 8a 62 9c bc 7e 1e 18 bb 90 8e ca 38
       0.019039983 -0.019089956 -0.0023211534 9.658665e-05
0002e0 b5 20 86 39 2f 21 26 bc c3 cb 8d 3b 24 83 e5 bb
       0.0002558284 -0.0101397475 0.004327269 -0.0070041586
0002f0 a0 62 e4 bb b2 a9 88 bb 77 ba c0 3b bd 4e ab bc
       -0.006969765 -0.00417062 0.0058816033 -0.020911569
000300 29 cb 06 bc 3d ea 96 bb 8f 5b 82 3c 67 b8 38 bc
       -0.008227148 -0.00460556 0.0159128 -0.011274434
000310 38 f0 89 3b ca aa 34 3a 7c a4 97 ba 8a 42 b9 bb
       0.0042095445 0.00068919046 -0.0011569406 -0.005653684
000320 f5 87 02 3c ef a0 ac bb c6 18 ee bb 93 e2 92 bb
       0.007966985 -0.005268208 -0.007266137 -0.004482576
000330 a3 88 58 3b 7c 23 73 bc 1a f7 ff bb c0 85 f7 bb
       0.0033040426 -0.014840003 -0.007811439 -0.007553786
000340 02 19 3d bb f8 1d 00 bd f8 5c 57 3c d9 4f be 3b
       -0.0028854017 -0.03127858 0.013144724 0.0058078584
000350 0d 63 30 bc de 30 72 bc b5 95 4f 3b 1d 4d 95 3a
       -0.010765803 -0.014782159 0.0031674926 0.0011390779
000360 47 aa 28 bc a7 c8 c0 3b 4b 86 91 bc a9 5d 18 bc
       -0.0102945035 0.0058832946 -0.017764231 -0.009299674
000370 95 b9 d4 bb 28 e7 40 ba e5 a7 9c bb 81 7d 18 bc
       -0.0064918497 -0.0007358664 -0.004780757 -0.009307266
000380 c7 3d ba 3a b1 1a 2c bc fa ec d6 bb 6c fc 83 3b
       0.0014209085 -0.010504411 -0.0065590115 0.0040278938
000390 04 79 65 bb 8a 74 c2 bb 56 d8 88 38 96 81 bc bb
       -0.0035014758 -0.0059343027 6.525281e-05 -0.0057527525
0003a0 a3 f2 48 bc 52 af 44 bb 07 68 71 bc 82 d9 e2 bb
       -0.01226488 -0.0030011726 -0.014734275 -0.0069229016
0003b0 14 0a 56 bb 13 07 ac bb d4 ce a6 bc 65 87 2e bb
       -0.0032659816 -0.0052498668 -0.020362295 -0.0026630994
0003c0 94 ea 52 bc f6 0d 93 bb a6 a2 10 bb 9e d4 96 3b
       -0.012873311 -0.0044877483 -0.0022069602 0.0046029827
0003d0 8c 97 46 bc 85 77 43 bb 42 5f 8e bc 10 f3 f6 bb
       -0.0121210925 -0.0029825878 -0.017379407 -0.0075362995
0003e0 ad a3 1f bc 22 c9 cf ba 40 81 8c bc 12 1b ca bb
       -0.009743613 -0.0015852789 -0.017151475 -0.006167778
0003f0 b6 7d 0b bc cb 42 ba 3b 5d a4 44 bc d7 08 45 bc
       -0.008513859 0.005684232 -0.012002078 -0.012026033

network_body._body_endoder.seq_layers.0.bias f4 [256]
000000 99 bf 82 bc e1 f8 b3 3b 08 12 70 ba d2 71 1f ba
       -0.015960502 0.005492315 -0.00091579603 -0.0006082329
000010 e3 40 a2 bb ae 3f 1b bc 6e ab eb 3b 9b b7 96 3b
       -0.0049515828 -0.009475632 0.007192067 0.004599524
000020 9f 4d 8c 3b 2f 53 1c bc 78 7f ab bc ee 72 84 bc
       0.004281714 -0.009541317 -0.020934805 -0.016168084
000030 b6 ad 44 3c 0b 82 ab bb 04 76 14 bc 70 f0 df bc
       0.012004307 -0.005234008 -0.00906134 -0.02733633
000040 2d 53 b6 bc b4 09 80 bc f3 ba 29 3b 5c 93 98 bb
       -0.022256458 -0.015629627 0.0025898784 -0.0046562385
000050 48 0f 2f bc e5 bc 0e bc 50 c8 99 bb f0 7f 8a 3c
       -0.010684796 -0.008712028 -0.0046930686 0.016906708
000060 89 a8 11 3b e2 10 fc ba 18 ff bc bb 1a 14 70 bc
       0.00222257 -0.0019231106 -0.005767714 -0.01465323
000070 b5 71 44 bc a8 c3 bb 3b 05 67 a8 39 82 63 e1 bb
       -0.0119900005 0.005730111 0.00032120213 -0.0068783173
000080 0d 27 f5 bb 0d 98 82 3b 6c bd 88 bc c7 2d bf bb
       -0.007481462 0.003985411 -0.016691886 -0.0058343145
000090 ea 2b fb bb 81 8f 81 bc bf 97 80 3a a3 d1 2e bc
       -0.007665147 -0.015815498 0.0009810849 -0.0106700985
0000a0 62 ba 93 bb 6b 78 05 3c c1 fd 66 bb de 67 05 bc
       -0.0045083025 0.008146386 -0.0035246464 -0.00814244
0000b0 46 6a 24 3b f2 c0 e7 b9 6a 82 f7 bb 48 55 c6 3c
       0.0025087758 -0.0004420351 -0.0075533884 0.024210587
0000c0 bc 73 5a bc 34 51 ac 3c 6c 29 54 bb 2a 11 56 bc
       -0.013333257 0.021034814 -0.0032373322 -0.013065616
0000d0 18 61 cd bb 78 bd 0a bb 41 75 39 bc c0 e5 b6 3a
       -0.006267678 -0.002117006 -0.011319459 0.0013953969
0000e0 b2 7c c0 bb df 44 cf bc ce f5 56 bc f2 13 2e bc
       -0.00587424 -0.025301395 -0.013120128 -0.0106248725
0000f0 58 ad 3b bc 1f ea 81 3b 68 5f af bc d0 a8 8e bb
       -0.011454903 0.003964677 -0.021407798 -0.00435362
000100 8a ea 50 3c 29 b3 82 bc fb 95 9e bb 1c 72 10 3b
       0.012751231 -0.01595457 -0.0048396564 0.002204067
000110 c6 ef 14 bb 1b a1 84 bc 3e 1e 1f bc 35 cd 02 bc
       -0.0022725924 -0.016190102 -0.0097118 -0.0079834955
000120 1f 22 43 bb 30 0c 84 3b 4f 34 6d 3b 8e d9 e7 3a
       -0.0029774976 0.004029773 0.0036194508 0.0017688738
000130 ef e5 2d 3b 69 05 ba bb c6 5e 08 bc 7e b5 ee bc
       0.0026534756 -0.0056769145 -0.008323377 -0.029139277
000140 ef d8 c4 3b 75 99 a3 3b 27 5f dc bc 60 82 c8 3b
       0.006007306 0.0049926587 -0.02690084 0.0061190575
000150 20 ff 1d bc e2 67 9a 3c 65 97 df bb 13 0a 32 bc
       -0.009643346 0.018848363 -0.0068234676 -0.01086666
000160 75 8c c7 ba fe b9 75 bb 7e 23 f6 bb d2 b6 c0 bc
       -0.0015224355 -0.0037494893 -0.007511555 -0.023524676
000170 fb 5a 83 bb 2f 9a 89 3a e0 f3 3b bc f5 81 1a bc
       -0.0040086485 0.0010498221 -0.011471719 -0.009430398
000180 8b 35 8f 3b 72 c7 39 3b be e1 c7 3b 16 01 42 bc
       0.0043703965 0.0028347638 0.0060999086 -0.011841079
000190 60 a5 60 bb 7d 94 c7 bc 7e 01 86 ba 73 24 c4 ba
       -0.0034278259 -0.024362797 -0.0010223833 -0.0014964476
0001a0 4a 17 99 bc 8e 64 8a bb af 50 73 bc e0 f2 9a bc
       -0.018687863 -0.004223413 -0.014850779 -0.01891464
0001b0 1d cc 50 bb 0e d4 d5 b9 50 e2 94 bb 59 3f f2 ba
       -0.0031859942 -0.0004078452 -0.00454358 -0.0018482014
0001c0 61 ea 0d 3c 5e b4 9c b6 13 41 cb bb 5e 08 9d bc
       0.008661837 -4.67016e-06 -0.006202826 -0.019169029
0001d0 aa e6 1a bc a2 51 e3 38 f4 f5 b0 bb 62 7c 7b bc
       -0.009454409 0.00010839409 -0.0054004136 -0.015349479
0001e0 99 8a f8 b9 2f 88 bc bb 4f 0f 43 bc f7 d1 c7 3b
       -0.0004740551 -0.005753539 -0.011905505 0.006098028
0001f0 71 b3 75 bc 83 bc 2f 3b 95 94 8a 3a 5f 67 92 3a
       -0.014996395 0.0026815243 0.0010572845 0.0011169723
000200 b7 54 a3 3b 94 76 16 bc 8d d4 fc bb c3 c7 53 bc
       0.004984464 -0.009183545 -0.0077157677 -0.012926045
000210 b7 35 d7 ba e8 2c 46 bc 21 76 d6 ba cd b9 85 3a
       -0.0016419207 -0.012095667 -0.001636211 0.0010202468
000220 f9 5f 7f bb fe 4b 00 3d 19 80 83 b8 2b 97 9e bc
       -0.0038967116 0.03132247 -6.270427e-05 -0.019359192
000230 b5 c0 6a bc cf b0 3d ba 0e 50 52 3c f8 4d ee 39
       -0.0143281715 -0.00072361244 0.012836469 0.0004545299
000240 7d b1 ed ba ac 4e 1e 3c c0 64 51 38 26 a4 b1 bb
       -0.0018134561 0.0096623115 4.9923314e-05 -0.0054211793
000250 0f 9e 08 bc 33 19 9f bb b1 65 21 bc 5c 3c 2f 3a
       -0.008338465 -0.004855299 -0.009850905 0.00066847145
000260 c2 a0 88 bc 0c 7f 99 bb 65 54 01 bc 15 0f 9e bc
       -0.016678218 -0.0046843346 -0.007893656 -0.019294301
000270 78 59 5e bc 45 c5 e4 bb bd b7 da bb 98 df a9 bb
       -0.013571136 -0.006981524 -0.0066747353 -0.005184125
000280 f1 af 3c bc 59 94 c9 bc 58 ab b0 3c f2 9c 20 3b
       -0.011516557 -0.02460687 0.021566078 0.002450761
000290 dd 05 3b bb 4d fb 4d bb 04 4a 22 bc 35 75 9d 3a
       -0.002853743 -0.0031430305 -0.009905342 0.001201308
0002a0 9f 45 05 bc e0 a2 0f 3c a5 44 b6 bc 4e 37 22 bc
       -0.008134275 0.00876686 -0.02224953 -0.009900881
0002b0 97 84 8d 3b d7 08 67 ba 43 7b dc bb 52 cb 08 bc
       0.0043187845 -0.0008813268 -0.006728561 -0.008349257
0002c0 15 6f 8b 3c 0a 92 bd bb 01 7a 9d bb 39 f1 5d bb
       0.017020741 -0.0057852315 -0.0048058038 -0.0033865704
0002d0 a5 9b 8a bc 8d 27 98 bb 2d 9b ab bc 31 f4 58 bc
       -0.01691992 -0.0046433867 -0.020948017 -0.0132418135
0002e0 2d 5a 9a bb c8 ec 8d bc 59 01 d8 3b 26 66 81 bc
       -0.004710457 -0.01732482 0.0065919575 -0.015795778
0002f0 b1 53 15 bc 8f 03 18 bc a9 92 91 3c 7c 7c b0 3b
       -0.009114192 -0.009278192 0.017770128 0.0053859334
000300 50 a9 bf b9 c4 72 1f bb 40 b5 b5 bb d0 ca 3e 3b
       -0.00036556507 -0.002432988 -0.0055452883 0.0029112585
000310 f6 74 c4 bc a4 f6 16 bc 24 05 3c bc e6 76 c3 bb
       -0.023981553 -0.009214077 -0.011475835 -0.0059651015
000320 93 de b7 bb 91 8d 89 3b f3 fc 8e 3b f0 96 0f 3c
       -0.0056112497 0.0041977842 0.00436365 0.008764014
000330 5a 21 aa bb 39 88 76 39 38 d7 8b 3a 28 74 6f bb
       -0.005191964 0.00023511135 0.0010668999 -0.003653774
000340 c0 d4 81 ba d4 2b 47 ba e0 39 53 bc cc 70 23 bc
       -0.0009905323 -0.00075977785 -0.012892216 -0.009975623
000350 f8 c1 87 bb fe c0 ac 3c fa 98 91 bb 00 31 51 3c
       -0.004142996 0.02108812 -0.004443285 0.01276803
000360 fb 3f da bc f3 4c 1d 3c f6 04 31 3c 5b 22 48 bc
       -0.026641836 0.009600866 0.010804405 -0.012215222
000370 1b 4f 9a 3c e3 21 c0 3b b3 26 bd 3b 72 ea 1c 3a
       0.018836549 0.0058634146 0.0057724356 0.0005985863
000380 a6 ab 9b 3b c1 14 bf bb 1e b4 a9 bc 7d e1 42 3c
       0.0047506867 -0.0058313315 -0.02071577 0.011894581
000390 c9 20 b3 3a 32 c5 35 bb 0f d1 37 bc 3e 4d 07 bc
       0.0013666387 -0.0027735946 -0.011219277 -0.008258162
0003a0 1a b6 95 3c 80 fb ea bb 3c b5 73 bb da 8e 82 bc
       0.01827531 -0.0071710944 -0.0037186882 -0.015937258
0003b0 ad a6 28 bc a3 d4 5e bc 24 72 47 3a 87 bd 43 bc
       -0.010293645 -0.013600501 0.0007608256 -0.011947042
0003c0 1b 9a 12 bc aa 91 b6 3c 39 8b a8 bb 0b db 8a bb
       -0.008947874 0.022286255 -0.0051435498 -0.0042375377
0003d0 52 01 a8 bc f4 fc b4 bc 8a 1a e7 b8 4b 3c 9f 3b
       -0.020508442 -0.022093274 -0.00011019882 0.0048594824
0003e0 d6 b3 83 ba f6 f1 d6 3b f3 8c c5 3b f0 e7 ce b8
       -0.0010048102 0.0065596057 0.0060287653 -9.866047e-05
0003f0 ab 55 8b ba 67 ce dc bb af 48 cc bb e9 83 48 bc
       -0.001063039 -0.0067384723 -0.0062342505 -0.012238481

network_body._body_endoder.seq_layers.0.weight f4 [256, 24]
000000 94 50 f2 3c db 7b 1b be 83 33 10 3e e2 35 6b 3d
       0.029579438 -0.15183966 0.1408215 0.057424434
000010 87 a1 45 3c f7 23 1a 3e 1f 56 b3 be 9d 01 ad 3d
       0.012062437 0.15052782 -0.35026643 0.08447573
000020 85 0e da 3d 40 59 0e bc db ac 86 be a9 fa 46 be
       0.10647301 -0.008688271 -0.26303753 -0.19431557
000030 d1 24 00 3d b8 62 cd bd b9 56 36 be 34 8d 06 be
       0.03128511 -0.10028595 -0.1780652 -0.13139802
000040 a3 b4 07 3e db 39 c3 3c 0c cc ca 3c eb 01 9d be
       0.13252501 0.023831299 0.0247555 -0.30665526
000050 d6 21 94 3d 35 08 63 be c4 d6 e7 be c5 ab 6b 3e
       0.07233016 -0.221711 -0.4528104 0.23014744
000060 46 74 fd bd 1f 22 0f be 20 71 26 be c5 56 70 bc
       -0.12375693 -0.1397786 -0.16254091 -0.014669125
000070 fa 80 c4 bd d5 1f a3 3e c9 b1 3b 3d 8d f8 a1 3e
       -0.09594913 0.31860223 0.045823846 0.31634942
000080 79 a0 2d be dc 96 10 be ce 7b e0 bd 04 78 84 be
       -0.16955747 -0.14120048 -0.10961114 -0.25872815
000090 4b c1 b9 3e bc 3c eb bd af 72 8d 3e b5 cb ea be
       0.36280283 -0.114861935 0.2762656 -0.4585854
0000a0 d1 72 ea 3d 81 c1 2a 3e 32 83 a3 bd 52 31 83 3e
       0.11447681 0.16675378 -0.07984008 0.25623566
0000b0 17 4a bd be 0e 9c db 3d cb 89 3d 3e 3d 19 25 be
       -0.3697059 0.107231244 0.18509595 -0.16122909
0000c0 23 3c 07 3f 30 55 8b be 30 6a 68 be 96 20 75 be
       0.52826136 -0.2721343 -0.22696757 -0.23938212
0000d0 3d d3 66 be d8 dd 79 be 4b da 10 3e 43 f6 7c be
       -0.22541519 -0.24401033 0.14145772 -0.24703316
0000e0 42 f9 6f 3e a4 dc d6 3d f3 99 ac 3d 81 04 96 3d
       0.23434928 0.104913026 0.08427801 0.07325078
0000f0 f0 80 89 be 30 28 71 bc eb c5 16 3e d5 77 70 3e
       -0.26856184 -0.014719054 0.14723937 0.23483212
000100 a6 c8 ff 3e 8e 35 27 3d fd 66 a6 3e b4 a1 5b 3e
       0.4995777 0.040822558 0.3250045 0.21448404
000110 c4 3e 84 be 3e f4 65 3e 09 59 27 bd 82 11 52 3e
       -0.25829136 0.22456452 -0.040856395 0.20514491
000120 e4 0a 33 3d 7c 55 29 be 2f 49 17 3d 96 58 cf 3c
       0.043711558 -0.16536516 0.036935028 0.025310796
000130 ad b0 09 3e 30 78 5a bd 9b ba ae be 19 9b 74 bd
       0.13446303 -0.053337276 -0.34126744 -0.059718225
000140 ca ed 2b 3e 5e 8c 2f 3e cf 76 f1 3a 5e 0c 5d be
       0.16789928 0.1714339 0.0018422249 -0.21586749
000150 fb 4f ff bd 71 02 43 3e 6d 0c 2a be 78 e8 cf be
       -0.12466427 0.190439 -0.16606303 -0.40607047
000160 9d dd 6c 3e ea 3a 13 be e1 3f fb 3d 18 63 a9 3e
       0.23131414 -0.14377943 0.12268043 0.33083415
000170 fc c3 da be 49 b9 c5 3e 31 54 b2 be d8 1c e3 bd
       -0.4272765 0.38617924 -0.34829858 -0.11089486
000180 56 ab 01 3d 72 af 87 3e 7e 92 d0 bd e7 b1 12 be
       0.03165754 0.26501042 -0.10184191 -0.14325677
000190 3b 91 73 be 9e 1f fc 3d 1e 53 27 3e 60 6a 54 3d
       -0.2378587 0.12310718 0.163403 0.05185926
0001a0 6d b0 82 3d af 24 07 3e f9 1c 49 be 9d c8 6a 3e
       0.06381307 0.13197587 -0.19639958 0.2292809
0001b0 88 4d c5 bc a7 ac 4b bd 5c 63 9a 3e 5f 9d e2 bd
       -0.024084821 -0.0497252 0.3015393 -0.110651724
0001c0 2d ec cc be 2e 01 31 be 60 36 8e 3e b1 22 42 bd
       -0.40023938 -0.17285606 0.2777586 -0.047396366
0001d0 d0 66 db bc 68 71 41 be f6 c8 bf bd 85 23 24 bf
       -0.026782423 -0.18890917 -0.09364502 -0.641167
0001e0 3f de c1 be 65 c6 92 be de 37 9a be 16 c5 b4 3d
       -0.37864873 -0.28666988 -0.30120748 0.08826654
0001f0 26 c3 79 3e fb 4b f2 3c 3f fb 6a be 5e 47 e8 3c
       0.2439085 0.029577246 -0.22947405 0.028354343
000200 db 1d 45 be 31 3d ab 3e 95 c2 91 3e 6b d9 84 bd
       -0.1924967 0.33445123 0.28468767 -0.06486782
000210 d7 b8 6b 3e f5 62 0b be 91 66 38 be fa b9 d1 bc
       0.2301973 -0.13611968 -0.18007876 -0.025601376
000220 a0 ae ea 3c 7f db 4a 3e 71 26 56 be 4b f1 2d 3e
       0.02864772 0.19810294 -0.20913102 0.16986577
000230 48 53 b3 3e 78 a4 73 be fd 35 ee 3b d6 a3 a1 3e
       0.35024476 -0.23793209 0.0072696195 0.3157031
000240 e7 d4 ea bd 41 1c e3 bd be 11 ff be ea ac 47 be
       -0.11466389 -0.110893734 -0.49818224 -0.19499555
000250 39 fa bb be c2 ae 06 be 4d 6b a1 be 4d aa 8f 3e
       -0.36714342 -0.13152602 -0.31527176 0.28059617
000260 79 cb 08 be 11 93 52 3d ec 31 bc 3d 46 33 38 be
       -0.13358869 0.051409785 0.09189209 -0.1798831
000270 e8 8d 22 be 66 17 c4 3d 0f b9 f1 3d 14 5c b6 be
       -0.15874445 0.095747754 0.11802875 -0.35617125
000280 db 65 a0 3e 74 5b 3f be 07 b4 61 3e 6c 61 e8 3c
       0.3132771 -0.1868723 0.22041331 0.028366767
000290 5d 52 1e be cc 01 2c 3e eb 49 7d 3e ce 1c 9e be
       -0.15461107 0.1679756 0.24735229 -0.3088135
0002a0 22 28 98 be 71 eb bf 3e 77 a5 43 be 9d b9 30 bd
       -0.2971812 0.37484315 -0.19106089 -0.043145765
0002b0 f4 0f 7d be 36 01 bf 3d fd 3e 16 bf 53 7d bd bd
       -0.24713117 0.09326403 -0.5868986 -0.09252419
0002c0 23 f0 b1 3e 7e d5 7e 3e 10 83 21 bd 20 89 3e 3e
       0.34753522 0.24886128 -0.03943163 0.18606997
0002d0 4d 14 2d be 38 21 85 3d 43 6f 38 3d c3 28 82 be
       -0.16902275 0.065004766 0.045027982 -0.25421724
0002e0 03 92 e9 be a4 7e 19 3e f0 30 d4 be d5 ec a4 3c
       -0.4561921 0.14989716 -0.41443586 0.020132462
0002f0 d9 b2 78 be fd 56 e9 3e 0a ce 20 3e b6 dd 05 be
       -0.24286975 0.4557418 0.15703598 -0.13072857
000300 b8 55 a8 bd cb b9 4b 3e 27 49 04 bd fd 9c 92 3d
       -0.082194746 0.19895093 -0.032296326 0.071588494
000310 0c 18 45 3c df ab 1e 3e 4b f9 95 3e 44 7b a2 be
       0.012029659 0.15495251 0.29291758 -0.3173467
000320 3d f7 80 3c f4 58 2e be ad 04 10 be d5 9f 03 3e
       0.015742892 -0.1702612 -0.14064284 0.1285394
000330 5a 75 99 bc 70 6e d8 bd 26 4a bc 3c 52 c4 b9 bd
       -0.018732715 -0.10567939 0.022984575 -0.09070648
000340 e5 c2 c6 3e 33 c9 2d be c1 df 1a be 6d a9 39 3e
       0.38820568 -0.16971283 -0.15124418 0.18131037
000350 85 17 b5 3e 77 ae 29 3e 9e 00 30 be 23 a8 d1 bd
       0.35369506 0.1657046 -0.17187735 -0.10237148
000360 17 57 e4 3e a7 f5 02 3d 91 bf 88 3e 23 b6 a8 3e
       0.44597694 0.031972554 0.26708654 0.3295146
000370 ba 0b df bc 48 9d 04 be 46 a3 40 be 61 ef 13 3e
       -0.027227271 -0.12950623 -0.18812284 0.14446785
000380 aa 95 59 be e7 9b 7a be 74 80 cc bc e6 7f cd be
       -0.21248499 -0.24473535 -0.024963595 -0.4013664
000390 85 1b 85 bd 3f b3 6e 3d 81 e0 20 3d 05 48 53 3e
       -0.064993896 0.05827641 0.039276604 0.20632942
0003a0 f8 2b b7 3c c9 6e 96 3d b9 66 3f 3e 11 0f 5b 3e
       0.022359833 0.07345349 0.1869153 0.21392466
0003b0 af 52 1c be bd 91 c5 3a d8 f6 a0 3e 07 4f ab 3e
       -0.15265916 0.0015073341 0.31438327 0.3345873
0003c0 0c 4c 96 bd 88 d9 45 bd 2b 1f 2b be 3f 0f 1f 3e
       -0.073387235 -0.048303157 -0.16711108 0.1553316
0003d0 ed 4b 4d 3e cc 71 9b be cc 64 87 3e 77 b9 43 be
       0.20048495 -0.30360258 0.2644409 -0.19113718
0003e0 b4 bb a2 3e 4f a9 c7 3d 07 44 50 3c 47 bd ce 3d
       0.3178383 0.0974909 0.0127115315 0.100946955
0003f0 0e 92 de be d8 0c 7c be 4d b8 f0 3d 38 c3 17 3d
       -0.43470806 -0.24614275 0.117539026 0.03705141

network_body._body_endoder.seq_layers.2.bias f4 [256]
000000 d4 d3 cd bb 93 0c 05 3b f6 50 a6 bb 71 93 41 ba
       -0.0062813554 0.0020301684 -0.0050755693 -0.0007384336
000010 6b f6 f4 bb 72 5a 14 bb b4 fb 1a bc c5 97 32 bc
       -0.0074756644 -0.0022636917 -0.009459425 -0.0109004425
000020 cd d8 64 bb 33 43 30 bc d9 72 a1 bb e1 09 a9 39
       -0.0034919262 -0.010758209 -0.004927021 0.00032241552
000030 4a 68 8a bb 7a 86 04 bc ac 2f a5 bb 04 a5 07 bc
       -0.004223858 -0.008088702 -0.0050410833 -0.008279089
000040 3e 13 02 3c 22 50 d8 bb 85 1a 1b bc 11 15 13 bc
       0.007939158 -0.0066013495 -0.009466772 -0.008977191
000050 ca bb 18 bc 35 ec ea bb 41 f7 a4 bb f1 7e b8 bb
       -0.009322116 -0.0071692714 -0.005034358 -0.005630367
000060 a3 39 6f bb 4e d8 42 bc 37 1d 10 bc da d2 00 bc
       -0.003650286 -0.011892391 -0.008796028 -0.007862771
000070 c5 5e 99 bb f4 b6 c8 bb 7e 99 ba bb c5 18 1c 3b
       -0.004680487 -0.0061253253 -0.005694567 0.0023818475
000080 04 c4 11 bb 45 f2 b4 bb b6 ce de bb c0 bd 27 bc
       -0.0022242079 -0.005522045 -0.006799544 -0.010238111
000090 59 69 a6 bb d9 f9 f5 bb b2 0f 07 bc 91 92 20 bb
       -0.0050784764 -0.007506591 -0.008243488 -0.0024501423
0000a0 3f 13 a3 bb 81 0a 3e 3c 53 e2 3a bc 81 b6 50 b9
       -0.0049766595 0.011599184 -0.011406499 -0.00019904414
0000b0 55 1d 0c bc 50 81 39 bc 54 98 49 bb 31 53 70 bc
       -0.008551915 -0.011322334 -0.003076096 -0.014668272
0000c0 38 92 e2 bb 00 d9 de bb d2 58 67 bb a6 27 07 bc
       -0.0069144033 -0.0068007708 -0.0035300744 -0.008249199
0000d0 a5 58 a9 bb d8 2b b0 bb e9 94 47 bc cb a3 17 bc
       -0.005168038 -0.0053763203 -0.012181499 -0.00925536
0000e0 a8 d4 48 bc d9 07 8d bb b4 d7 57 bc f0 ba 01 bc
       -0.012257732 -0.004303914 -0.013173986 -0.0079181045
0000f0 45 25 8d bb eb bc c1 bb 17 e2 d3 3a be fc ef bb
       -0.0043074214 -0.0059124134 0.0016165402 -0.0073238304
000100 e4 c7 e9 ba 90 7d 81 bb 9f 6f 45 ba cc 5e 28 bb
       -0.0017836061 -0.003951736 -0.00075315865 -0.002569127
000110 84 68 64 bb 30 9e fe bb 04 be 6a bc 8c 32 a5 bb
       -0.0034852335 -0.0077703223 -0.01432753 -0.005041426
000120 34 bd b9 bb 06 3a a5 bb 47 03 2d bc 15 3a 53 3a
       -0.0056683067 -0.0050423173 -0.010559863 0.0008057666
000130 3a 1c 2e 3b 05 02 92 bb 74 4b 7e bb c0 d7 b9 bb
       0.0026567117 -0.004455807 -0.0038802298 -0.0056714714
000140 28 50 fa bb 6e 48 eb bb b1 4c d0 bb 44 25 45 ba
       -0.00763895 -0.007180265 -0.0063567986 -0.00075205066
000150 d2 86 f8 39 52 04 e1 bb af 32 ee bb 4d e7 86 bb
       0.00047402695 -0.00686697 -0.0072692255 -0.0041169287
000160 57 dd f0 bb d5 64 42 bb 7b 0e be bb f4 62 b7 bb
       -0.0073506045 -0.0029662151 -0.005800066 -0.005596513
000170 f9 74 4c bc 0a 7e b0 bb 78 a2 d9 bb e7 57 85 bb
       -0.01247906 -0.005386119 -0.0066416822 -0.0040693167
000180 f0 3c c8 3b 4e dc 30 bb be c4 c3 3b ca 3c 55 bc
       0.00611078 -0.002698678 0.005974381 -0.0130149815
000190 d2 46 dc ba 86 42 90 bb dd 08 2a bc 32 fa 41 bc
       -0.0016805774 -0.0044024615 -0.01037809 -0.011839436
0001a0 eb 97 5e bc bd ef 24 3a db e6 ae bb ee 41 05 bc
       -0.013586025 0.00062918273 -0.0053375787 -0.008133395
0001b0 7f 2c 03 bc 29 c7 30 bc 24 3b 58 bb 8d 6e 9a bb
       -0.008006214 -0.010789671 -0.0032994235 -0.0047128857
0001c0 36 fe be ba ef d6 6e bc da eb 08 bb c0 e1 de ba
       -0.001457161 -0.014577611 -0.0020892532 -0.0017004535
0001d0 63 2c 11 bb f5 e2 2d 3c 78 01 38 bc 61 64 30 bc
       -0.00221517 0.010613193 -0.011230819 -0.01076612
0001e0 7e ec bd bc 9c ed 04 bc 2b ae 70 bb cf 61 2d bc
       -0.023184057 -0.008113291 -0.0036724906 -0.010582401
0001f0 6e 00 4b ba b6 3a 05 bc 67 a1 4c 37 2d 76 5f bc
       -0.00077438995 -0.008131674 1.2196927e-05 -0.013639015
000200 b2 f7 11 3b 86 50 69 bb 8e 24 6a bb e5 33 3f bc
       0.0022272882 -0.0035600974 -0.0035727355 -0.011670087
000210 48 e6 d9 bb f5 ad 5e bc de e8 3c 3c b0 04 3b bb
       -0.006649766 -0.013591279 0.011530129 -0.002853673
000220 1b 53 2a bc fd 52 33 bc f8 e9 d2 bb 99 c8 60 bb
       -0.01039579 -0.010945079 -0.0064365827 -0.0034299253
000230 0b c4 b2 3a fc 6a 04 bc fe 21 84 bb a4 dd 69 bb
       0.0013638748 -0.008082148 -0.0040323725 -0.0035685087
000240 f1 03 13 bb de 9f 03 bc 09 89 06 bc 0a 42 13 bc
       -0.002243277 -0.008033721 -0.008211383 -0.008987913
000250 df 2f a9 ba 5c de bd bb 31 c9 84 bb 49 ce e2 bb
       -0.0012907943 -0.0057943296 -0.004052304 -0.0069215638
000260 cb 9f 51 bc d6 76 9e bb 72 a9 3e bb b5 82 9d b9
       -0.012794445 -0.0048359437 -0.0029092696 -0.00030042758
000270 c8 6c c6 ba be 5d 91 3b ed ac 22 bc 49 52 4f bb
       -0.001513862 0.004436224 -0.009928924 -0.003163474
000280 34 39 5b bc 45 92 d8 3a 6c 76 26 bc 43 ac ca bb
       -0.0133803375 0.0016523084 -0.01016007 -0.006185086
000290 04 06 3c bc 1b d6 58 bc 47 87 4d 3b 7a c3 cb bb
       -0.011476044 -0.0132346405 0.003136115 -0.006218371
0002a0 c3 5b 12 bb fc 82 47 3b 90 bb 8b bc 3d e9 ba bb
       -0.0022332526 0.0030443063 -0.01705721 -0.0057040737
0002b0 13 ed 5e bc f2 1e fc bb 93 ef ca bb ea c7 e5 bb
       -0.013606328 -0.0076941187 -0.0061931103 -0.007012357
0002c0 b4 ff dc bb 1c af 82 bc 5e 79 76 bc 27 99 9f ba
       -0.0067443494 -0.01595264 -0.015043585 -0.001217638
0002d0 ee 9f 07 3b 57 44 fb ba 2c 98 e7 bb f9 f3 55 bc
       0.002069469 -0.0019170147 -0.007067701 -0.013058656
0002e0 ff bb 5a bb 6b 46 36 bb bd 05 50 bc bb 54 82 bb
       -0.0033376215 -0.0027812968 -0.012696681 -0.003977386
0002f0 a1 26 ab 39 3e 1c 1c b9 a9 7a 78 3b 51 36 ab ba
       0.00032644442 -0.0001488784 0.0037914908 -0.0013062452
000300 66 e2 48 ba ce f5 e6 3a 8e f0 3d 3c a5 c6 05 bc
       -0.00076631305 0.0017620863 0.011592997 -0.008165036
000310 5e 7d e1 ba 24 6c cc bb e0 66 1e bc 21 68 3a bb
       -0.00172035 -0.0062384773 -0.009668082 -0.0028443413
000320 f5 95 ab ba 18 e5 db bb c3 69 3b bc 2a e4 33 bb
       -0.0013090955 -0.0067106597 -0.01143879 -0.0027449229
000330 fa 45 ed bb df fe 7b bb 3c ae 81 bc a6 29 04 bc
       -0.007241008 -0.0038451476 -0.015830152 -0.00806657
000340 b0 0e 39 bc 7e 44 31 3b 00 93 1b 3c b3 6d 32 bc
       -0.011295006 0.0027048881 0.009495497 -0.010890412
000350 5d 8b e2 bb 8b 7d 49 bb 6e a6 a8 bb 1f 51 e6 ba
       -0.006913586 -0.0030744995 -0.005146793 -0.0017571783
000360 9e a8 43 bc 13 b0 cd bb 9a 09 1f bc 8f 50 4d b8
       -0.011942057 -0.006277093 -0.009706879 -4.8950835e-05
000370 50 33 e3 bb 29 7e 8d bb ae 13 de bb a2 df 15 bc
       -0.006933607 -0.004318018 -0.0067772483 -0.0091475565
000380 03 68 23 3b 5a aa 95 b9 be 4c 47 3b f9 56 10 bc
       0.0024933822 -0.00028546416 0.0030410732 -0.008809798
000390 d4 20 83 bb 5e cf 31 bc 16 17 05 bc 99 29 84 bb
       -0.004001716 -0.010852663 -0.00812318 -0.004033279
0003a0 0f b7 b8 bb 68 99 f2 bb 3a b9 75 bb 30 1d f0 bb
       -0.0056370567 -0.0074035414 -0.0037494437 -0.007327698
0003b0 c9 38 46 3c 6b 33 f4 bb 78 d6 10 3b 56 a0 38 bb
       0.0120985 -0.0074524186 0.002210049 -0.002817174
0003c0 fc 5b b1 bb 3a 9a 93 3a 59 d3 11 bc 0d ba 47 bc
       -0.0054125767 0.0011261173 -0.008900487 -0.012190354
0003d0 ba a9 02 bc e7 36 d6 3b 92 79 11 bc e6 71 bb bb
       -0.007975036 0.0065373066 -0.008879082 -0.005720365
0003e0 33 8f ec bb f5 1d d7 bb 0b 48 72 bb b7 54 ef bb
       -0.007219219 -0.0065648505 -0.003696921 -0.0073038
0003f0 13 4b 81 bb 83 fe 66 bc 42 c5 8f bb 9b b3 6f bb
       -0.003945717 -0.014098766 -0.0043875286 -0.003657556

network_body._body_endoder.seq_layers.2.weight f4 [256, 256]
000000 6a 87 67 bc ed 10 b6 3d 5a 95 cb bc ae 9b b1 bc
       -0.014131406 0.08889947 -0.02485149 -0.02168068
000010 50 74 8c bd 3d c0 2b bd a8 29 a3 3d 4b bd 15 bd
       -0.06858122 -0.04193138 0.0796693 -0.036557477
000020 c4 99 0d bd 33 b3 11 3c d7 c4 3b 3c db 5e 70 3c
       -0.03457047 0.008892822 0.0114605045 0.014671053
000030 c1 47 64 3d 82 07 42 bd d0 21 55 bc a7 6d 87 3d
       0.055732492 -0.04737044 -0.01300855 0.066127114
000040 9b bc ac bc 6c a8 8c bc cf 0d d9 3c 74 ee 4a 3d
       -0.021086028 -0.017170154 0.026495842 0.049543813
000050 ba 5c f4 3c 7e 5d 85 bc 9c 70 73 bc 4e ec 60 bd
       0.029829372 -0.016279932 -0.014858391 -0.054912858
000060 8d cc 00 bd 6d f5 26 3b 3d 95 c4 bd ab f1 a2 bd
       -0.031445075 0.0025475875 -0.095987774 -0.07956251
000070 b2 2e 12 bd cf b4 1f bd 40 a0 78 3d 7e 49 21 bd
       -0.035689063 -0.038990792 0.0606997 -0.03937673
000080 08 c3 b8 bc 01 d8 f9 bc 6c 51 0f bd 0b eb c0 bc
       -0.022553936 -0.030498507 -0.03498976 -0.023549577
000090 db 6d a4 bd 57 f2 c6 bc fa d4 b6 3d 17 a6 4e 3d
       -0.08028766 -0.024285479 0.08927341 0.050451364
0000a0 25 c4 19 3a e7 fb 0f 3d a3 dc 72 bd 2d a2 c7 3c
       0.00058657146 0.035152342 -0.059292447 0.024369324
0000b0 1f e4 27 bd ba dd 3a bc 2f 26 e8 bc d0 cb 85 bc
       -0.040989038 -0.011405403 -0.02833852 -0.016332537
0000c0 f4 75 85 3d 8a a1 0d bb 2f b6 61 bd e0 00 db bd
       0.065166384 -0.0021611177 -0.055105384 -0.10693526
0000d0 da 5e 2f 3d f8 e6 03 3e 19 6e d5 3d 78 70 a9 3d
       0.042815067 0.12881076 0.1042139 0.08273405
0000e0 9b 62 64 3d b4 60 7e bc 9a a8 b7 3d bf cb 38 3d
       0.0557581 -0.0155259855 0.08967705 0.045116182
0000f0 59 f0 b5 3c 57 8d 24 3d 3b a8 80 3d 7e 63 a3 3d
       0.022209333 0.040173855 0.062820874 0.07977961
000100 9c 10 26 3d 78 87 13 bc cd 0b 71 bc cb 5c b0 3d
       0.040543184 -0.009004466 -0.014712286 0.08611449
000110 dd 49 7d bc 41 fb 7d 3d d7 e5 16 3d 33 19 ec bd
       -0.015459505 0.062007193 0.036840286 -0.11528244
000120 f4 2d 99 bc a0 a9 57 bd 8e 77 18 bc b6 3a ee bc
       -0.01869867 -0.052652 -0.009305848 -0.02908073
000130 85 96 64 bd 56 2c 42 3d cd ea 3c 3c 49 7f 16 be
       -0.05580761 0.047405563 0.01153059 -0.14696993
000140 34 bb b6 bd 6b e1 a4 bd 39 77 96 3d e8 d8 40 3c
       -0.08922425 -0.080508076 0.07346959 0.0117704645
000150 70 45 18 3d 1b b2 fd 3b 46 50 1c 3e 09 cd 36 3d
       0.037175596 0.007742179 0.15264997 0.04462913
000160 50 50 cf bd 77 2e a3 3d f3 b9 a5 3d 29 e9 0a 3d
       -0.1012274 0.07967847 0.080921076 0.033913765
000170 4c ed 53 bd 35 ae db bc b4 6f 29 bd 70 1c 01 3d
       -0.051739976 -0.026816467 -0.041366294 0.03152126
000180 18 cd 41 bd b2 b0 cd bd 8e fa 1d bd 82 91 6f 3d
       -0.047314733 -0.100434676 -0.038569026 0.058488376
000190 00 be 0b be 6d e5 af 3d 23 2b 91 3c d8 d5 19 bc
       -0.13646698 0.08588681 0.017720765 -0.009389363
0001a0 09 c5 a6 3c 4d fb 7f 3c f1 6a c2 3c dd 0c 81 3d
       0.020357626 0.01562388 0.023732634 0.063012816
0001b0 18 02 0b bb 11 fa 4b bd 7a 7a ee bb 44 1c 76 3d
       -0.0021210965 -0.04979903 -0.007277784 0.06008555
0001c0 1f bc 56 3d fa dd 6c 3d 3d 31 60 bc 42 e5 74 3d
       0.0524255 0.05782888 -0.013683614 0.05978895
0001d0 38 3f 2f 3d 11 6a 82 3d 2a 57 57 bd 53 0a 62 bd
       0.0427849 0.06367887 -0.05257336 -0.055185627
0001e0 4c 3c 9b bd f9 36 90 3d d3 69 dc bd b9 ff 17 bc
       -0.0757986 0.07041735 -0.10762372 -0.009277278
0001f0 1e 1c a4 3d 91 56 1c bb f6 b4 28 bc 90 96 90 3d
       0.080131754 -0.0023855309 -0.010297051 0.070599675
000200 bb 9f ab ba 33 6f 4c bd 80 54 3c bd 93 df de bc
       -0.0013093868 -0.049910735 -0.045979023 -0.027206218
000210 0c 44 15 bd 50 c4 03 3c 98 ae 74 bb 3a 44 20 3d
       -0.036441848 0.00804241 -0.0037335511 0.039127566
000220 4f b1 dd bb 23 4e 87 bd 3f f2 f7 3c ed 9a 4c 3d
       -0.0067655216 -0.066067 0.03026688 0.049952436
000230 84 d5 80 bd dd 6c d7 3d c2 d5 81 bd fc b6 f7 3c
       -0.06290725 0.10518811 -0.06339599 0.030238621
000240 cb b7 85 3c b4 e1 6b bd ba 53 02 bb cd 44 49 bc
       0.01632299 -0.057588294 -0.001988633 -0.01228447
000250 86 0d 8e 3d d4 75 e0 bc ee f9 8c 3c 2a 2c b3 bd
       0.06936173 -0.027399935 0.01720902 -0.08748658
000260 c5 a8 38 bd 1c 84 fb bd 2d 9f b0 bd 99 95 d6 bd
       -0.045082826 -0.12281057 -0.0862411 -0.10477752
000270 0f 44 d4 3c 7d 3e 2e be 7c d2 4e bd d6 92 dc bd
       0.02591136 -0.17016025 -0.050493702 -0.10770194
000280 52 23 bb 3c d1 0f b9 bb 27 cf f3 3c d2 ce 1b 3d
       0.02284399 -0.0056476374 0.029761864 0.038039036
000290 c9 f3 22 3d 2d 03 56 bd fa 01 6b bd cc 59 83 3d
       0.039783273 -0.052249122 -0.057374932 0.06413612
0002a0 b5 09 16 3d b1 b9 aa bd d3 67 60 3d 7f 3e 00 3e
       0.03663035 -0.08336199 0.054786514 0.1252384
0002b0 13 02 97 3d f9 8a 0c 3c 76 46 dc 3c cb d7 41 bc
       0.073734425 0.008578056 0.026889067 -0.011831234
0002c0 08 31 d7 bd 00 94 80 bc cf 6b 0d 3d 79 9a de 3d
       -0.10507399 -0.015695572 0.034526642 0.10869307
0002d0 70 f5 bb ba 35 eb ca 3d 74 a7 a2 bd 7f ae 2e bd
       -0.0014340114 0.099081434 -0.079420954 -0.04264688
0002e0 7c 8e 97 bd b9 06 41 bb 5c d7 84 bb f1 b2 f4 3c
       -0.074002236 -0.002945347 -0.004053993 0.029870482
0002f0 f0 c5 d7 3c 1e 09 1d be 8d 35 ae 3d f5 df 0e be
       0.026339501 -0.15335509 0.08506308 -0.1395262
000300 96 01 d1 bb 53 d2 e4 bc d1 65 2a bd 81 dc bd bc
       -0.006378363 -0.027932322 -0.041601006 -0.023176434
000310 80 9f 8b bd 6c 85 ea bc 45 cc 07 3d d5 73 28 3d
       -0.068175316 -0.028628074 0.03315379 0.04112609
000320 3d a5 46 3a f3 11 04 bd 20 0b 84 3c b6 2b 80 bd
       0.0007577723 -0.03224368 0.016118586 -0.06258337
000330 92 ee 83 bd f7 bb 6c 3d 4f 78 82 bd b4 53 94 3c
       -0.06441988 0.057796445 -0.06370603 0.018106319
000340 ca b8 99 3c 31 16 b3 bd 91 7b f9 bc d8 74 28 bd
       0.018764872 -0.08744467 -0.030454429 -0.041127056
000350 e9 46 a8 3d b6 08 64 3c 64 0a b8 3d e1 e0 ae bd
       0.0821665 0.0139180925 0.08986357 -0.08538986
000360 a6 4f 06 be d5 3f c1 bc eb b4 e5 3c 6f fc bb 3b
       -0.13116321 -0.023590008 0.02804037 0.0057368795
000370 f3 af a7 3c 77 67 57 ba 3a f1 86 3d d1 f7 a6 3d
       0.020469641 -0.00082170166 0.06588979 0.08152736
000380 3c af b6 3d 7c 70 dc 3c df 60 ba bd 86 3f 1c bd
       0.08920142 0.026909105 -0.09100508 -0.03814652
000390 1a 29 a5 bd b9 75 a0 3d 72 d2 68 bd ed e0 58 3d
       -0.0806448 0.07834954 -0.05684132 0.05294888
0003a0 b5 a0 0d 3e 8f 29 14 bd 53 40 81 bd 34 e5 bd 3c
       0.13830836 -0.036172446 -0.06311097 0.023180582
0003b0 80 25 a7 3c 90 d8 c8 bc 00 3a 4f bd 26 ba a1 3d
       0.020403624 -0.024517328 -0.050592422 0.07896833
0003c0 d5 ab 02 3d 25 f7 85 bd 28 42 89 bd 40 cc 3e bc
       0.031902153 -0.0654128 -0.067020714 -0.011645377
0003d0 5f 45 12 3d 82 ca 2d bc 26 fa 2f bd 9a df d1 bd
       0.03571069 -0.010607364 -0.04296317 -0.10247727
0003e0 21 e6 40 bd 55 d3 f9 bc 1b c1 8b 3d df 40 b7 3d
       -0.047094468 -0.030496279 0.06823941 0.0894792
0003f0 e4 cb a3 3c 3b eb 6d bd 53 4b 52 3c 5b 2b a3 bd
       0.019994684 -0.05808566 0.0128353415 -0.07967254
