Assets/Training/results/”maze_runner”/My Behavior/My Behavior-118530.onnx (onnx, 296077 bytes, 6 tensors)

action_model._discrete_distribution.branches.0.bias f4 [5]
0	0x3c81235f	0.015763937
1	0xbc593106	-0.013256317
2	0x3c49f808	0.012327202
3	0xbbe82562	-0.0070845345
4	0xbc8a18e2	-0.016857568

action_model._discrete_distribution.branches.0.weight f4 [5, 256]
0	0xbd770c9f	-0.06031477
1	0xbcb18c73	-0.021673417
2	0xbd0b2da4	-0.033979073
3	0xbd53be6f	-0.051695284
4	0xbd5b53f7	-0.053546872
5	0xbce5d14f	-0.028053908
6	0xbd4b698d	-0.049661208
7	0xbb38c01f	-0.0028190685
8	0x3ca3f2d3	0.020013249
9	0x3d0aecaa	0.033917107
10	0x3c0b1829	0.008489647
11	0xbd0e6de3	-0.034772765
12	0x3c4abb4e	0.0123737585
13	0xbcc5a0b8	-0.024124488
14	0xbd2ea9b0	-0.042642295
15	0x3c4f368d	0.012647283
16	0x3c264426	0.010148084
17	0xbcc7c624	-0.024386473
18	0xbdbb86c9	-0.091565676
19	0xbd3f19a5	-0.046655316
20	0x3d85bad2	0.06529774
21	0xbd8e30af	-0.069428794
22	0xbd4993bf	-0.049213167
23	0xbd990a77	-0.07472699
24	0xba32b272	-0.00068167516
25	0xbd2d86aa	-0.042364754
26	0xbcbab160	-0.022789657
27	0x3bd9793c	0.0066367667
28	0x3c169cac	0.009192627
29	0x3dc6fe10	0.09716427
30	0xbdb7676d	-0.08955274
31	0xbc920a38	-0.017827138
32	0xbcb419a5	-0.021984885
33	0x3cb8040a	0.022462863
34	0x3d52c715	0.05145939
35	0x3d8867f1	0.0666045
36	0x3c7ade92	0.015311854
37	0x3d7fbcc4	0.06243588
38	0xbc5c9629	-0.013463535
39	0xbd47b454	-0.04875596
40	0xbd5e8626	-0.054327153
41	0x3c3fe024	0.011711154
42	0xbe0398f1	-0.12851311
43	0xbcb5eea7	-0.022208525
44	0xbd058b91	-0.032603804
45	0xbc804dd3	-0.01566211
46	0xbd10ebc8	-0.03538111
47	0xb999b246	-0.00029315258
48	0xbc0f78d5	-0.008756836
49	0x3c5877f9	0.013212197
50	0x3d9b03f2	0.07569112
51	0xbd052194	-0.032502726
52	0x39a95dfa	0.0003230421
53	0xbb8264ac	-0.003979286
54	0xbcfc9e97	-0.03083734
55	0xbcbcfb29	-0.023068981
56	0x3b18ee8e	0.002333555
57	0x3b9e804b	0.004837071
58	0xbd1db41a	-0.038501836
59	0xbcca1661	-0.024668874
60	0xbda239d8	-0.07921189
61	0xbbae5833	-0.0053205728
62	0xbde6d307	-0.11270719
63	0xbc54eca7	-0.012995875
64	0xbc9ed717	-0.019389672
65	0xbc4a58e4	-0.012350295
66	0xbc33ac3d	-0.010966358
67	0xbcc22fdc	-0.023704462
68	0x3bc7f3c6	0.006102058
69	0xbd38da6a	-0.04513017
70	0x3a570dd6	0.0008203661
71	0x3b366c1f	0.0027835441
72	0x3c8c8ac9	0.017156022
73	0xbcd97c69	-0.026548581
74	0xbd0b1c8b	-0.033962768
75	0x3af9c6a0	0.0019056387
76	0xbd9ce36d	-0.076605655
77	0x3c534342	0.0128944535
78	0xbd1a8f41	-0.037734274
79	0xb94a118d	-0.0001927076
80	0xbd61cb1c	-0.05512534
81	0xbd07041e	-0.03296291
82	0xbd079471	-0.03310055
83	0x38bf5a15	9.124369e-05
84	0xbc0cf0f3	-0.008602369
85	0x3d001afd	0.031275738
86	0x3da9d65b	0.08292838
87	0x3b95416a	0.004554917
88	0x3c31e14c	0.010856938
89	0xbd1c5dce	-0.038175397
90	0xbb937901	-0.004500509
91	0xbd809856	-0.06279056
92	0xbcf65bea	-0.030073125
93	0xba65c3aa	-0.0008764813
94	0xbd796733	-0.060889434
95	0xbc884c69	-0.016637998
96	0xbbf2baa1	-0.007407502
97	0xbc80e37b	-0.015733471
98	0xbc361226	-0.011112725
99	0xbd85138e	-0.064978704
100	0x3d64c32c	0.055850193
101	0xbca4d45c	-0.020120792
102	0xbd192dee	-0.037397318
103	0x3c1b20ee	0.0094683
104	0xbd36b9fd	-0.044610966
105	0xbc476641	-0.012170375
106	0xbca5cd81	-0.020239593
107	0xbc2eedb0	-0.010676786
108	0xbdca885a	-0.09889288
109	0xbd20c02e	-0.039245777
110	0xbd26cd2b	-0.040723007
111	0xbcc2c09b	-0.023773482
112	0xbd0f62fb	-0.035006505
113	0xbc36e21b	-0.011162306
114	0x3c2afc7f	0.010436176
115	0xbcad291e	-0.02113777
116	0xbc1a967f	-0.009435295
117	0x3d7d5ba6	0.06185498
118	0x3cec5369	0.028848367
119	0x3c6c4cbd	0.014422593
120	0xbc1fcf9c	-0.009754088
121	0xbc4bd0ab	-0.012439887
122	0x3a927d13	0.0011176191
123	0xbd0032df	-0.031298514
124	0x3d8821ba	0.06647058
125	0xbb7c70d5	-0.0038519402
126	0x3b5fb60b	0.0034135606
127	0xbb45b592	-0.0030168039
128	0x3ba2413f	0.0049516256
129	0xb9f0fde5	-0.00045965533
130	0xbc410893	-0.011781829
131	0xbd9441fc	-0.07239148
132	0x3d026533	0.031834792
133	0xbd60f061	-0.054916743
134	0x3bbfe7c4	0.005856486
135	0x3d985fe7	0.07440167
136	0xbd03c18f	-0.032167014
137	0xbc8b5ffb	-0.01701354
138	0x3bb4e74f	0.005520738
139	0x38bbe35b	8.959203e-05
140	0xbc9c7913	-0.019100701
141	0xbc59a1df	-0.013283222
142	0xbd24ce14	-0.040235594
143	0x3d6d740e	0.057972006
144	0x3c9b9c96	0.018995564
145	0xbd2b2d62	-0.041791327
146	0xbd20e77b	-0.039283257
147	0xbb9b78c2	-0.00474462
148	0x3d23a714	0.03995426
149	0xbcbf4780	-0.023349524
150	0x3c2b4960	0.010454506
151	0xbd05d326	-0.03267207
152	0xbc1cedbe	-0.0095781665
153	0x3b105c82	0.0022027795
154	0xbc7a8a56	-0.015291771
155	0xbcb27782	-0.021785501
156	0x3cef6053	0.029220736
157	0xbc2b2c82	-0.010447623
158	0xbc83323f	-0.01601517
159	0xbcd3a233	-0.025834179
160	0x3c027397	0.007962129
161	0xbd0ccaf7	-0.03437325
162	0xbd8e5b97	-0.06951063
163	0xbc58eec0	-0.013240516
164	0x3ca81678	0.020518526
165	0xbd1dfe9a	-0.038572885
166	0xbc30b750	-0.010785893
167	0xbc795b5d	-0.015219537
168	0x3d11a116	0.035554014
169	0x3cc9cde9	0.024634318
170	0x3c1f2efa	0.00971579
171	0x3cd62fd3	0.026145851
172	0xbd237097	-0.039902296
173	0xbcbbab61	-0.022908868
174	0xbda1ad73	-0.07894411
175	0xbd457eb5	-0.04821654
176	0xbd1c214e	-0.0381177
177	0x3c6846fb	0.014177079
178	0x3c56692f	0.013086601
179	0x3cd4a21a	0.025956202
180	0xbc690888	-0.014223225
181	0xbdcedd5a	-0.10100813
182	0xbd3de5a6	-0.046361588
183	0xbc8aad5e	-0.016928371
184	0x3c1c7a62	0.009550663
185	0xbd37f194	-0.04490812
186	0xbd427eb7	-0.047484126
187	0xbd52e2b3	-0.05148573
188	0xbbb4cbf7	-0.0055174786
189	0x3c6fe624	0.014642272
190	0xbc92526a	-0.017861564
191	0xbd062017	-0.032745447
192	0xbdb5290c	-0.0884572
193	0xbd88a1f3	-0.06671514
194	0x3c10bda0	0.008834273
195	0xbcf7d469	-0.030252652
196	0x3d3cc07c	0.046082005
197	0x3d9a770a	0.07542236
198	0x3c17cbb0	0.0092648715
199	0xbbf711b1	-0.007539951
200	0xbd1eaf3f	-0.038741346
201	0xbc1764a9	-0.009240308
202	0xbd9ddd74	-0.077082545
203	0xbce64a1e	-0.028111514
204	0x3dd3cbf7	0.103416376
205	0x3c204ce2	0.009783955
206	0xbc768608	-0.015046604
207	0x3c0bb2a3	0.008526477
208	0xbc2f36e7	-0.010694242
209	0xbca29bf0	-0.019849747
210	0x3c0f25e8	0.008737065
211	0x3d1723f3	0.03689952
212	0xbd89979e	-0.06718372
213	0x3d1d0b70	0.038340986
214	0xbc4cfe13	-0.012511748
215	0xbbae21cc	-0.0053140875
216	0xbd15b055	-0.036545116
217	0xbd6f4803	-0.058418285
218	0xbc038715	-0.008027812
219	0xbceea215	-0.029130021
220	0xbd337f3f	-0.043822523
221	0xbe061b75	-0.13096412
222	0x3cc29dc0	0.023756862
223	0x3d5282e5	0.051394362
224	0x3db401e8	0.08789426
225	0xbd84e61a	-0.06489201
226	0xbd82940d	-0.06375895
227	0xbd2bd402	-0.041950233
228	0xbc5ca8e6	-0.013468003
229	0x3c5b27fb	0.013376231
230	0xbbc1d0bf	-0.005914777
231	0x3cbc7ef3	0.023009753
232	0x3d0458d0	0.03231126
233	0xbd071c5e	-0.032986037
234	0x3b97f6b0	0.0046375617
235	0xbd23602a	-0.03988663
236	0xbd0fc20c	-0.035097167
237	0xbcb44527	-0.02200563
238	0x3c4bb746	0.0124338325
239	0x3d35d516	0.044392668
240	0xbcd2fb44	-0.025754578
241	0x3c172826	0.009225881
242	0x3b0db81a	0.0021624626
243	0x3d62c8be	0.055367224
244	0x3c49d334	0.012318421
245	0x3c560be7	0.013064361
246	0xbaf0ba49	-0.0018366064
247	0xbabba676	-0.0014316577
248	0x3b0fd0ae	0.002194445
249	0xbd97bc30	-0.07408941
250	0x3b5cb454	0.003367682
251	0xbb5335c5	-0.0032228094
252	0x3dbe1d13	0.09282889
253	0xbd755208	-0.059892684
254	0xbcf296ca	-0.029612917
255	0xb917873a	-0.00014450858

network_body._body_endoder.seq_layers.0.bias f4 [256]
0	0x3e256571	0.16151978
1	0xbd860813	-0.06544509
2	0xbcd39458	-0.025827572
3	0xbd26c59d	-0.040715802
4	0x3e03aede	0.12859675
5	0x3d439efe	0.04775905
6	0xbda0e819	-0.07856769
7	0xbac90306	-0.0015335984
8	0x3d98b82d	0.07457004
9	0xbd2d84a6	-0.04236283
10	0xbcf6d860	-0.030132473
11	0xbc8c53ea	-0.017129857
12	0x3cd9812b	0.02655085
13	0xbd47a013	-0.048736643
14	0x3dce7438	0.10080761
15	0xbd0c4fa0	-0.034255624
16	0x3da37ffd	0.07983396
17	0xbc96afb6	-0.018394332
18	0x3d1fcf1f	0.039015885
19	0xbd24219b	-0.04007111
20	0x3aef8035	0.0018272462
21	0xbbb2c92e	-0.0054561114
22	0x3d020c48	0.031749994
23	0xbd9347af	-0.07191407
24	0xbd86fb89	-0.06590945
25	0x3d822a7e	0.06355761
26	0xbd324304	-0.043520942
27	0x3e51c5af	0.20485567
28	0x3c721ac7	0.014776892
29	0x3da39aa4	0.0798848
30	0xbc90583c	-0.017620198
31	0x3bb23f01	0.0054396396
32	0xb87411f4	-5.8190853e-05
33	0xbc2f3935	-0.010694792
34	0x3c6d18f6	0.014471283
35	0x3b0cc771	0.002148118
36	0xbce11ec9	-0.0274805
37	0xbc86127f	-0.016366241
38	0x3d6daca2	0.058025964
39	0xbd4357a3	-0.047691
40	0x3d17c467	0.03705254
41	0xbda384ad	-0.0798429
42	0x3d0a4f95	0.0337673
43	0xbd26aca8	-0.040692
44	0xbd7286be	-0.05921053
45	0xbd4cd55a	-0.050008155
46	0xbce27735	-0.027644733
47	0x3da15643	0.07877781
48	0xbcbc46d5	-0.022982994
49	0x3db4d6f2	0.0883006
50	0x3d1e13b8	0.038593024
51	0x3c0697f2	0.0082149375
52	0x3e1f143a	0.1553506
53	0xbd001ad5	-0.03127559
54	0xbcf44b47	-0.029821051
55	0x3e12a7d8	0.1432184
56	0xbcc0d633	-0.023539638
57	0x3df64648	0.12025124
58	0xbcee5613	-0.029093778
59	0x3e4634d2	0.19356087
60	0x3e697447	0.22798263
61	0xbd52b1f5	-0.051439244
62	0xbcbfaf27	-0.023398949
63	0xbd440328	-0.047854573
64	0xbd810fd9	-0.06301851
65	0xbd06b879	-0.03289077
66	0xbd9ffc4c	-0.07811794
67	0x3d223546	0.039601587
68	0xbbbfa999	-0.005849075
69	0x3dc005fb	0.09376141
70	0x3cede284	0.029038675
71	0xbca171b8	-0.019707546
72	0xbdb2e653	-0.08735337
73	0x3d71a0db	0.058991294
74	0xbd98e34a	-0.07465227
75	0x3d94da81	0.07268239
76	0x3e5c3ee3	0.21508364
77	0xbbc2e2dd	-0.0059474544
78	0xbbe09062	-0.0068531493
79	0x3db89997	0.0901367
80	0x3c925046	0.017860543
81	0xbdb4aabd	-0.08821628
82	0x3d144df6	0.03620716
83	0x3dc45af5	0.09587661
84	0x3bf0e877	0.0073519307
85	0x3cb188d6	0.021671694
86	0xbd376ffc	-0.04478453
87	0x3cc46df2	0.023978207
88	0xbcc735cb	-0.024317643
89	0xbd926033	-0.07147255
90	0xbd1dd729	-0.03853527
91	0xbd45ff5b	-0.04833923
92	0x3e0e07bf	0.13870142
93	0xbd6ac79d	-0.057319272
94	0x3dcf194b	0.10112246
95	0x3d8f0d57	0.06984966
96	0xbdaf78df	-0.08567976
97	0x3e69de89	0.22838797
98	0x3d9c78b5	0.076402105
99	0xbd6eb423	-0.05827726
100	0xbd359fab	-0.044341724
101	0xbcd0a936	-0.025471311
102	0x3d4d06be	0.050055258
103	0x3d4239ef	0.04741853
104	0x3cb25157	0.021767301
105	0x3d09e7aa	0.033668198
106	0x3d225b20	0.039637685
107	0xbc22f38a	-0.00994576
108	0x3db47395	0.08811108
109	0xbd91433e	-0.070929036
110	0xbd43cfd2	-0.047805615
111	0xbd8a9b17	-0.06767862
112	0x3cf9b9c1	0.030484082
113	0x3de85b4d	0.11345539
114	0xbda7e869	-0.081986256
115	0xbd416f45	-0.047225256
116	0xbc8bca18	-0.01706414
117	0x3d11e320	0.035616994
118	0xbd4c61ae	-0.049897842
119	0xbdaaad41	-0.08333827
120	0xbaa0df73	-0.0012273624
121	0x3ceb5976	0.028729182
122	0xbd21b84f	-0.03948241
123	0xbc239a54	-0.009985525
124	0xbd975854	-0.07389894
125	0xbd45ef0e	-0.048323683
126	0x3e06b185	0.13153656
127	0xbd39d916	-0.045373045
128	0xbd1c1230	-0.038103282
129	0x3de68fc7	0.11257892
130	0xbd83f74f	-0.06443655
131	0xbd75db88	-0.060023814
132	0x3dead44e	0.11466275
133	0xbd3cd0c8	-0.046097547
134	0xbd8e5b5c	-0.06951019
135	0x3c66796c	0.014067035
136	0xbd6d1a7d	-0.05788659
137	0xbd53b0f8	-0.051682442
138	0xbd46f12a	-0.048569836
139	0x3d7d3bbe	0.061824553
140	0x3e1607d0	0.14651418
141	0x3a9d602b	0.001200681
142	0x3dbd9df1	0.092586406
143	0xbcf0b1e3	-0.029381698
144	0x3dcb5935	0.09929124
145	0xbc858764	-0.01629991
146	0xbd203710	-0.03911501
147	0xbca22992	-0.019795213
148	0xbcf9ca99	-0.030492114
149	0xbd2b41f0	-0.04181093
150	0x3d377914	0.044793203
151	0x3dfefdd3	0.12450757
152	0xbd9943a1	-0.07483602
153	0xbbcf1341	-0.006319434
154	0xbd9bd3ac	-0.076087326
155	0xbd36383a	-0.044487216
156	0x3e8e0a93	0.27742442
157	0xbce6a5fc	-0.02815532
158	0x3e454f1e	0.19268462
159	0x3d3b4ca0	0.045727372
160	0xbceb1105	-0.028694639
161	0x3cb1e430	0.021715254
162	0x3d8c5e16	0.06853883
163	0xbc3e005d	-0.011596766
164	0x3d1d1d2a	0.03835789
165	0x3db5aba8	0.088706315
166	0xbde02e91	-0.10946382
167	0x3e967682	0.2938729
168	0x3db166d0	0.08662188
169	0x3dafcf21	0.085844286
170	0x3d6b9e03	0.05752374
171	0x3e53784f	0.20651363
172	0x3d9c1889	0.07621867
173	0x3de4fbf8	0.11180872
174	0xbd14810a	-0.036255874
175	0xbc6a90fd	-0.014316794
176	0xbc990cf9	-0.018682944
177	0x3c725386	0.014790421
178	0x3df9b048	0.12191826
179	0x3d1c6c88	0.03818944
180	0xbd7be20a	-0.061494865
181	0x3df2c3a6	0.11853723
182	0xbd0b2c37	-0.033977713
183	0x3e864a26	0.26228446
184	0xbd5474ed	-0.05186932
185	0x3dd1f0d1	0.1025101
186	0xbda882c8	-0.082280695
187	0x3c2ce273	0.010552037
188	0xbd5aed08	-0.053448707
189	0x3cbec222	0.02328593
190	0xbd01cf24	-0.031691685
191	0x3d1da8c0	0.03849101
192	0xbd2108a1	-0.03931487
193	0x3dba8299	0.09106941
194	0x3d8d6132	0.06903304
195	0x3e5f6cad	0.218188
196	0xbcaf4e23	-0.021399563
197	0x3e5b4096	0.21411356
198	0x3cc2b95f	0.023770032
199	0x3c739529	0.0148671055
200	0xbcddb8bd	-0.02706563
201	0x3aa5d961	0.0012653285
202	0xbd5c7100	-0.053818703
203	0x3e03ec68	0.1288315
204	0x3d8cee48	0.06881386
205	0xbbe0a52b	-0.006855627
206	0xbdd451a1	-0.10367132
207	0xbd238b86	-0.03992798
208	0x3e4d7e54	0.20067722
209	0x3c43ae5e	0.011943428
210	0x3c495f83	0.012290838
211	0x3df251a7	0.1183198
212	0x3e17d157	0.1482595
213	0xbd16a295	-0.036776144
214	0xbc6d7ce7	-0.014495111
215	0xbc71a5fb	-0.0147490455
216	0xbd479ff5	-0.04873653
217	0xbd8e6903	-0.06953623
218	0xbd3ad297	-0.04561099
219	0xbd8648a7	-0.06556826
220	0x3dbc2ba0	0.09188008
221	0xbcdfebff	-0.027334211
222	0xbd94448a	-0.07239635
223	0xbd8f27a3	-0.06989982
224	0x3c124c27	0.008929289
225	0x3de6c985	0.112689056
226	0x3e4b9f62	0.19885018
227	0x3d91a3ee	0.07111345
228	0x3c35d02f	0.011096998
229	0xbd50e8f3	-0.051003408
230	0xbc7beb16	-0.015375873
231	0xbc191d69	-0.009345391
232	0x3dcf55ae	0.10123764
233	0x3dc4f452	0.09616913
234	0xbdd55014	-0.10415664
235	0x3e16e8d1	0.1473725
236	0xbd740093	-0.05957086
237	0xbd6c206c	-0.057648107
238	0xbd9d156a	-0.076701
239	0x3dacae6b	0.08431705
240	0xbd8c17e8	-0.06840497
241	0x3d643113	0.055710863
242	0x3c9ab537	0.018885238
243	0xbd297730	-0.04137343
244	0xbd8ab6a3	-0.067731164
245	0x3dafa921	0.08577181
246	0x3c95756f	0.018244473
247	0xbd6e41de	-0.058168285
248	0x3ac3157f	0.0014883726
249	0x3c9eef2f	0.019401161
250	0x3c8cb426	0.017175745
251	0x3e0e5838	0.1390084
252	0xbc4f9da9	-0.012671866
253	0xbc9fd142	-0.019508962
254	0xbd280a4d	-0.04102545
255	0xbd2c50e1	-0.04206932

network_body._body_endoder.seq_layers.0.weight f4 [256, 24]
0	0x3dd3ef86	0.1034842
1	0xbe5d1707	-0.21590815
2	0x3f324494	0.6963589
3	0xbf04116e	-0.51589096
4	0xbc9f8464	-0.019472308
5	0x3e4ea9ac	0.20181912
6	0xbe0c29c3	-0.13687806
7	0x3c866ffb	0.016410818
8	0xbf19ec58	-0.60126257
9	0xbd5efd01	-0.054440502
10	0x3e12ba0d	0.14328785
11	0x3f89f8c7	1.0779046
12	0x3eca8002	0.39550787
13	0x3e470ff7	0.19439684
14	0xbe146410	-0.14491296
15	0x3e96f6a4	0.29485047
16	0x3e131f4a	0.14367405
17	0x3e6092fa	0.21931067
18	0x3e3b2dab	0.1827914
19	0x3da9227d	0.08258531
20	0x3ea6b7cc	0.325621
21	0x3e86be61	0.26317123
22	0xbcd5b258	-0.026086017
23	0xbe59c75a	-0.21267453
24	0x3d2d2a4f	0.042276677
25	0x3e0e3d4c	0.1389057
26	0xbe4c9d10	-0.1998179
27	0x3e0677c2	0.13131621
28	0x3e6b7198	0.22992551
29	0x3e8900fe	0.2675857
30	0xbec0eb18	-0.37679362
31	0xbe4e164d	-0.20125695
32	0x3e90814a	0.2822364
33	0x3e2cb8ea	0.16867414
34	0xbe3c34a1	-0.18379451
35	0xbd9be987	-0.07612901
36	0x3dd168d2	0.10225071
37	0x3e24f8dd	0.16110559
38	0xbb87c492	-0.004143306
39	0x3e688ea7	0.22710668
40	0xbda1bd3d	-0.078974225
41	0x3d3a7f21	0.045531396
42	0xbe627b3f	-0.22117327
43	0xbddcceae	-0.107816085
44	0xbf1a5975	-0.6029275
45	0x3f1dcead	0.6164349
46	0xbe218631	-0.15773846
47	0x3dfd0b17	0.12355631
48	0x3e1a1389	0.15046515
49	0x3e9a4c92	0.30136544
50	0xbebbc5c0	-0.3667431
51	0xbde5c4f9	-0.1121921
52	0x3e4ef8f0	0.2021215
53	0xbf3ee9ae	-0.74575317
54	0x3f2c3501	0.6726838
55	0xbe5282b4	-0.20557672
56	0xbf0b823d	-0.544956
57	0x3dc99c53	0.098442696
58	0xbe3bae24	-0.18328148
59	0xbbbb586d	-0.0057173283
60	0xbeed0e9d	-0.46300212
61	0x3dd151e8	0.102207005
62	0x3e745070	0.2385881
63	0xbe617d04	-0.22020346
64	0x3e7114fd	0.23543163
65	0xbe749893	-0.23886327
66	0xbdd1ecf0	-0.1025027
67	0x3e01cd82	0.12676051
68	0x3de470f8	0.111543596
69	0xbe70e1a2	-0.23523572
70	0xbe3d4864	-0.18484646
71	0x3d86339b	0.06552812
72	0x3e76263b	0.24038021
73	0x3daf1ecb	0.08550795
74	0xbe8e8410	-0.2783513
75	0x3e242471	0.16029526
76	0xbe7cc94f	-0.24686168
77	0xbf0df6ce	-0.5545472
78	0x3ec17747	0.37786314
79	0x3de4bb4c	0.111685365
80	0xbf1ff60a	-0.624848
81	0x3de7a256	0.1131026
82	0x3e2888a7	0.16458379
83	0xbe6ef3d5	-0.23335202
84	0xbc1f95fc	-0.009740349
85	0x3db99689	0.090619154
86	0x3d610ae2	0.05494202
87	0xbb973c16	-0.004615317
88	0xbd2485b1	-0.04016656
89	0x3e2daf5c	0.16961426
90	0xbd120c11	-0.03565604
91	0x3d40a10f	0.047028597
92	0xbe84faa4	-0.25972474
93	0xbefb1e08	-0.4904635
94	0x3e150389	0.1455213
95	0xbd12a57b	-0.035802346
96	0x3e834bb9	0.2564371
97	0xbc528cb6	-0.012850931
98	0x3e813b7e	0.252407
99	0xbeab8252	-0.33497864
100	0x3e4d30b7	0.20038114
101	0x3e7f14ba	0.2491025
102	0x3d8ce983	0.06880476
103	0xbecf1188	-0.40443063
104	0xbea2414f	-0.31690452
105	0x3e875a84	0.26436245
106	0xbd2533e1	-0.04033268
107	0x3e793b3a	0.24339
108	0x3ddb8e90	0.10720551
109	0xbeafd72b	-0.34343848
110	0xbe074f4d	-0.13213845
111	0xbdaa7a05	-0.08324055
112	0xbe89c47f	-0.26907727
113	0x3d85a133	0.06524887
114	0x3e305c33	0.17222671
115	0x3e0fd9e2	0.1404796
116	0x3e0abc9a	0.13548508
117	0xbb84e366	-0.0040554283
118	0x3efd5a5d	0.49483004
119	0xbe490567	-0.19630967
120	0xbd8ceee8	-0.06881505
121	0x3dc0f67a	0.09422012
122	0xbf687bae	-0.9081372
123	0xbdc1e5f4	-0.09467688
124	0xbe64acee	-0.22331592
125	0xbf903a1a	-1.1267731
126	0x3e778668	0.24172366
127	0xbd7acc15	-0.061229784
128	0xbf312f81	-0.6921311
129	0x3e3a3274	0.18183309
130	0x3d64c9ee	0.055856638
131	0xbe56e10b	-0.20984285
132	0xbe5e181f	-0.21688889
133	0x3e97b499	0.29629973
134	0x3edeeaec	0.43538606
135	0x3e55c0dd	0.20874353
136	0x3dfa1235	0.12210504
137	0x3e2917e7	0.16513024
138	0x3d39c49e	0.045353524
139	0xbe2fb986	-0.17160615
140	0x3dedf419	0.116188236
141	0x3d4abf37	0.049498763
142	0x3ec38fb5	0.38195577
143	0x3c76b80e	0.0150585305
144	0x3d21ca4f	0.039499577
145	0xbe5b0d03	-0.21391682
146	0xbf04692b	-0.51722974
147	0xbd77fcf2	-0.06054396
148	0xbc8b043c	-0.016969793
149	0xbe904bae	-0.2818274
150	0xbe9b04c6	-0.3027708
151	0x3ddd0f5c	0.10793945
152	0xbecbf18d	-0.39832726
153	0x3d204af3	0.039133977
154	0xbefdcce2	-0.49570376
155	0x3d827b17	0.06371134
156	0xbe5ab6f8	-0.2135886
157	0xbe30dd01	-0.17271806
158	0x3e5f1104	0.21783835
159	0x3e92e2b9	0.286886
160	0x3e8c9e72	0.27464634
161	0x3e0954df	0.13411282
162	0xbe1f5532	-0.15559843
163	0x3eda4059	0.42627218
164	0x3d1b48d4	0.03791125
165	0x3e1b3bb7	0.15159498
166	0xbcaad8d3	-0.020855343
167	0x3dc59f06	0.09649472
168	0x3e90b017	0.28259346
169	0xbe7bf19e	-0.24603888
170	0x3decb4f2	0.1155795
171	0x3da8934e	0.08231221
172	0xbd113e7d	-0.035459984
173	0x3f257916	0.6463789
174	0xbdea52da	-0.11441584
175	0x3e14dcfb	0.14537422
176	0x3e4bee63	0.19915156
177	0x3dae9796	0.085250065
178	0xbd0dc1a3	-0.034608494
179	0xbd025462	-0.031818755
180	0xbda72830	-0.08161962
181	0x3e1dee36	0.15422902
182	0x3c2aa701	0.010415793
183	0x3dbe1cbd	0.09282825
184	0x3e5033e2	0.20332292
185	0xbe16095d	-0.1465201
186	0xbe8d5456	-0.27603406
187	0xbdb5f267	-0.08884125
188	0xbf1dea17	-0.6168532
189	0xbedffb43	-0.43746385
190	0xbd9d10e1	-0.07669235
191	0x3e5c83a2	0.21534589
192	0x3e17dea0	0.14831018
193	0xbe30d351	-0.17268111
194	0x3eb5fbfd	0.35543814
195	0x3d5909ad	0.052987743
196	0x3eb192ce	0.34682316
197	0x3e9c3a6c	0.30513322
198	0x3e696786	0.22793397
199	0x3e80f55f	0.25187203
200	0xbe7faaac	-0.2496745
201	0x3e7b1ab2	0.24521902
202	0x3ca632fa	0.02028798
203	0x3ea35c48	0.31906343
204	0x3e259073	0.16168384
205	0xbea76491	-0.32693914
206	0xbe967e3f	-0.29393193
207	0x3de5f89c	0.11229059
208	0xbe11b04a	-0.14227405
209	0x3e5dd21f	0.21662186
210	0xbe4baad1	-0.1988938
211	0x3d9a9222	0.07547404
212	0xbd993de2	-0.07482506
213	0xbd0bcde6	-0.034131907
214	0x3db51c28	0.08843261
215	0xbe30193c	-0.17197126
216	0x3e0d45b6	0.13796124
217	0xbb64d004	-0.0034914026
218	0xbd7b2c28	-0.061321408
219	0xbe4e2e92	-0.20134953
220	0xbe2b285d	-0.16714616
221	0xbea80f6f	-0.32824275
222	0x3d01bcf9	0.03167436
223	0xbddd7152	-0.1081263
224	0xbd7a2a6e	-0.06107562
225	0x3e2afd3f	0.16698168
226	0x3e048c6a	0.12944189
227	0xbe904231	-0.281755
228	0x3e21ee43	0.15813546
229	0xbe04362b	-0.12911288
230	0x3d898d03	0.06716349
231	0xbd4c93dd	-0.0499457
232	0xbd1ce0ab	-0.038300198
233	0xbec6d7e5	-0.3883659
234	0x3ef1a64d	0.4719719
235	0xbe80f284	-0.25185025
236	0x3cdc37d0	0.026882082
237	0xbe62e7a5	-0.22158678
238	0xbe63be61	-0.22240593
239	0xbd4af1bf	-0.049546953
240	0xbd36ef69	-0.044661913
241	0x3c3ea2d0	0.011635497
242	0xbf3debcb	-0.74187917
243	0x3e44d2d1	0.19221045
244	0x3e34cd59	0.17656459
245	0xbec779e0	-0.3896017
246	0x3e878dd7	0.26475403
247	0x3e6d9883	0.2320271
248	0x3dcec76c	0.100966305
249	0x3d2e7ddf	0.04260051
250	0xbd8eb03a	-0.06967206
251	0x3de627df	0.112380736
252	0xbe2da31c	-0.16956753
253	0xbd33af1d	-0.043868173
254	0xbe455099	-0.19269027
255	0x3d625277	0.055254426

network_body._body_endoder.seq_layers.2.bias f4 [256]
0	0x3d42e066	0.047577284
1	0xbcbcbdf2	-0.023039792
2	0x3cc86d44	0.024466164
3	0x3d1d2504	0.03836538
4	0x3d2fe1a0	0.042939782
5	0x3cb5f96f	0.022213666
6	0xbbcda117	-0.006275307
7	0xbc29a40e	-0.010354055
8	0xbc4a06f7	-0.012330762
9	0x3cb52862	0.022113983
10	0xbcb9e3c4	-0.022691615
11	0xbafa74f1	-0.0019108338
12	0xbcda93af	-0.02668175
13	0x3b9962db	0.004680974
14	0x3d1678cb	0.03673629
15	0x3cc5bb28	0.024137095
16	0xbc494af6	-0.0122859385
17	0x3cef8f11	0.029243024
18	0x3d864178	0.06555456
19	0x3bdb3c2b	0.006690522
20	0x3d7cb29c	0.061693773
21	0x3c198f09	0.009372481
22	0x3b3cc4dd	0.0028803863
23	0x3d397c8f	0.045284804
24	0x3b31e655	0.0027145345
25	0xbc42c129	-0.011886873
26	0x3cfa3e46	0.030547272
27	0x3b67d7b7	0.0035376379
28	0xbc2ed4ce	-0.010670854
29	0x3da1ae6f	0.07894599
30	0x3d460e53	0.048353504
31	0xbcbe78c6	-0.023250949
32	0xbbe1f1cc	-0.0068952795
33	0x3c4dbea7	0.012557662
34	0xbcc2f50c	-0.023798488
35	0x3d05576d	0.03255408
36	0x3c9830e2	0.018577997
37	0x3da9dda7	0.0829423
38	0xbca7451a	-0.020418692
39	0xbb5fb039	-0.0034132136
40	0x3d5329c7	0.051553514
41	0x3b643a02	0.0034824614
42	0x3d8e3cd4	0.06945196
43	0xbd02291d	-0.03177749
44	0x3cffa2df	0.031205593
45	0xbc641528	-0.01392106
46	0xbc495210	-0.012287632
47	0xbbf0cfb0	-0.007348977
48	0x3b08f8aa	0.0020900168
49	0xbc890621	-0.016726555
50	0x3dafecf9	0.08590121
51	0x3adb9858	0.0016753776
52	0xbbbaa1c9	-0.005695556
53	0x3c5d7a06	0.013517862
54	0x3ca27b90	0.01983431
55	0x3cfa0c28	0.030523375
56	0x3ccafdc3	0.024779206
57	0xbc12343b	-0.0089235855
58	0x3a9608ae	0.0011446679
59	0xbce058de	-0.027386125
60	0x3c6b68cd	0.014368248
61	0xbc9ac876	-0.018894415
62	0x3d8e54df	0.069497816
63	0x3ca25365	0.019815156
64	0x3bbbc0fd	0.005729793
65	0xbc77709c	-0.015102532
66	0xbc25cd0a	-0.010119686
67	0x3d6d0941	0.057870153
68	0x3d076aad	0.03306072
69	0xbad09099	-0.0015912234
70	0x3a3557a9	0.00069176644
71	0xbbfa56e6	-0.0076397536
72	0xbc008b6c	-0.007845741
73	0x3cf7e980	0.030262709
74	0xbc5a44fc	-0.013322111
75	0xbc85d6fe	-0.016337868
76	0x3d3be540	0.045872927
77	0xbc72694e	-0.014795614
78	0x3d20dde7	0.039274123
79	0xbcbc65fc	-0.022997849
80	0x3d0828c1	0.03324199
81	0xbc095e53	-0.008384305
82	0x3c66355a	0.014050806
83	0x3d371689	0.044699226
84	0x3c9578e8	0.01824613
85	0x3ccb1727	0.024791313
86	0x3daa2e33	0.08309593
87	0x3971cbde	0.00023059497
88	0xbb908b9d	-0.0044111745
89	0x3c8916a6	0.016734432
90	0xbcda0e1e	-0.02661806
91	0x3bec118b	0.0072042397
92	0x3c06c965	0.008226727
93	0xbc00609b	-0.007835533
94	0x3d039d17	0.032132234
95	0xbd0f023c	-0.03491424
96	0x3b5e4cb2	0.0033920226
97	0xbb25a815	-0.0025277187
98	0x3c701db2	0.014655517
99	0x3c7387c1	0.014863909
100	0x3cde8db1	0.027167173
101	0x3d57cf45	0.052687902
102	0x3c3bb90a	0.011457691
103	0xbc97b51a	-0.018518973
104	0x3c8eae53	0.017417109
105	0x3cf4642d	0.029832924
106	0x3b2fd43f	0.002682939
107	0xbc8ff99a	-0.017575074
108	0x3d7b30ca	0.061325826
109	0x3d38b812	0.045097418
110	0x3c8416f4	0.016124226
111	0xbd07df91	-0.033172194
112	0x3d37c5cd	0.044866372
113	0xbce5f4e0	-0.028070867
114	0x3d93ac6d	0.07210622
115	0x3c7cd794	0.015432257
116	0xbc0c0db8	-0.008548193
117	0x3d8422d1	0.06451953
118	0x3c8939d6	0.016751211
119	0xbc9d3cd5	-0.019194046
120	0xbc235551	-0.0099690715
121	0xbc1a59cd	-0.009420824
122	0xbbaaa2cb	-0.0052073947
123	0x3d27c3e5	0.040958304
124	0x3d99c13f	0.07507562
125	0xbc399311	-0.011326567
126	0x3c2f29f1	0.010691152
127	0x3ba098bd	0.0049010203
128	0xbcc8f1b9	-0.024529325
129	0xbcbe568e	-0.023234632
130	0x3c6f2a09	0.014597424
131	0x3c46ab8f	0.012125864
132	0x3d7dd2ed	0.061968733
133	0x3ced9cf8	0.029005513
134	0xbb102046	-0.0021991893
135	0x3d96512e	0.073397025
136	0x3cda7140	0.02666533
137	0xba9bc436	-0.0011884037
138	0xbce73368	-0.028222755
139	0xbbe38a9a	-0.006944013
140	0x3cee34ca	0.029077906
141	0xbcf699c4	-0.030102618
142	0xba4a7bce	-0.0007724137
143	0x3daff607	0.08591848
144	0xb9f80399	-0.00047304927
145	0x3c223a0a	0.009901533
146	0x3baf62fc	0.005352376
147	0xbb65fc67	-0.003509307
148	0x3d466206	0.048433326
149	0x3c05484d	0.008134914
150	0xbb3e1fa7	-0.0029010565
151	0xbc7e660a	-0.015527258
152	0xbcc83f08	-0.024444118
153	0xbcd279ca	-0.02569284
154	0xba42ff7b	-0.0007438582
155	0x3c800d79	0.015631424
156	0x3cc761b7	0.024338586
157	0x3c1fc05b	0.009750451
158	0x3cf69f5d	0.030105287
159	0xbb36d59e	-0.0027898322
160	0x3d144c5c	0.036205634
161	0x3d1711d8	0.03688225
162	0x3d330ed2	0.043715306
163	0xbc76d120	-0.015064508
164	0x3d14487e	0.036201946
165	0x3cb16a70	0.021657199
166	0xbcad4f3b	-0.021155944
167	0xbcdc68e2	-0.02690548
168	0x3d8c4ceb	0.068506084
169	0xbad01a61	-0.0015877002
170	0x3cb91685	0.022593746
171	0x3d470a16	0.048593603
172	0xbb7f3886	-0.0038943603
173	0xb94e8502	-0.0001969524
174	0x3d5e33cf	0.054248627
175	0x3d3f2453	0.0466655
176	0xb99ff407	-0.00030508658
177	0xbcbc5374	-0.022989012
178	0x3c252268	0.010079004
179	0xbcd22fd5	-0.025657574
180	0xbc524250	-0.012833193
181	0x3c939e6b	0.018019876
182	0x3b718bd9	0.0036857037
183	0xbcd18244	-0.02557481
184	0x3d067a90	0.03283173
185	0xbb3c5737	-0.0028738508
186	0xbbf6cb46	-0.0075315563
187	0xbba14f73	-0.004922801
188	0x3b8b4ba3	0.00425096
189	0x3d2e016c	0.042481825
190	0x3c305987	0.0107635325
191	0x3cd24eca	0.025672335
192	0x3d4b640e	0.049655966
193	0x3d43696e	0.047707967
194	0xbc3500c5	-0.011047547
195	0x3ccebcc7	0.0252365
196	0x3d577560	0.052602172
197	0x3d827650	0.063702226
198	0x3c0f448d	0.008744371
199	0xbb5fffa8	-0.0034179483
200	0xba25c0d0	-0.0006322982
201	0xbc8b5a72	-0.017010901
202	0x3d4e33c9	0.050342355
203	0xbd186237	-0.03720304
204	0x3d27ff57	0.041014995
205	0xbc854c83	-0.016271835
206	0x3b97352c	0.004614493
207	0xbcaa51d2	-0.020790968
208	0x3c07f49e	0.008298067
209	0xbcc0871f	-0.02350193
210	0x3c5216db	0.012822832
211	0x3da1d8bc	0.07902667
212	0x3d63a673	0.05557866
213	0x3bc16eea	0.0059031146
214	0xbc52ace3	-0.012858602
215	0xbca663bf	-0.020311235
216	0xbc3843f7	-0.011246673
217	0x3c0ac633	0.008470106
218	0x3ba10f29	0.0049151373
219	0xbd09088d	-0.03345542
220	0x3d38a29f	0.045076963
221	0x3d8886e9	0.06666357
222	0xbc34225a	-0.010994518
223	0x3c3c990a	0.011511097
224	0xbca89831	-0.020580383
225	0x3d3db94c	0.04631929
226	0x3d67025a	0.056398727
227	0xbbfb3936	-0.007666732
228	0x3c856fa4	0.016288586
229	0x3c89198f	0.01673582
230	0x3c9f058f	0.01941183
231	0x3d825653	0.06364121
232	0x3c8c4505	0.017122755
233	0x3ce92cbd	0.028463716
234	0x3b675045	0.0035295647
235	0x3bac3d06	0.005256298
236	0xbbf99920	-0.007617131
237	0x3ce75774	0.028239943
238	0xbbad5ec4	-0.005290838
239	0x3d704fed	0.058669973
240	0x3d182cce	0.037152104
241	0xbc8c2b58	-0.017110512
242	0x3b0039cd	0.0019565702
243	0x3d207d72	0.039182134
244	0xbd02c09b	-0.031921964
245	0xbbeea81a	-0.007283223
246	0xbc730c46	-0.014834469
247	0xbc404a04	-0.011736397
248	0x3b51725f	0.003195904
249	0x3d4f4d65	0.05061092
250	0x3c00d206	0.0078625735
251	0xbca239f3	-0.019803023
252	0x3d846495	0.06464497
253	0x3d2765ac	0.040868446
254	0xbbd91a44	-0.0066254456
255	0xbc552f43	-0.013011756

network_body._body_endoder.seq_layers.2.weight f4 [256, 256]
0	0xbea1fb6a	-0.31637126
1	0x3b0749a7	0.0020643265
2	0xbcdac7ca	-0.026706595
3	0xbce88bb2	-0.028386924
4	0xbdecbccc	-0.11559448
5	0x3d9342cc	0.07190475
6	0xbd9f703c	-0.07785079
7	0xbb2d6976	-0.0026460565
8	0xbd6e04c2	-0.058110006
9	0xbe171faa	-0.14758173
10	0x3d14c6f8	0.036322564
11	0x3d3a6425	0.04550566
12	0x3e021efa	0.12707129
13	0xbda93598	-0.08262175
14	0x3c079f21	0.008277685
15	0xbd81b9fb	-0.06334301
16	0xbd814012	-0.063110486
17	0xbe4098fa	-0.18808356
18	0x3c0325c6	0.008004611
19	0x3d59275a	0.053016044
20	0xbe1e1318	-0.15436971
21	0xbd90f963	-0.07078817
22	0xbe483305	-0.19550712
23	0xbca0e5e1	-0.019640865
24	0xbd33f668	-0.043936163
25	0xbde14303	-0.109991096
26	0xbd4ce1d1	-0.050020043
27	0xbe1a26c6	-0.15053853
28	0xbdf0f9c3	-0.11766388
29	0xbd7f4f18	-0.06233129
30	0xbe043eb6	-0.12914547
31	0xbe03a4ef	-0.12855886
32	0xbc09e3b8	-0.008416109
33	0xbd68cdbd	-0.056836832
34	0x3c90f9ce	0.017697241
35	0xbde38c6d	-0.111107685
36	0xbdabb373	-0.083838366
37	0xbdf355a8	-0.11881572
38	0xbd147d36	-0.036252223
39	0xbd72bf81	-0.059264664
40	0xbdfe06cf	-0.124036424
41	0xbcb5d28a	-0.02219512
42	0x3dcda828	0.10041839
43	0xbd9aa06c	-0.07550129
44	0xbd44515d	-0.047929157
45	0xbe050922	-0.12991765
46	0xbd30d39e	-0.043170564
47	0x3ddffd3d	0.10936973
48	0xbc7d2646	-0.01545102
49	0x3d808ab7	0.06276458
50	0xbe0abc8d	-0.13548489
51	0xbdb01cff	-0.085992806
52	0xbe0a35d3	-0.13497095
53	0xbdc8d393	-0.098059796
54	0x3c577ef6	0.013152828
55	0xbe191069	-0.14947666
56	0xbd90a0bd	-0.070619084
57	0xbe59892a	-0.2124373
58	0xbd9ac569	-0.07557184
59	0xbe46b608	-0.19405377
60	0xbe5e8f13	-0.21734266
61	0xbdc35424	-0.09537533
62	0xbd346ac4	-0.044047132
63	0xba52ad35	-0.0008036674
64	0x3d379a20	0.04482472
65	0xbdc549fe	-0.096332535
66	0x3c85f738	0.016353235
67	0xbe162bda	-0.14665166
68	0xbe310b33	-0.17289428
69	0xbd85512b	-0.06509622
70	0xbe33827d	-0.17530246
71	0xbcf88c66	-0.030340385
72	0xbd121c21	-0.035671357
73	0xbe05df6b	-0.13073508
74	0xbd223963	-0.03960551
75	0xbe7d01bf	-0.24707697
76	0xbe089622	-0.13338521
77	0x3b281880	0.0025649369
78	0xbdc17c66	-0.09447555
79	0xbddaa208	-0.10675436
80	0x3c91e461	0.017809095
81	0x3d047385	0.03233673
82	0xbd998455	-0.074959435
83	0xbe2be108	-0.16785061
84	0x3dbf89bd	0.09352443
85	0x3be43895	0.006964753
86	0x3c5949d0	0.013262227
87	0xbe7cc3b6	-0.24684033
88	0xbdfaf894	-0.12254444
89	0x3cf0c70f	0.029391794
90	0xbd0f3676	-0.034964047
91	0xbe10ad16	-0.14128527
92	0xbd9986ca	-0.07496412
93	0xbdbfae09	-0.093593664
94	0xbe503fde	-0.20336863
95	0xbe1bc138	-0.15210426
96	0xbca36c2f	-0.019949047
97	0xbe1c6bbe	-0.15275475
98	0xbe121424	-0.14265496
99	0xbdf4bb0d	-0.119497396
100	0x3c4340cc	0.011917304
101	0x3dd1f430	0.10251653
102	0xbeb0dc82	-0.34543234
103	0xbdb2ceb0	-0.08730829
104	0xbd034ca3	-0.03205551
105	0x3c4a0690	0.012330666
106	0x3d567129	0.05235401
107	0xbe128c2d	-0.14311285
108	0xbdc619d0	-0.09672892
109	0xbdb0604f	-0.086121194
110	0xbd470846	-0.048591875
111	0x3be39223	0.006944911
112	0x3d4d2d7b	0.0500922
113	0xbdc168ca	-0.09443815
114	0xbb1bf96a	-0.0023799785
115	0xbdc9348f	-0.09824478
116	0x3c011b15	0.007879992
117	0x3d8bece0	0.0683229
118	0xbded8bb0	-0.11598909
119	0x3d6375c4	0.055532232
120	0xbe7aa5d9	-0.24477328
121	0xbb98867f	-0.004654705
122	0x3b8d1e97	0.004306625
123	0x3e0c9fbd	0.1373281
124	0xbbfbcc19	-0.0076842424
125	0x3c70b5fb	0.014691825
126	0xbdfa85d3	-0.12232556
127	0x3b76073e	0.0037540938
128	0xbcbb1898	-0.022838876
129	0xbe48d5ba	-0.1961278
130	0xbd8ab9a3	-0.06773689
131	0x3d4c4180	0.049867153
132	0xbd0e493c	-0.03473781
133	0xbdfdd830	-0.1239475
134	0xbe09d898	-0.1346153
135	0xbd88f932	-0.06688155
136	0xbcd439a2	-0.025906388
137	0xbc4514f5	-0.012028922
138	0xbc1ec9ca	-0.009691665
139	0xbc3b2fb1	-0.011424945
140	0xbe8aa283	-0.27077112
141	0xbcc7cc1c	-0.02438932
142	0xbde9311e	-0.113863215
143	0xbc9411b5	-0.01807485
144	0xbde50113	-0.111818455
145	0xbd0219fd	-0.031763066
146	0xbdb1e989	-0.086871214
147	0x3cd08683	0.025454765
148	0xbd1d92dc	-0.038470134
149	0xbd9a2c14	-0.075279385
150	0xbd10c355	-0.035342533
151	0xbd281dbd	-0.041043986
152	0xbe10ea58	-0.14151895
153	0xbdafc00e	-0.085815534
154	0xbda10f89	-0.07864291
155	0xbb3c1161	-0.0028696882
156	0xbe7d6941	-0.24747182
157	0xbe56755f	-0.20943211
158	0xbe409f8a	-0.1881086
159	0x3ce2b54f	0.027674345
160	0xbde895a6	-0.11356668
161	0xbe528b91	-0.20561053
162	0xbe0488b4	-0.12942773
163	0xbe3ea6c9	-0.18618311
164	0xbdc35b0d	-0.09538851
165	0xbdcf74b0	-0.10129678
166	0x3cdcd48b	0.026956817
167	0xbe1a9809	-0.1509706
168	0x3d916460	0.07099223
169	0x3dfc2b5c	0.12312958
170	0xbda3a088	-0.07989603
171	0xbe2dc85e	-0.16970965
172	0xbe215e00	-0.15758514
173	0xbe49fd8f	-0.19725631
174	0xbd6e12d2	-0.058123417
175	0xbd5f78a7	-0.054558422
176	0xbd28125b	-0.04103313
177	0x3df2f661	0.11863399
178	0xbdce85d4	-0.100841194
179	0xbc95eb05	-0.018300543
180	0xbd78bc5c	-0.06072651
181	0xbe285b4d	-0.16441078
182	0xbca27245	-0.019829879
183	0xbe090f46	-0.13384733
184	0xbc77a735	-0.015115549
185	0xbd70ce8f	-0.05879074
186	0xbe0a0a40	-0.13480473
187	0x3c591904	0.013250593
188	0x3d9f4674	0.0777711
189	0xbe04535e	-0.12922427
190	0xbd289d63	-0.04116572
191	0xbe216439	-0.15760888
192	0xbd04ef34	-0.032454684
193	0xbdb0b3a2	-0.08628012
194	0xbe4b16d0	-0.19832921
195	0xbe64e249	-0.22351946
196	0xbc487b0d	-0.012236369
197	0xbdc8a4de	-0.09797071
198	0xbc62679b	-0.013818647
199	0xbd495139	-0.049149726
200	0xbdf1b601	-0.118022926
201	0x3df76727	0.120802216
202	0xbde88d52	-0.1135508
203	0xbc81ab9a	-0.015828896
204	0x3de0bd4a	0.10973604
205	0x3da2183a	0.07914777
206	0xbda4a60e	-0.08039485
207	0xbcb3bd16	-0.02194075
208	0xbe5b99b4	-0.21445352
209	0xbe830d8d	-0.25596276
210	0x3d47c5ba	0.04877255
211	0xbe2039eb	-0.15647094
212	0xbe17077d	-0.1474895
213	0xbca6049b	-0.020265868
214	0xbd52974e	-0.051413827
215	0xbe5e0ab9	-0.21683778
216	0x3da3c95a	0.07997389
217	0x3d66d204	0.05635263
218	0xbd071c23	-0.032985818
219	0xbd140b57	-0.036143627
220	0xbd31bf73	-0.04339547
221	0x3c65570c	0.013997804
222	0x3cfd8ea4	0.030951805
223	0xbaa2faf8	-0.0012434414
224	0xbc38eba6	-0.011286652
225	0xbdea5521	-0.11442018
226	0xbe675b34	-0.22593385
227	0x3cca15f3	0.02466867
228	0xbe01b8d1	-0.12668158
229	0xbdf3dbfd	-0.11907194
230	0xbb33f22d	-0.002745758
231	0x3d374435	0.04474278
232	0xbe5b8752	-0.2143834
233	0xbe1148e4	-0.14187962
234	0x3ce3b158	0.027794525
235	0xbe030dc4	-0.1279822
236	0x3b17a022	0.0023136218
237	0xbd3a0e4a	-0.045423783
238	0xbdf84236	-0.12122004
239	0xbe4b4bcf	-0.19853137
240	0xbcdc910c	-0.026924632
241	0xbdb1a293	-0.08673587
242	0x3d2c30c6	0.0420387
243	0x3dc255ae	0.09488998
244	0x3d3659c5	0.044519205
245	0x3d62b395	0.055347044
246	0x3df74a17	0.120746784
247	0xbd766e26	-0.06016364
248	0x3c55f1d7	0.013058147
249	0xbdaaad82	-0.08333875
250	0x3c37fb97	0.011229417
251	0xbe286bae	-0.16447327
252	0xbcbafb97	-0.022825046
253	0xbe744f4b	-0.23858373
254	0xbd659381	-0.056048874
255	0x3cfd4eae	0.030921306
