Assets/Training/results/”maze_runner”/My Behavior/My Behavior-118495.onnx (onnx, 296077 bytes, 6 tensors)

action_model._discrete_distribution.branches.0.bias f4 [5]
000000 25 dc a8 3c b9 46 92 bc 4b 78 88 3c 59 1f 36 ba
       0.020612786 -0.017855989 0.016658923 -0.000694742
000010 be 6a 08 bd
       -0.033304922

action_model._discrete_distribution.branches.0.weight f4 [5, 256]
000000 ca eb ae bd 0b 40 06 3c b9 1d 1a bd 0a ce f2 bc
       -0.08541067 0.00819398 -0.037626002 -0.029639263
000010 3d 01 c5 3d b2 cf 53 bd 37 f7 04 bc bd 0b 5e bc
       0.09619377 -0.051711746 -0.008115581 -0.013552603
000020 e1 8a a2 bd 1c 13 8e 3d ee 44 a6 bd bb f4 54 bd
       -0.07936645 0.069372386 -0.08118616 -0.051991206
000030 2c 7c 0a bd 8f 1c ae 3d 78 5e 4d bd 98 bf 0f bd
       -0.033809826 0.08501541 -0.05013892 -0.035094827
000040 29 ce 74 bc d3 da 57 bd 3e cf 7e bd 64 ac 81 3d
       -0.014941731 -0.05269892 -0.06220936 0.06331709
000050 5f 4e 7c bd 90 cd fa 3a c5 dd 55 bd 99 b0 3d bd
       -0.061598178 0.0019134749 -0.05221345 -0.046310995
000060 bd 89 cb 3b e7 ee ca bd a0 bd 1a bd 05 f2 af bd
       0.006211488 -0.09908848 -0.037778497 -0.085910834
000070 55 9d da bc b9 d9 ac bd 4c e7 75 bc 80 4b 07 3b
       -0.02668635 -0.08439965 -0.015008759 0.0020644367
000080 ed 5b dc bc 9b a5 9b bd 96 50 9a bd d1 6c a8 bc
       -0.026899302 -0.07599946 -0.07534902 -0.0205597
000090 f0 30 70 3d 8d cb d8 bb b5 c2 15 bd 85 06 39 bd
       0.05864042 -0.006616062 -0.03656264 -0.045172233
0000a0 ce 0d b8 bd 82 5d e3 3a a2 e1 f6 bc c4 e0 00 3d
       -0.08987008 0.0017346593 -0.030136887 0.031464353
0000b0 f6 2d 70 3d 39 72 68 bd 88 d6 0e bd 83 6c 91 ba
       0.05863758 -0.056749556 -0.03487256 -0.0011094961
0000c0 2b 92 92 3c 58 0e cb bd 16 d1 fb bc a0 97 73 bb
       0.017891964 -0.09914845 -0.030739348 -0.0037169233
0000d0 ba ed 05 bd 74 ed 21 bd f5 89 0f bc be 1e c2 bd
       -0.032697417 -0.039533094 -0.008760919 -0.0947852
0000e0 03 04 b3 bc fb 4a f1 bc a1 b9 02 bc 64 ba 25 bd
       -0.021852499 -0.029454699 -0.007978828 -0.04046096
0000f0 26 49 a7 bc b3 d6 b4 3c d2 a6 8d bd 60 02 4c bd
       -0.020420622 0.022075033 -0.06916584 -0.049806952
000100 ad 2e 23 bc 16 6c a0 3c a5 3f 05 3d 31 c9 3f bd
       -0.009959859 0.01958279 0.0325314 -0.04682273
000110 43 a8 19 3d f6 9b 60 3d a7 bf 45 bb 74 04 0e bd
       0.037513983 0.054836236 -0.0030174048 -0.034672216
000120 c9 d1 a1 bd 6f 0d c7 bd e8 89 cd bb 1a 15 a3 bd
       -0.079013415 -0.09719359 -0.006272543 -0.07963009
000130 08 75 2d 3d e4 86 f0 3d 95 d2 45 3d 18 9e 02 3e
       0.042347938 0.11744478 0.04829653 0.1275562
000140 50 29 08 bd 27 07 64 3b 34 cc 0c bd 63 25 ec bc
       -0.033242524 0.0034794302 -0.03437443 -0.028826421
000150 e3 43 45 bd c0 0f d9 bc ce 5e 0b bd a4 2e 59 3d
       -0.048160445 -0.026496768 -0.03402596 0.053022996
000160 dd a7 9f bb 35 f8 0b bd 1d 11 1b bd 19 1a 24 bd
       -0.004872306 -0.034172256 -0.037858117 -0.04006395
000170 ae 99 54 bd 64 e1 30 bd 4d a8 e4 bc 32 0e 62 bc
       -0.051904373 -0.0431837 -0.027912283 -0.01379733
000180 d0 0c 8f 3b 31 f8 bb 3d 94 48 69 bd 68 e7 94 bd
       0.004365541 0.09178198 -0.05695398 -0.072707
000190 2a d6 b5 bc e9 12 ad 3d fa 61 21 bd be 79 c9 3c
       -0.022196848 0.084508725 -0.03940008 0.024594184
0001a0 99 f2 32 bd 0d ef 21 3d 04 bb 14 bd d7 b5 8b bd
       -0.04368839 0.039534617 -0.036311164 -0.068217926
0001b0 ce 0d 1a bd a2 b4 e6 bc d8 87 3f bd 0d ca 6c b9
       -0.03761082 -0.028162304 -0.04676041 -0.00022581984
0001c0 49 b0 6a bd e8 29 aa bc fd 8a 52 3c 56 ec 08 bc
       -0.057297025 -0.020771936 0.01285052 -0.008357128
0001d0 34 73 a5 bd 48 d9 ff 3b e2 14 ac 3b b6 c5 fe bc
       -0.08078614 0.0078078844 0.005251513 -0.031100135
0001e0 88 08 bd 3d 6f ac 14 3d ae ad 53 3c 8e 3b 24 bd
       0.09230143 0.036297258 0.012919826 -0.04009586
0001f0 c3 65 94 bd 6c 48 21 bc 56 7f 3a bd 4a fa ab bb
       -0.07245972 -0.009843927 -0.045531593 -0.0052483426
000200 41 f1 1e 3d 28 bf 96 3d cd 74 89 bc 41 70 2f bd
       0.038804296 0.07360679 -0.016779328 -0.042831663
000210 c4 e8 92 bd e7 8e 88 bc 3a 91 ef 3c be b1 8f bc
       -0.07173303 -0.016669704 0.029244054 -0.017540809
000220 de 49 33 bd e5 4a 59 3d a3 f1 23 bd 3a f1 b4 bd
       -0.043771617 0.05304994 -0.040025365 -0.08835073
000230 37 80 c3 bc 7e 42 6d bc 06 91 95 bd 21 28 9d bd
       -0.023864849 -0.014481185 -0.07303052 -0.076736696
000240 04 dd 4d bd eb 25 15 bc ec c5 95 bc fa eb 9b bc
       -0.050259605 -0.009103279 -0.018282853 -0.01903342
000250 66 b7 35 bd 26 12 95 3c 0a 00 82 bd b2 0e 49 3c
       -0.044364356 0.01819713 -0.06347664 0.01227157
000260 de 05 02 bd 87 aa 82 3c 6c 2c 56 3c 23 48 b5 bd
       -0.031743877 0.015950454 0.013072114 -0.088516496
000270 67 df 42 ba 6f 80 91 bc eb 3e 13 bd 98 b5 00 bc
       -0.0007433802 -0.017761437 -0.035948675 -0.007855795
000280 08 20 4e bd d6 05 81 3c 28 d4 bf 39 ac 89 b2 3d
       -0.050323516 0.015749853 0.00036588428 0.08717665
000290 f7 14 a6 3c 03 2b af 3c a2 5b 09 bd 69 e3 0f 3d
       0.020273669 0.021382814 -0.033534653 0.035128985
0002a0 17 42 00 bd bd 69 1b bd f8 ef 2c 3b dc 28 fe 3b
       -0.03131303 -0.037942637 0.002638815 0.0077563357
0002b0 6d aa be 3b 06 5c ac bc ca 03 72 bc 46 9e 75 3c
       0.005818656 -0.021039974 -0.014771411 0.014991349
0002c0 7f c9 af bc 54 e4 c5 ba a3 54 41 3c bc b6 09 b8
       -0.021458386 -0.0015097954 0.011799964 -3.283353e-05
0002d0 16 d5 8e bc 3e 03 e9 bb c9 ff 28 3c 24 dd 31 bd
       -0.017435592 -0.007110982 0.01031489 -0.043423787
0002e0 80 f0 15 bd f6 9a 37 bc eb a1 25 bd 88 8e 0e bd
       -0.03660631 -0.011206379 -0.04043762 -0.034803897
0002f0 39 ba 62 bc e8 51 c3 bc 89 4c 85 bc 1d 93 47 bd
       -0.013838344 -0.023842767 -0.016271846 -0.048724283
000300 af 74 dd bc 7c cd 4e bd 64 ce aa bd d7 99 5b bc
       -0.027033178 -0.050488934 -0.08340147 -0.0134033775
000310 92 a6 3e bd 1a 0f e8 bc df b3 f4 bc 79 02 52 bd
       -0.046545573 -0.028327513 -0.029870925 -0.05127189
000320 8c 99 11 bd e5 f6 93 3d 3b 62 5c bc 78 23 32 3c
       -0.035546824 0.07224826 -0.013451154 0.010872714
000330 11 7d 4b bd dc 86 3f bd ca ee 2a bd 43 33 db bc
       -0.04967982 -0.04675947 -0.041731633 -0.026757842
000340 27 8d 53 bc 78 dc 1f bc fc be e2 bc c6 90 15 bc
       -0.012912071 -0.009757154 -0.02767896 -0.009128755
000350 24 b6 0f bd 16 a3 40 bd 02 3b 13 bc 4b be 93 bc
       -0.035085812 -0.04703053 -0.0089862365 -0.018035075
000360 f8 9f aa bc 3f ea 84 bb 7c 71 21 bd 0f b6 09 3c
       -0.020828232 -0.0040562446 -0.039414868 0.008405223
000370 1b 4a 03 bd 04 8d 98 bd 2d c5 83 3c 64 71 9a 3c
       -0.032053094 -0.074487716 0.016085232 0.018852897
000380 a6 20 20 bd d8 65 a1 bc d9 f8 a0 bd d4 1e a1 3c
       -0.039093636 -0.019701883 -0.07859964 0.01966802
000390 1d c8 93 bd 68 55 d1 bc b4 b2 ea 3b 08 f0 3a bd
       -0.07215903 -0.02555342 0.0071624164 -0.045639068
0003a0 f8 48 50 bd 0a c3 87 bd d8 e2 86 bc b9 91 8f bd
       -0.05085084 -0.066289976 -0.01646559 -0.07010216
0003b0 8d cb 7a bc 7e cf 9d bd 61 5f a2 bc 5b d0 0f 3c
       -0.015307319 -0.077055916 -0.01982087 0.008777703
0003c0 9d b1 8a bc 30 6b 47 bd bc f6 f2 bc 54 99 a0 bd
       -0.016930396 -0.048686206 -0.029658668 -0.07841745
0003d0 3c ea 1c bd 4b 4e e6 3b ba 53 34 bd 30 48 b4 bc
       -0.03830932 0.007028376 -0.04402516 -0.022007078
0003e0 88 ae 09 bd 37 86 1d bd d9 94 48 3d 19 21 8e bd
       -0.03361371 -0.038458075 0.048970077 -0.069399066
0003f0 94 8d a2 bc e6 6b 4f bd 3f fd f5 3c e0 fc 9c 3d
       -0.0198429 -0.05064001 0.030027984 0.076654196

network_body._body_endoder.seq_layers.0.bias f4 [256]
000000 bf 2a 3d bd 54 39 ec 3d 96 a8 89 3d 9a ed 82 3d
       -0.046183344 0.11534372 0.06721608 0.06392975
000010 93 a7 6d 3c 16 b1 4c 3b 85 5c c0 bc fe a6 07 3e
       0.014505285 0.003123348 -0.023481617 0.13247296
000020 1b c2 ad bc 80 07 88 bd 05 9f d2 bc 31 1f 28 3d
       -0.02121072 -0.066420555 -0.025710592 0.04104537
000030 a8 5a 22 bd 56 cc 58 bd e2 18 36 3d 50 46 d6 3c
       -0.039637238 -0.052929245 0.044457324 0.026156574
000040 a0 37 93 bd 8b 11 d1 bc 4a d6 de bc 65 09 1b bd
       -0.07188344 -0.02552106 -0.02720179 -0.037850756
000050 75 47 8a bd 6c 3c 1b 3b 1d 0d 14 3e 84 1f d0 3d
       -0.067519106 0.0023687137 0.14458127 0.10162261
000060 7b 0f 9c bc 1e 4e 95 bd f6 b7 88 ba 27 13 39 bd
       -0.01905035 -0.0729029 -0.0010430801 -0.04518428
000070 fa 13 95 bc dc 8a 87 bd af 6a 82 bc ca 26 ff bc
       -0.018198002 -0.06618282 -0.015920011 -0.031146426
000080 3e 77 20 3e 5d 38 58 3d 18 80 84 bd 22 f1 64 bc
       0.15670487 0.052788127 -0.064697444 -0.013973506
000090 3f 67 d5 bc 2e ed ba 3b 6c 84 0c 3d 77 a0 08 3e
       -0.026050208 0.0057045436 0.034305975 0.13342462
0000a0 af a1 cc 3c 99 02 31 bd 47 c5 22 3e aa 3b 90 bd
       0.02497944 -0.043215368 0.15895568 -0.0704263
0000b0 08 9a 68 bc ba 60 2b 3e d0 28 1c 3c ab 4c b2 3c
       -0.01419688 0.16736117 0.009531215 0.021765074
0000c0 db c7 f4 3d b9 d4 bc ba d9 b1 2f ba a6 7b 93 bc
       0.11952182 -0.0014406658 -0.00067022216 -0.018003296
0000d0 ca 85 0d bd 9c bf 39 bc 53 8e f1 bc 99 50 fe 3d
       -0.03455142 -0.011337187 -0.02948681 0.124177165
0000e0 d3 a4 e4 3d c2 34 3b bd 32 24 24 3c 35 af 10 3d
       0.1116425 -0.04570461 0.010018395 0.03532334
0000f0 3b 65 be 3b e3 f7 c3 bc c6 70 23 bd 51 64 bc bd
       0.0058104075 -0.023921913 -0.03990247 -0.09198821
000100 a1 bd 30 bd 6b e5 0b bb ed 92 9d bd d9 92 79 bd
       -0.043149594 -0.002134646 -0.076940395 -0.06093106
000110 f1 f5 63 3e ed 40 2a 3e b1 3c 23 bd b6 3d 82 3c
       0.22261788 0.1662633 -0.0398528 0.015898567
000120 5c 32 b8 3d 09 cc a9 3d 58 b5 54 bd 96 08 7c bd
       0.0899398 0.0829087 -0.051930755 -0.061531626
000130 f9 be 46 bc 91 ff 49 bd ff ef 1c bc e7 0f 83 3d
       -0.012130492 -0.049315993 -0.009578704 0.063995175
000140 2a fe ae bb 4d 3b f2 bc 15 2e 9a bc 9e ed ed 3d
       -0.0053403573 -0.029569292 -0.018820802 0.116175875
000150 21 d3 22 3d 1c 29 ac bc e3 81 8b bd 64 7f e2 bc
       0.03975213 -0.021015696 -0.06811883 -0.027648635
000160 73 b8 d5 bc 45 b9 4b 3e c2 ab 8d bc fa dc 4d bc
       -0.026088929 0.19894893 -0.017293815 -0.012564892
000170 99 4e 40 bd f5 2f 0c bd 3a 3a 89 3d e5 dd d0 bb
       -0.046949957 -0.034225423 0.06700559 -0.006374108
000180 e8 63 35 bb 73 54 2d 3d 92 76 48 bd dc 85 80 bd
       -0.0027677957 0.042316865 -0.048941202 -0.06275532
000190 4c 02 fd 3d 0e 0a 87 bd d4 d8 9c 3c 97 54 71 bb
       0.12353954 -0.06593715 0.01914636 -0.00368241
0001a0 3c d7 99 bd 40 14 9e bd d9 d7 13 bc 3a 60 05 ba
       -0.07511756 -0.07718706 -0.00902363 -0.0005087886
0001b0 42 e3 1e 3c 5e bf 64 bc bd 61 1e bd 32 91 a7 3d
       0.009697737 -0.013961641 -0.03866743 0.08181991
0001c0 9c 7c fb bd fe 53 b9 bd 4d 87 69 3d 1a 62 37 3e
       -0.12279627 -0.09049223 0.0570138 0.17908517
0001d0 4c 6f 0a 3c a2 7d a2 bd de c0 91 bd 47 1b f9 bc
       0.008449387 -0.07934119 -0.071168646 -0.030408515
0001e0 d0 8d c1 bd 67 00 a8 bd b6 f7 9d 3d f0 65 23 bd
       -0.09450877 -0.08203202 0.07713263 -0.039892137
0001f0 71 92 eb bc d7 fc 7e bd 0c 3c d9 3d 36 47 32 bd
       -0.028756352 -0.062252846 0.10607156 -0.043524943
000200 76 0b 57 3e 09 d1 7a bd 91 0b 77 3c 97 21 84 bd
       0.21000466 -0.061234508 0.015078441 -0.06451719
000210 49 2b 59 bd 55 75 2c 3c ab 88 aa 3c 2d df 81 3b
       -0.053019796 0.010526021 0.020817121 0.003963372
000220 a2 6e c6 3d d9 07 a5 bd 1e c2 a7 bb e8 71 9b 3d
       0.0968907 -0.080581374 -0.005119576 0.07590085
000230 c5 df 86 bd 03 39 93 bc 03 03 7a bd 72 ce 77 3d
       -0.065856494 -0.017971521 -0.06103803 0.060499616
000240 61 62 86 bd 66 e0 2c bd fb 3e 83 3d 66 b5 f2 3d
       -0.06561733 -0.04220619 0.06408497 0.11851005
000250 3f 83 af bd 35 05 86 3e 02 e6 6c bd dd 6e 15 3d
       -0.08569955 0.26175848 -0.05783654 0.03648268
000260 d7 6a 65 3e 73 b3 e2 bd a9 e9 17 3e e4 ee 04 bd
       0.22404037 -0.110693835 0.14835228 -0.032454386
000270 72 89 b6 bc ac 1d 6d bb 5b 20 c2 3d 27 67 23 bd
       -0.022282336 -0.0036181016 0.094788276 -0.039893296
000280 6a 3b 93 bd 0e ca 6c bd 47 6f a1 3d e7 4b e7 bd
       -0.07189067 -0.057809882 0.078825526 -0.11293774
000290 51 e9 b7 3d 02 96 c4 bd db 9e a4 bd 79 70 a8 bc
       0.089800484 -0.09598924 -0.08038112 -0.020561444
0002a0 16 35 6d 3e e6 2a fa 3c 06 53 5f bd 97 a3 06 bb
       0.23164782 0.030538034 -0.054522537 -0.0020544284
0002b0 55 1b fd 3d 8d bd c6 3b 95 11 9a bd d4 e3 40 3d
       0.12358729 0.0060650767 -0.07522885 0.047092274
0002c0 93 4b ab bc 00 08 14 bd 4f db 62 bc 2c f8 16 bd
       -0.02091006 -0.036140442 -0.013846233 -0.03685777
0002d0 cd 12 aa 3d f3 52 44 bd da 98 46 bd 46 32 73 3b
       0.08304367 -0.04793067 -0.048485614 0.0037108823
0002e0 ce 02 d3 3d 72 45 91 3d b1 45 1d bd 8a 91 8c bc
       0.10303269 0.07093324 -0.03839654 -0.017159242
0002f0 52 13 86 3d 72 61 63 3d f0 29 11 bc 6f 25 0a 3e
       0.06546654 0.055512853 -0.008860096 0.13490842
000300 c5 c8 2c 3d 81 e0 80 bd 74 1b 0f 3e 3f 87 71 3c
       0.042183656 -0.06292821 0.13975316 0.014741718
000310 5c 84 a2 bc 52 f6 a8 3c 7c 70 0c ba 9f eb df ba
       -0.019838504 0.020625267 -0.00053573376 -0.001708377
000320 74 1f 02 3d 30 32 24 bd a8 de 50 bd 62 d6 b4 3c
       0.031768277 -0.040086925 -0.05099359 0.022074882
000330 a1 37 d4 3d 53 5d 0a 3e a2 96 1e bd 2a 91 6c bd
       0.10362173 0.13512163 -0.038717873 -0.057755627
000340 77 29 99 3d 73 d6 09 bd 8e 3e 61 3d 5a fc 42 bd
       0.07478612 -0.03365178 0.054991297 -0.047603942
000350 b7 52 90 3c 9f ce 00 bd 13 f4 f6 bc f8 fc f7 bc
       0.017617567 -0.03144705 -0.03014568 -0.030271992
000360 2e 6e 2d bd 47 4e e6 3d fb ac 74 bd 1c 4e 2a bd
       -0.042341404 0.11245399 -0.05973528 -0.041578397
000370 73 6b 91 bc 6f 59 6c 3d 55 5a fd 3d fb bd 6f bd
       -0.017751431 0.057702478 0.12370745 -0.05853079
000380 9b ca 2c bd b1 af fe bc 2f 2b 5c bd bb 8f 9b bc
       -0.042185407 -0.031089636 -0.05375212 -0.018989434
000390 a2 c9 c5 3d 27 7a 1a 3e 27 8a a0 bd db c2 3e bd
       0.09657599 0.1508566 -0.078388505 -0.046572547
0003a0 3c 35 21 bc c4 f7 2c 3c 6d 02 d1 3b f4 59 ad 3d
       -0.009839352 0.010557119 0.006378463 0.08464423
0003b0 ba 75 11 bd 13 17 00 3d b9 3f 09 bd 4f e5 71 39
       -0.035512663 0.031272005 -0.033508036 0.00023068975
0003c0 64 a1 7c 3c 68 f9 1e bd 09 5c be bc 64 c7 3a 3e
       0.015419338 -0.03881207 -0.023237245 0.18240124
0003d0 fb c0 89 bd b9 e5 bf bc d6 eb 3b bd 6e 41 2a 3e
       -0.06726261 -0.02342497 -0.045879208 0.16626522
0003e0 14 7e 67 bd c3 06 0a bc 73 7b 91 bd 68 32 17 3e
       -0.05651672 -0.008424464 -0.07103624 0.14765322
0003f0 c2 9a 85 bd 6a a5 99 bd 9a c1 f4 3c af 35 25 3d
       -0.06523658 -0.07502253 0.029877473 0.0403344

network_body._body_endoder.seq_layers.0.weight f4 [256, 24]
000000 9d 10 ab bd aa ee 49 be 42 b2 ff bd b3 18 d9 3d
       -0.08352778 -0.1971995 -0.12485172 0.10600414
000010 5f 19 d1 3d 26 c0 33 3e 0d 31 6e bd 29 2f 32 be
       0.10209917 0.17553768 -0.058152247 -0.17400803
000020 f2 d4 5e 3f 16 62 69 bc c4 ea fc 3e a1 b2 c9 bd
       0.8704368 -0.014244577 0.49397862 -0.09848524
000030 30 a7 de 3d 01 57 bb 3d 72 b4 dc 3d 0f 2c c5 3e
       0.10871732 0.09147454 0.10776605 0.38510177
000040 f9 b3 8b 3c 49 29 8a be c7 7c 19 be 10 a7 49 be
       0.017053591 -0.26984623 -0.14989005 -0.19692636
000050 14 ed 14 bf d7 c0 10 3d 5c 85 ab bd 79 3a 9e 3d
       -0.5817425 0.035340156 -0.08375046 0.077259965
000060 f4 92 c9 3c c6 15 9c 3d 02 bb 0d 3f 6b cf 35 3e
       0.024606206 0.076213405 0.55363476 0.17754905
000070 ea d7 b4 3d 95 b6 8d 3e 5f 2b c1 3d c5 5a 22 3e
       0.08830245 0.27678362 0.094321005 0.15854938
000080 4f f5 ed be 86 55 07 be 61 0e d6 be 74 b6 f6 3e
       -0.46476218 -0.13216218 -0.41807845 0.48186076
000090 2f 02 a3 3c 1d 1f 57 be 61 35 0a 3e bf 42 b7 be
       0.019898502 -0.21007963 0.13496925 -0.3579311
0000a0 f0 a2 85 3d 33 8a f0 3e 2b db f5 bd a0 ff 81 bb
       0.065252185 0.46980438 -0.120046936 -0.0039672405
0000b0 c9 5c 06 3f 07 2e 03 3e fc b4 c3 3d 9c 8d 3c be
       0.5248533 0.12810527 0.095560044 -0.18413395
0000c0 22 ee 3f be 7d 1d 83 3c d6 7a 31 3e fb d7 d3 bd
       -0.18743184 0.016005272 0.17332014 -0.103439294
0000d0 59 56 92 3e a1 7b 19 3e c0 c1 45 be 6e 8b 32 bd
       0.28581503 0.14988567 -0.19312191 -0.04359
0000e0 95 32 5d be dd 63 fc 3d 02 2c 8f be e5 2a 61 3d
       -0.21601327 0.12323735 -0.27963263 0.054972548
0000f0 03 08 ce bd 00 13 8e be 1c ad 17 be 48 23 d6 bd
       -0.10060122 -0.2774887 -0.1481213 -0.10455948
000100 eb 83 7e 3e 0d d0 b3 3e b0 35 bb bd 9c 9e 10 3e
       0.2485501 0.35119668 -0.091410995 0.14123005
000110 64 48 8a 3d 8a 3a 46 be 86 52 b8 3c 72 ce 20 3d
       0.06752089 -0.19358268 0.022500288 0.03925938
000120 68 a9 e3 bd 36 28 81 bc e4 9f 09 bf 4e 4a 0f 3e
       -0.11116296 -0.015766244 -0.537596 0.13993189
000130 d8 b5 8d 3d 16 ec 5d 3e b3 f2 c0 bd dc 78 4c 3e
       0.069194496 0.21672091 -0.09421291 0.19967979
000140 6d c6 37 be 7c e8 c8 3c fb 7c 18 3e 21 f3 65 3e
       -0.17946787 0.02452492 0.14891426 0.22456028
000150 5d d0 69 be a8 a2 31 bc b5 a6 7b be 08 89 2d bd
       -0.2283339 -0.010842003 -0.24575312 -0.04236701
000160 2e 00 47 3d a6 34 d5 3e 00 ca af 3d 5a c4 7a 3e
       0.048584156 0.4164173 0.0858345 0.24488965
000170 d5 5a 18 be 25 e9 0a bf 7f 16 32 bc 46 f7 88 be
       -0.148784 -0.54262 -0.010869621 -0.26751155
000180 55 ed a5 3d e1 4c 52 3e 24 47 c8 3e 45 b8 56 3e
       0.08101908 0.2053714 0.39116776 0.20968731
000190 84 33 b5 bc c3 6e c1 3e 63 5b 40 bf 42 87 4f 3e
       -0.022119291 0.37779817 -0.75139445 0.2026644
0001a0 93 89 86 3f 04 b2 ad 3d 2c 14 16 be 41 02 5c be
       1.0510734 0.084812194 -0.14656132 -0.21485235
0001b0 15 2d ff bd bb 08 39 3d 24 01 00 3d 1a a3 c8 39
       -0.124597706 0.04517434 0.031251088 0.00038268493
0001c0 d8 47 4b be 7c e1 26 bf 0a 2a bf be cf 54 d1 bd
       -0.19851625 -0.6518781 -0.3733676 -0.10221254
0001d0 7b eb 98 be 47 cf 6b 3e e3 a0 44 3e a6 dc 9a 3e
       -0.29867157 0.23028289 0.19201998 0.30246466
0001e0 85 10 e5 3e f7 2e 38 3e 60 ac 9b 3e 9f 5d 52 3e
       0.44739166 0.17986666 0.3040495 0.20543526
0001f0 18 fe 5a 3b c5 4e d0 3e 48 34 7f 3e 30 a1 07 be
       0.0033415612 0.40685096 0.24922287 -0.13245082
000200 5a 9b 18 3f 8f f1 c0 3c 18 e2 ad bc 5a 70 1f be
       0.5961205 0.023552684 -0.021225974 -0.15570202
000210 57 2b ab 3c 61 dc 8d bd 9f d4 0f be 2d 6a 84 bd
       0.02089469 -0.069267996 -0.14045952 -0.06465564
000220 c7 55 ac 3d e0 27 8b bd ed 66 5c be 39 b5 32 be
       0.08414798 -0.06794715 -0.21523638 -0.17451943
000230 f5 26 8d be 84 41 58 3d 3a 26 36 3e 9b 5a ab 3e
       -0.27568784 0.052796856 0.1778802 0.33467564
000240 13 d7 81 be c3 dd cf 3e 61 cf 37 3e 84 b4 ff 3c
       -0.253594 0.40598878 0.17950203 0.031214006
000250 52 a4 74 be ff e4 94 be dd 9c b1 3d b2 f4 aa be
       -0.23890808 -0.2908096 0.086724974 -0.33389813
000260 ff 1e c0 be 56 4d 90 3e 5b 6d a0 3d cc 73 34 be
       -0.37523648 0.28184003 0.07833358 -0.17622298
000270 7a 68 f3 be 0e 9b d5 3d a1 73 03 bd 68 b1 07 be
       -0.47540647 0.10429965 -0.032092694 -0.13251269
000280 79 46 93 be 09 16 ca bd eb ce 47 bd 2d 13 5a 3e
       -0.28764704 -0.09867484 -0.048781317 0.21296377
000290 c4 d6 e9 3d f2 20 8e be 9c 59 08 be 6f 41 88 bd
       0.114179164 -0.2775951 -0.13315433 -0.066531055
0002a0 4a 87 b5 3d cd f8 8e 3c af 80 90 3e 08 4d 01 3e
       0.08863695 0.017452622 0.28223178 0.12627041
0002b0 34 ea b6 3d de 8c 47 3e c3 a4 03 3e 7c 5e 17 3e
       0.089313895 0.1948733 0.1285582 0.14782137
0002c0 55 30 95 bd 5a 0b 61 be df 70 f7 3e 8f 66 5a 3e
       -0.07284609 -0.21976987 0.483283 0.21328185
0002d0 2e ad 5e be 47 31 0f bd 69 37 ca bd 3b d0 6b 3d
       -0.2174575 -0.034959104 -0.0987385 0.05757163
0002e0 cf 94 e6 bd dc 07 a5 3e e8 39 f9 bc f7 0a 5d bd
       -0.11258852 0.3223256 -0.03042312 -0.053965535
0002f0 13 bd 2a 3e 21 ff 13 bd e1 55 69 3e 8e 67 3d be
       0.16673689 -0.03613198 0.22786666 -0.18496534
000300 43 d5 0d 3e 89 c3 91 be 93 74 ae 3e 19 26 12 be
       0.13850884 -0.28469494 0.34073314 -0.14272346
000310 25 61 f6 bb 6b 43 66 bd 33 12 61 3e 55 a3 47 be
       -0.0075189047 -0.05621664 0.21979599 -0.194959
000320 1d 50 a8 be 68 88 14 3b 55 2d 26 be 21 2f e9 3c
       -0.32873622 0.0022664312 -0.1622823 0.028464856
000330 7a df f2 bb 1d 95 61 bb c2 39 bb bd a3 8d 2e 3e
       -0.0074118944 -0.0034421154 -0.09141876 0.17046218
000340 9e 2b 79 be f1 59 c4 bd a7 a9 b3 3c 81 9d 1f 3d
       -0.24333045 -0.095874675 0.021931482 0.038968567
000350 3f 68 60 3e b9 77 ab 3d 10 b9 a7 bd 42 03 0f be
       0.21914767 0.08372445 -0.08189595 -0.13966087
000360 ea 04 f3 3d 1b cf 86 3d 41 85 37 bd 1a b0 57 be
       0.11866172 0.06582471 -0.044804815 -0.21063271
000370 8e 9b 80 3c c6 b1 e3 bd ce 25 61 3e b5 36 84 bd
       0.015699174 -0.11117892 0.21987078 -0.06455747
000380 5b 8a 2b 3f a8 5d e1 3d 83 ed d0 ba d6 92 13 bd
       0.6700799 0.11004192 -0.0015939925 -0.036028706
000390 4b c1 10 3e 48 7f d0 bd b8 cb d6 3d d9 cd b6 3d
       0.14136235 -0.10180527 0.10488075 0.08925981
0003a0 fd d8 ae 3e 10 94 cf 3d 6c 42 96 bd aa 50 1f be
       0.34149924 0.101356626 -0.07336888 -0.15558115
0003b0 9f 36 e7 be b5 7c c5 3e 53 cd 2d ba 93 d3 1b 3d
       -0.4515886 0.38571706 -0.0006630022 0.03804357
0003c0 6e d2 97 3d 13 ab 0b bf cd f7 2f 3e b0 74 9a be
       0.07413183 -0.54557914 0.17184372 -0.3016715
0003d0 5b d0 a1 3e 5d f3 89 be 8e 6a 13 bc 3e 30 30 3e
       0.31604275 -0.26943484 -0.008997573 0.17205903
0003e0 a6 be 82 be 42 20 2e be 8d b2 b5 3d aa 82 d2 be
       -0.25536078 -0.17004493 0.088719465 -0.41115314
0003f0 34 a6 3b 3e d1 90 d1 3e 47 e6 14 be 92 08 17 3d
       0.1832512 0.409308 -0.14540969 0.036873408

network_body._body_endoder.seq_layers.2.bias f4 [256]
000000 ee e3 cd 3c d0 7f 05 bd 8a 53 12 3d ef 62 3c 3c
       0.0251331 -0.032592595 0.0357242 0.011498197
000010 c5 ee 79 3d 12 4c 40 3d 5c 4a 2a 3d 77 56 08 3d
       0.061018724 0.046947546 0.04157482 0.033285584
000020 6b 08 5c 3d 0e 6e c6 3c 9f 55 88 3d af 0a 48 3c
       0.053718966 0.0242224 0.06656956 0.012209578
000030 00 fe ab 3c 52 05 1d 3d d8 8b 81 3d 2e ce c3 bb
       0.02099514 0.038335152 0.06325501 -0.0059755063
000040 21 2e 43 bc 7f e9 0f 3d 55 27 9b 3c cf 64 9f 3d
       -0.011912853 0.03513479 0.018939653 0.077828996
000050 54 8e 4f 3d bd e3 91 bb 25 63 23 3d 04 f0 0b 3d
       0.050672844 -0.0044521973 0.039889473 0.034164444
000060 8d 42 58 bc 3c c9 61 3d 8c 1c 65 3d 14 da 39 3d
       -0.013199461 0.055123553 0.055935428 0.04537399
000070 32 a8 0b bc a4 b4 7b 3d 57 64 10 bc 4c da b9 bb
       -0.008523988 0.06145157 -0.008812985 -0.005671775
000080 8c 5a 42 3c 74 99 81 3d 01 ad 5a 3d d1 c9 7a 3d
       0.011862408 0.06328097 0.053387646 0.061227623
000090 5f bc e0 3c d1 36 a3 bc f5 5d e2 3c cb 68 d5 3c
       0.027433572 -0.0199236 0.027632693 0.026050946
0000a0 54 c8 88 3d af a2 31 3b 33 be ef 3c 73 39 85 3d
       0.066788346 0.0027105024 0.029265499 0.06505098
0000b0 73 c5 de 3c 74 16 dc 3b a3 51 f8 3c c9 be 45 bc
       0.02719376 0.006716544 0.030312365 -0.0120694125
0000c0 43 c5 16 3c 41 4a 3d 3d 58 f8 d1 3b 29 30 81 bc
       0.009202304 0.046213392 0.0064077787 -0.015770035
0000d0 f8 44 8a 3c 01 31 85 bb 6f 61 16 bb 3a cf 8e 3d
       0.01687859 -0.0040646796 -0.0022946259 0.06973119
0000e0 9a 30 b6 3b 03 00 16 3d e2 f5 7f bb 86 42 c3 3a
       0.005559993 0.036621105 -0.003905647 0.0014897145
0000f0 b7 75 96 bb 5b 87 7f 3d a9 b8 4f 3d fa a4 01 3d
       -0.0045916694 0.062384944 0.050713215 0.031651475
000100 9f 44 44 3c b4 6c bd 3c f3 78 8f 3d 34 88 a7 3c
       0.011979251 0.023123123 0.07005491 0.020450689
000110 33 fa e2 3a 6b cd cb 3c 5c d7 e3 bc be 08 21 3d
       0.0017316997 0.024878224 -0.027812652 0.039314978
000120 71 7f 69 3d 5d de 46 3d 37 7b 64 3c 7b 80 eb 3c
       0.057006303 0.048551906 0.013945392 0.028747788
000130 c3 57 01 3c bc e3 43 3d a1 01 8e 3d dd b7 97 3d
       0.007894459 0.047824606 0.069339044 0.07408116
000140 0d 5f ed 3c c7 92 52 bc c8 33 1e 3d d9 ce 83 3b
       0.028975988 -0.012852377 0.0386236 0.004022461
000150 a5 5f c1 3c 1d c7 4d 3c 5c 18 0f bc 79 e6 89 3d
       0.023605177 0.012559679 -0.008733835 0.06733412
000160 d4 c7 3c bc ce f0 fe 3c 57 29 09 3d d3 c1 09 3d
       -0.011522252 0.031120684 0.03348669 0.03363211
000170 9c 9b 4f bb 38 ea 99 3b 37 83 99 3c 22 83 ab bc
       -0.0031678444 0.0046971105 0.018739326 -0.020936552
000180 85 62 85 bc c2 d2 41 3d 40 0e 21 3d 5c 8f 67 3d
       -0.01628233 0.047320135 0.03932023 0.056533203
000190 8a 17 6e 3c 2b 1f 94 3d 98 be 14 3d d3 ed 23 ba
       0.014531979 0.07232507 0.036314577 -0.0006253395
0001a0 d8 7d f7 3c 18 40 04 3d fa 1f 00 bc bf 80 29 3d
       0.030211374 0.032287687 -0.007820124 0.041382547
0001b0 df 34 8b 3a 11 40 61 3b f2 d2 4f 3d e2 71 b0 3b
       0.0010620615 0.0034370462 0.050738283 0.0053846696
0001c0 31 4f 5c 3b 24 0a 77 3c 0a c4 0b ba 67 74 da bc
       0.0033616538 0.015078101 -0.00053316413 -0.026666833
0001d0 e5 d0 3c 3d 30 2e 42 bc 2e c2 55 3c 94 2a 9b 3c
       0.046097655 -0.011851832 0.013046784 0.018941201
0001e0 96 03 a1 3d 39 ed 8b 3d 53 6a 2f 3c 6d f4 c7 3c
       0.07862012 0.06832356 0.010706502 0.024408543
0001f0 b5 c6 2b 3d 34 1f ec bc bf e0 0b 3d 91 c7 46 3d
       0.04193755 -0.028823473 0.03414988 0.048530165
000200 ad a1 e6 3c 5e 53 84 3d d4 8e 32 ba ea 15 28 bc
       0.028153265 0.064612135 -0.0006811444 -0.010259131
000210 16 94 2b 3d 77 f0 a7 39 9c 57 11 3b 2c cc 5f bc
       0.041889273 0.00032031882 0.0022177463 -0.013659518
000220 7b bc 8c 3c 89 1a a5 3c c2 7c a6 3c b8 9d 81 3d
       0.017179718 0.020154255 0.020323161 0.063289106
000230 de 02 8b bc 4f 06 ac b9 41 a8 4b 3d 81 9e ae 3c
       -0.01696914 -0.00032811097 0.049721006 0.021315815
000240 80 07 39 3d 35 37 1c bc 9b ad f1 3c 11 6b db 3c
       0.04517317 -0.009534647 0.029501727 0.026784452
000250 02 d1 42 3d 4a c6 ea bb a0 13 db 3c a3 c7 7c bc
       0.047562607 -0.007164751 0.026742756 -0.0154284565
000260 72 15 23 3d 78 46 4c 3d e2 52 c3 3c 5a 36 8a 3d
       0.039815374 0.04987189 0.023843233 0.06748648
000270 92 ff 8b bb 9e 47 c1 bc 7a 26 41 3b 05 e5 f9 bc
       -0.0042724097 -0.02359372 0.0029472397 -0.030504713
000280 72 7c d3 3c 03 76 2e 3c d7 55 01 bb 12 cc 0b bd
       0.025816176 0.010648253 -0.0019735002 -0.034130163
000290 0b f6 3c bb 8c 62 b2 3c de d1 20 3b 1a 89 2d 3d
       -0.0028833176 0.021775506 0.0024539153 0.04236708
0002a0 71 f9 01 3d d0 a2 d6 3c 53 dc 04 bc 63 7c 93 bc
       0.031732026 0.026200682 -0.00810917 -0.018003648
0002b0 95 b9 e7 bc 42 bc 11 bd cd 7a 9f 3c 16 91 a7 bc
       -0.028286735 -0.035579927 0.019467736 -0.020454925
0002c0 9d f4 d9 bc c1 87 9c bc 26 f2 47 3d a7 c6 95 bc
       -0.026605899 -0.019107701 0.048814915 -0.018283201
0002d0 1a 8e f2 bb 68 07 0d bd 43 c0 64 3c ae 16 bc 3c
       -0.0074021937 -0.03443089 0.013961854 0.022960033
0002e0 2f a6 7d 3c 1a 13 a8 bc 01 6e 05 3d 92 35 e0 3c
       0.015481516 -0.02051692 0.03257561 0.027369294
0002f0 4f 52 6f 3b 9b ce bc 3c 18 46 f5 bc e2 17 1a bc
       0.0036517566 0.023047736 -0.02994065 -0.009405108
000300 a9 ee 8d 3c 75 63 0d 3d e2 1b 8f 3d 57 90 9f bc
       0.017325716 0.034518678 0.0698774 -0.019478006
000310 14 87 35 3d b4 01 f5 3c 9e 24 ad 3c ac a5 38 3c
       0.044318274 0.029908039 0.021135624 0.011269968
000320 34 82 96 3c c3 1c a2 3d f4 e1 8e bc 32 04 c9 3b
       0.018372633 0.07915642 -0.017441727 0.0061345333
000330 dd 81 ea 3c 0c b3 d1 3a 7f d9 2e 3d 4e 2e b1 3c
       0.028626377 0.0015998795 0.04268789 0.021628525
000340 34 2f ec bb 37 00 b7 3c 04 c2 de 3b 02 15 cb bc
       -0.0072077755 0.02233897 0.006798031 -0.02479029
000350 65 55 d2 3c 84 6e 31 3b b1 de 9c bc 74 58 3c 3b
       0.025675485 0.002707393 -0.019149156 0.0028739246
000360 a9 71 62 3b 49 e7 67 3a 2c 70 11 3d ab 8e e9 bb
       0.003455261 0.0008846415 0.035507366 -0.007127603
000370 10 a6 f6 3c 5e f7 4f 3d f3 00 25 3c 97 43 6e 3c
       0.030108482 0.050773017 0.010071027 0.014542482
000380 f8 7a 73 3c cb af cc 3c 69 30 62 3d 61 c6 d4 3c
       0.014860861 0.024986168 0.05522195 0.0259735
000390 5f a2 6a 3d ca ca a1 3b 69 fb 9c 3c 24 9a d4 3c
       0.057283755 0.0049375044 0.01916285 0.025952406
0003a0 dc 1c c4 3c 86 83 32 3d 19 a4 1e bd 52 d0 e3 3c
       0.023939542 0.04358246 -0.038730714 0.027809296
0003b0 b4 7f 95 bc a4 cc 80 3d 31 9e cf bc 30 67 12 3a
       -0.01824937 0.06289032 -0.025343986 0.0005584834
0003c0 14 34 16 3c 0b 4e 06 3d 19 a4 44 bc 83 83 4a 3d
       0.00916769 0.03278927 -0.012002015 0.049441826
0003d0 2c b1 cb 3b 62 e4 8d bc 26 24 3f 3d 81 e0 6d 3c
       0.006216189 -0.017320815 0.046665333 0.014518858
0003e0 71 be c4 3b f1 46 43 bb 5a e7 a2 3d f3 59 13 3d
       0.0060041477 -0.0029796923 0.07954283 0.035974454
0003f0 ee d2 31 bc 39 dc b1 3c dd 53 6a 3d 80 8b 80 3d
       -0.010853512 0.021711456 0.057208885 0.062766075

network_body._body_endoder.seq_layers.2.weight f4 [256, 256]
000000 4c f7 01 bc cd fa 40 bd a4 c0 a6 bd bd 47 ee 3c
       -0.007932495 -0.047114182 -0.08142212 0.029086942
000010 4c b4 cb 3d 38 cb f9 3c 3c 7b 85 bd 8b 2a 02 be
       0.09946498 0.03049241 -0.06517646 -0.12711541
000020 2b b9 44 3d f3 67 0c 3d 92 cc 7b 3c 16 46 8b 3d
       0.048028152 0.03427882 0.015368598 0.06800477
000030 f5 0f b2 bd 67 a6 33 3c 2d f7 ae 3c c8 e2 05 bc
       -0.0869445 0.010964966 0.021358097 -0.008171745
000040 f0 b6 10 be 9e a5 cf 3d 17 11 10 be 97 a9 26 be
       -0.14132285 0.10139011 -0.1406902 -0.16275631
000050 f8 fe 5f 3c da 67 18 bd 2d 9e 61 be fd 8b f0 bd
       0.013671629 -0.037208416 -0.22032996 -0.11745451
000060 52 a2 0b 3e 44 59 d4 3c 6a 1a a8 bb f0 7b 87 3a
       0.13636139 0.025921471 -0.005130102 0.0010336619
000070 c3 40 98 bd e8 13 55 be f0 f4 b5 bc aa 5b 39 bd
       -0.07434227 -0.20808375 -0.022211522 -0.045253433
000080 0b a9 57 be 05 eb 14 be 2b 5f 03 be 20 89 13 bd
       -0.21060579 -0.14542778 -0.12829272 -0.036019444
000090 61 6d a8 bd 88 57 32 bd 03 fa 9c bd cd 9e c1 bd
       -0.08223987 -0.043540508 -0.076648735 -0.09454117
0000a0 74 93 90 bb ed 4c d4 bc 06 dd 1d be 63 41 1b be
       -0.004412109 -0.025915587 -0.15416345 -0.15161662
0000b0 ee 10 a3 bd 45 bc 45 be 67 ef 39 3c 78 98 be bd
       -0.079622135 -0.193101 0.011348582 -0.09306425
0000c0 0a 13 6f be 8a 3d 76 3d b7 90 03 be e2 fe 1e be
       -0.23347107 0.060117282 -0.12848173 -0.15526918
0000d0 42 62 74 bd 8c a5 db bd e9 be b9 bc 33 1a 43 bd
       -0.05966402 -0.10724935 -0.02267404 -0.047632407
0000e0 ab 29 9b be 83 5f e1 bd 90 00 cc bc 78 a7 39 bd
       -0.30305228 -0.110045455 -0.024902612 -0.045325726
0000f0 92 9e a8 bd 1c 3d af bc fe 97 b0 bd d7 ff e6 bd
       -0.0823337 -0.021391444 -0.0862274 -0.11279266
000100 60 8e e1 3b b0 4a 05 be e8 5f ef 3c 07 0b 2e 3b
       0.0068834275 -0.13016772 0.029220536 0.0026556866
000110 b0 9b ec bd 3d 15 3b be e0 1d 41 3d d1 21 db bc
       -0.115531325 -0.1826982 0.04714763 -0.026749523
000120 90 c6 04 be 44 09 10 be 11 1d 03 bd 24 1a e0 bc
       -0.1296637 -0.14066035 -0.03201014 -0.027356215
000130 57 a4 7a be be b0 36 bd 27 a8 27 3e 0e 74 04 be
       -0.24476753 -0.04460215 0.16372739 -0.12934896
000140 b9 15 78 bc a6 6f 9e bd 44 2c c0 bc d2 93 56 be
       -0.015141898 -0.07736139 -0.023458607 -0.20954826
000150 55 5e 15 3c 7a a9 dc bc a2 85 89 bd 18 1c c7 bd
       0.009116729 -0.026936281 -0.067149416 -0.09722155
000160 a3 e3 9f bd 22 b7 41 be e2 a0 08 be 6c 46 34 3d
       -0.0780709 -0.18917516 -0.13342622 0.044012472
000170 9c f9 8b bd f5 0b 4c bc ce 55 1e 3d 40 80 74 bc
       -0.068347186 -0.012454023 0.03865605 -0.014923155
000180 d7 32 31 3d e4 a6 91 3d 26 c7 67 bb 8f 85 9f 3d
       0.043261375 0.0711191 -0.0035366504 0.07789146
000190 14 7c 3b be 48 f2 0e bb 70 56 74 bc d2 1b 34 3e
       -0.18309051 -0.0021811891 -0.014913186 0.17588738
0001a0 83 25 04 bd 78 60 20 bd a6 0e f0 bc b8 53 27 bd
       -0.032262336 -0.0391545 -0.02930386 -0.040851325
0001b0 57 4e d0 bd 88 57 fc bd 72 69 e5 3c d3 59 ff bd
       -0.10171192 -0.12321383 0.028004382 -0.124683045
0001c0 a1 4a 2f 3d 9f 04 10 3d 43 e5 25 bd 87 01 ec bd
       0.04279578 0.035160657 -0.040501844 -0.11523729
0001d0 56 3b 64 3d a5 b8 32 be 0c fc 41 3c fb b4 eb bc
       0.05572065 -0.17453249 0.011839878 -0.028772822
0001e0 c1 49 af bd f8 76 84 3c 2c 02 ed bc 35 44 17 be
       -0.08558989 0.01617001 -0.0289317 -0.14772113
0001f0 c6 09 28 bd 85 23 9c bc c5 36 dc bd 8b ed 6f bd
       -0.041024946 -0.019059906 -0.10752634 -0.058576148
000200 eb c5 50 be 56 48 2c 3c e4 f7 85 bd b3 5a 26 bd
       -0.20388 0.010515293 -0.06541422 -0.04061384
000210 ee c9 b5 3d 70 2c 4b bd eb 13 77 bd 88 7c e9 bd
       0.08876406 -0.049602926 -0.06032173 -0.114007056
000220 84 55 1d bd ce ac bc bd 7b 1a 4f bd 15 f5 3d bd
       -0.038411632 -0.092126474 -0.050562363 -0.046376307
000230 c4 d7 bb bc a4 86 0a be f8 bc da bd e8 90 8b 3e
       -0.022930034 -0.13527924 -0.10680574 0.27258992
000240 c0 38 e2 bc 8e 96 c0 3d 0f f5 4d 3d 61 7f f8 3d
       -0.027614951 0.09403716 0.050282534 0.121336706
000250 f8 82 f7 bb a2 2b 08 be b3 d2 86 bd c6 21 2b bc
       -0.0075534545 -0.13297895 -0.065831564 -0.010445064
000260 28 10 26 be 99 c7 ae bd c0 d0 03 be b7 93 da bd
       -0.162171 -0.08534164 -0.128726 -0.106727056
000270 50 f7 26 3c f3 9b 4b 3d bf 5b d6 bd aa 42 11 3e
       0.0101908 0.04970927 -0.10466718 0.14185587
000280 27 c9 24 be 42 f9 85 bc 44 af 0d be 06 79 05 3d
       -0.16092359 -0.016354207 -0.1383639 0.03258612
000290 cd b7 21 be b7 05 ae 3c 40 c1 84 3d 98 9e d7 bd
       -0.1579277 0.02124296 0.06482172 -0.10528296
0002a0 87 22 9f bd e1 32 60 bd aa dc 6b bd 0b fe 15 3d
       -0.077702574 -0.054736022 -0.05758349 0.036619227
0002b0 43 53 cf bd b7 f2 bf 3d d6 27 bc bc 23 4b b7 3d
       -0.10123303 0.09372466 -0.022968214 0.08949878
0002c0 f5 7d df bc 14 67 12 3d 09 b3 07 bd 3f 02 c3 bc
       -0.02728174 0.035742834 -0.033129726 -0.023804782
0002d0 86 7a 5b bc 32 04 88 bc 2a ad 23 bd 06 7b 00 bd
       -0.013395911 -0.016603563 -0.039960064 -0.031367324
0002e0 51 a9 64 3e 69 31 a9 3d fe d6 22 bd 3c a4 09 be
       0.22330214 0.08261377 -0.039755814 -0.13441557
0002f0 06 1b 96 3c 8c 1e 1d 3d 13 fb 83 bc e8 13 e7 bd
       0.018323433 0.03835921 -0.016110932 -0.11283094
000300 1c d7 77 bd bc b1 e9 bd 13 c0 ac bd 8d 2e 8c bc
       -0.06050788 -0.11410853 -0.08435073 -0.01711204
000310 6e f4 5c bc bb df 52 bd 21 2d f9 bd 38 ed 1f bd
       -0.013486011 -0.051482897 -0.12166811 -0.03904459
000320 74 a5 a5 bd df 8a 23 bd 8c 3b f5 3c 61 96 11 bd
       -0.08088198 -0.03992736 0.02993562 -0.035543803
000330 01 41 a1 bd 7b 74 56 bd d5 ea 4b bc 72 50 da bd
       -0.07873727 -0.05235718 -0.012446125 -0.10659875
000340 6b 0e be 3d 71 20 18 3e c9 05 09 be 5e 1e 17 be
       0.09280094 0.14856125 -0.13381113 -0.14757678
000350 3b 80 b0 bd a3 b1 c1 bd c9 31 a0 bd ae bf a3 3d
       -0.08618208 -0.0945771 -0.07821996 0.079955444
000360 cd 6c fe bb 86 5d 48 bd 60 c8 0e bd 36 9b e8 3d
       -0.007764435 -0.048917316 -0.03485906 0.11357729
000370 26 36 f5 bd f8 82 83 bd 6b bf 23 be 10 22 52 3c
       -0.119732186 -0.06421465 -0.15990989 0.012825504
000380 cf 9a 8c bb ac 1e 1b bd 38 4f d9 bd 88 c7 25 bd
       -0.0042909156 -0.037871048 -0.10610813 -0.04047349
000390 3f 6c 17 be 71 cd 61 bd 9b 42 f4 bc a3 cf 35 bd
       -0.14787386 -0.055127565 -0.029816916 -0.04438747
0003a0 2d 7e b0 3d 4c 7a 47 3d ae 1b 35 bd 8c 7d c8 3d
       0.08617816 0.048700616 -0.04421585 0.09789571
0003b0 e5 f8 12 bd ee 67 54 be 83 6a 2d 3d 6a 55 b1 bd
       -0.035881896 -0.20742771 0.042337906 -0.086588696
0003c0 0f 7c 40 bd 0c 65 1a bd f0 24 af bd 59 03 09 be
       -0.04699331 -0.037694022 -0.08551967 -0.13380183
0003d0 8f 84 28 bd c9 30 40 be 0a 9d 0f bd 3e 74 eb bc
       -0.041142043 -0.1876861 -0.035061873 -0.028741952
0003e0 62 2a 8e 3d 8b c7 0a be 3b 9d f3 bc e8 d8 2f bc
       0.06941678 -0.13552682 -0.02973806 -0.010732867
0003f0 80 bb 9d bd 9d 94 47 bd 9a 58 d4 bb 67 ad 5c 3c
       -0.077017784 -0.048725713 -0.0064802887 0.013469077
