Assets/Training/results/”maze_runner”/My Behavior.onnx (onnx, 296077 bytes, 6 tensors)

action_model._discrete_distribution.branches.0.bias f4 [5]
00000000: 18da 1aba 8195 9cbb 225f b4ba 09af 043b
00000010: 0ae4 d03a
-0.0005907132 -0.0047785644 -0.0013761262 0.002024593 0.0015937102

action_model._discrete_distribution.branches.0.weight f4 [5, 256]
00000000: 813e beba 16b9 ee3a 4408 4c3a d5e8 ab3b
00000010: b4b2 893b 4105 1a3b 9bc4 96bb d761 47bb
00000020: 1685 8d3a d870 63bb 45db 19b9 c1e1 1dbb
00000030: a5a6 78ba efde 96bb 5215 16bb a450 243b
00000040: 7ed0 863c 241b 4abc 25d5 d8ba 50f7 3ebb
00000050: de9e dfbb b2f8 98bb b07e b7bb b087 1cbb
00000060: f244 0f3c 7f7c b0bb ae9e d83b 7683 cc3b
00000070: 71bb 973a 9265 12b9 54a9 0eba 14b5 1abb
00000080: ca3a eaba f315 a23b f55e 203a f051 02bb
00000090: 257a b9bb 0b66 b73a 5dfb 7e3b 34a0 ea3a
000000a0: 1da3 c73a 4b61 0d3b 6daf 0d3a 6dca 4fbb
000000b0: 5f07 c8ba 9edc 0abc c8df f5bb 3f26 c03a
000000c0: e196 70bb 390a 7339 e959 b0bb 5b0a 06ba
000000d0: 1428 f73b 8d02 83ba 392e f0bb e368 983a
000000e0: a3c6 e1bb 25c2 843b 5efe e03b 85a5 bfbb
000000f0: 2fb5 aabb fd5e 263c 2088 ba3b 488c 9cbb
00000100: 7841 3f3c c20f 893b 9462 033b 6f4a 39bc
00000110: 43f9 753b c52f 27bc f6fd 163b cd35 9e39
00000120: 47c5 1ebb 14a3 423b 3782 a5bb 70ea 953b
00000130: a9fb 0aba 8a68 9fba 2f1f e7b9 b1a7 133b
00000140: 85a1 073a 6856 883a c524 213b d688 593c
00000150: 14fc a4bb 09ee aabb 4daf ee3a b3d9 ab3b
00000160: f6cb dc3b d536 2d3c cb9a 1a3b 17ce 113c
00000170: fb59 4e3b 2b27 4bbb dec2 dbbb 221b 33ba
00000180: 7976 2f3b 755d e0ba 40f5 5c3b 4dfc 4b3c
00000190: d26c a43a 37b9 843b 9e2d 92bb 84b2 913b
000001a0: b70a 81bb 687a 8cbb a987 ccbb 4001 ba3a
000001b0: 050b 40bb 5399 ac3b 51a8 6e39 81f6 563a
000001c0: e882 0dbc c12e 91bb dc38 3f3b 7ad4 553b
000001d0: 59c2 77bb 68e1 a3ba 86f9 a93b 4b05 a439
000001e0: f0f3 babb ba10 713b cef9 39bb 4d3d c2b9
000001f0: cbf7 8bbb 642e 6a3c aadc 00bb 77df ec3a
00000200: ea14 103c 3850 3fbb b218 163b d512 b33a
00000210: eb4a 3eba f3a2 dd3b 535c 4d3c 9014 733c
00000220: 5cc7 13bc 4f52 f33b 8f8e 88bb 229d f13b
00000230: 5d4f 023b 1d0e ff3a a002 8c3b b87c 5c3c
00000240: 9ef2 b23b 4c99 5b3b b781 bfbb 640d 7ebb
00000250: 0271 bfba 7dfa 093b 2434 da3b 8425 333b
00000260: 456d 05ba 5034 913b 3108 39bb 6c7f 9cbc
00000270: 6b21 763b a003 46ba cae1 8dbb c344 543b
00000280: 6794 033a 6963 8e3b 57b0 22bb 64d0 153c
00000290: 730e 843c 9691 7a3b 8b70 cb3b 0ccd 003c
000002a0: 353a 643c ca89 75bb c267 5939 d1d0 a63b
000002b0: d9ba 8ab9 0476 e9ba 6dff f1bb 9e19 403a
000002c0: 7086 a4bb 2209 ccbb b328 e13a fd24 b13b
000002d0: bb77 49bc e5ea 14b9 bf77 6bbb 0750 63bb
000002e0: 5208 413a dd1e 273c 290f b83b e681 193b
000002f0: afa8 15ba 9712 013b b83f 7c3b b053 c13b
00000300: e09d 023b 8c93 c53a 195b a23b 2d75 a33b
00000310: 103d dc3b 4e88 0cbb 8107 2fbb 6e8b 66bc
00000320: c429 81bb 2c65 55bc 407d b93a 169a 5ebb
00000330: 400c 723b 54b7 ad3b fd06 bd3b 1129 89ba
00000340: ffc1 39bc af12 bdbb 2e95 debb 631c cd3a
00000350: 150c 113c e62b 02bb 118f 4b3b 6a95 e13b
00000360: aafb 2fbb 510a 483c 55c5 adbb b535 f23a
00000370: 7dfd 37bc c7e3 4bbb 82ea ce3b ba40 1b3b
00000380: 8045 f33a 4545 1e3c a967 993b 173d b33b
00000390: 2a13 3fb9 3fe1 793c e9c5 853b 2f58 073c
000003a0: 3a96 a83a 27f9 2a3c c983 ea3a 8a13 d53b
000003b0: 6a94 6b3b ada9 d13b 42e5 a7bb 25d7 0b3a
000003c0: 181f e03b 1afa 0bbb 263e f43b 118b ac3b
000003d0: e58c 1fbb 4b6d cbbb 8ca2 7ebb ff8b 37bb
000003e0: ffa0 2d3a 164e 5a3a 731d bdbb 5e01 cc3a
000003f0: 46f0 f63a fe79 e23b 66f2 2cbc 59fc 583b
-0.0014514477 0.0018213119 0.0007783214 0.0052462616 0.0042022113 0.0023501667 -0.004601074 -0.0030423307
0.0010797109 -0.0034704711 -0.00014672901 -0.0024090859 -0.0009485281 -0.0046042125 -0.0022900891 0.002507248
0.016456839 -0.012335572 -0.0016543014 -0.002913911 -0.0068243584 -0.0046683187 -0.005599819 -0.0023884587
0.008744465 -0.005385935 0.006610713 0.0062412573 0.0011576248 -0.00013961483 -0.0005442102 -0.0023606466
-0.0017870304 0.004946464 0.00061176653 -0.0019885264 -0.0056603127 0.0013992203 0.0038907148 0.0017900527
0.0015231107 0.0021572884 0.00054048636 -0.0031706349 -0.0015260986 -0.008475451 -0.0075034834 0.0014659836
-0.0036711025 0.00023178094 -0.005381812 -0.00051132374 0.0075426195 -0.0009995267 -0.007329729 0.0011627938
-0.0068901344 0.004051464 0.0068662604 -0.005848589 -0.005209587 0.010154483 0.005692497 -0.004777465
0.011673324 0.0041827867 0.002004777 -0.01130925 0.0037532605 -0.01020426 0.0023039556 0.00030176193
-0.0024226473 0.0029699253 -0.005050923 0.0045750663 -0.00053017825 -0.0012161892 -0.00044082987 0.0022530372
0.00051739096 0.0010401728 0.0024588567 0.013277253 -0.005034933 -0.0052163643 0.0018210203 0.0052444576
0.006738181 0.010572155 0.00235908 0.008899233 0.0031486738 -0.0030998688 -0.0067065796 -0.0006832351
0.0026773496 -0.0017117696 0.0033715516 0.01245029 0.0012544638 0.0040503996 -0.0044610044 0.0044463295
-0.003938045 -0.004287053 -0.006241758 0.0014191046 -0.0029303443 0.005267301 0.00022760151 0.0008200184
-0.0086371675 -0.0044306223 0.0029178178 0.0032627867 -0.003780505 -0.0012503089 0.005187216 0.0003128446
-0.005705349 0.0036783651 -0.0028377655 -0.00037048236 -0.0042714826 0.014293287 -0.0019662776 0.0018071969
0.008794049 -0.0029192101 0.0022902903 0.0013662229 -0.00072590885 0.00676381 0.012534219 0.014836445
-0.009019699 0.0074255834 -0.004167385 0.007373468 0.001988373 0.0019459162 0.004272774 0.01345747
0.005461051 0.003350812 -0.0058443206 -0.0038765306 -0.0014605823 0.0021053844 0.0066590477 0.0027335593
-0.000508983 0.004431285 -0.0028233642 -0.019103728 0.003755654 -0.0007553641 -0.0043298947 0.0032389618
0.0005019367 0.0043453467 -0.0024824345 0.0091439225 0.016120171 0.0038233749 0.0062084845 0.007861387
0.013929893 -0.0037466162 0.00020733385 0.005090811 -0.00026460623 -0.0017811661 -0.0073851855 0.0007328036
-0.005020909 -0.0062266747 0.0017178267 0.0054060207 -0.012296612 -0.00014201885 -0.0035929529 -0.0034685151
0.00073636055 0.0102002295 0.0056170416 0.0023423373 -0.0005709035 0.0019694918 0.0038490128 0.005899869
0.0019930527 0.001507388 0.0049547073 0.0049883337 0.0067211464 -0.0021443549 -0.0026707354 -0.014071329
-0.0039417464 -0.01302461 0.0014151707 -0.0033966354 0.003693357 0.0053013954 0.0057686553 -0.0010464509
-0.011337756 -0.0057700495 -0.006792686 0.0015648719 0.008852978 -0.0019862591 0.0031060616 0.0068842666
-0.0026852884 0.012209491 -0.005303065 0.0018479141 -0.01122987 -0.0031111108 0.0063145766 0.0023689703
0.0018560141 0.00966007 0.0046815467 0.005469929 -0.00018222319 0.015251457 0.0040824306 0.008260771
0.0012862154 0.010435379 0.0017892058 0.0065025734 0.0035946616 0.0063984008 -0.005123765 0.0005334488
0.006839644 -0.002135879 0.0074536977 0.0052656014 -0.0024345454 -0.006208097 -0.003885421 -0.0028007028
0.00066234166 0.0008327676 -0.005771333 0.0015564372 0.0018839918 0.0069115153 -0.010555839 0.0033109395

network_body._body_endoder.seq_layers.0.bias f4 [256]
00000000: 7121 37ba 5f90 02bc 955d 5ebb d701 9d39
00000010: 59c7 e23a 6603 1a3a 426a 9bbb dd0a c83a
00000020: f7cb 8639 4c11 ce3b 75ec 9bba 8521 42bc
00000030: 0d91 bfbb a3e6 393b 65fe 16b8 9036 10bb
00000040: 09db 14bb c583 b0ba 142e 5abc 34b6 17bc
00000050: d9d7 1c3b 2868 5ebb e2fe ff3b f346 053b
00000060: bb4e f9bb 6218 8fbb 3a62 4f3b 8351 69bb
00000070: 5dc4 bb3a 9b39 29bc 899d 6eba 9c8a 8cbb
00000080: 52ec d53a 538b 133c 3a58 8ebb f46e 1c3c
00000090: d1c4 92bb 2818 6dbb 893b 4ebb 84b8 14bb
000000a0: 534c 8abb 562b ddbb 28d4 bf3a 0d4c b5bb
000000b0: fdc4 1cbb 3d0f 93b9 8515 e5bb 9331 06bb
000000c0: 4dc9 1e3b 481e fbba f3f7 c7ba e032 1ebc
000000d0: 131c 1f39 cfa1 ac3b e32e 503b 7189 533b
000000e0: a3ca 27bb ba05 15bb 875e 923b d4df d0bb
000000f0: cfef cebb 1e08 bd3a a59f c3ba 8121 93ba
00000100: d709 643b dcff 5ebb e4c4 50bb 3ff2 113c
00000110: 1b07 3aba c445 af3a 2e35 ceba 0963 a03b
00000120: 77be 54bc 7f0a 05bb 7381 4dbb 12a9 31bb
00000130: 7689 a1bb 4cd9 cf3a 971e 83b9 b350 133b
00000140: a230 89ba c51a 05ba db0b 16bc e7e2 81bb
00000150: c12f 0e3c ae29 96bb 75dc a5bb 66bc 05bc
00000160: f7b1 5139 6d3c 803a c6a8 10bb 909c e33a
00000170: f0ab 303c 6401 ad3b f828 023c 1194 b5bb
00000180: df65 29bc 986a 99bb c84f 66ba b65f 21bc
00000190: 5188 3339 0954 e93a 3df9 5abb c21b d3bb
000001a0: c5f3 a73a 7ffe 92bb 7efc debb a522 d9bb
000001b0: 1c28 51bc 7bde 0f3b d045 333b c704 f7ba
000001c0: 1b1f 713b 726f f0ba 3208 803b 132d 30ba
000001d0: fb5d a3bb 160c 69bc 5220 63b9 6ce1 a4bb
000001e0: 7eae 4d3b e890 48bb c194 dd3b 0736 54bb
000001f0: d186 35b9 b68e a1bb 700e 3ebb 1cb9 7eba
00000200: a679 f1ba 7825 993a feed 813a 3fe9 b43a
00000210: 95b7 44b9 b240 3abb 4db5 e1bb e2e8 86bb
00000220: af28 bdbb 1b1b 7abb a661 c3b9 5f45 28b7
00000230: 0af5 483b 9815 bdbb 98d3 0ebc f22e 26bb
00000240: 5d5a 923b 253c 043b 6a00 92ba f9ac f2bb
00000250: 224f 13bc 5d9b 5b39 2f7a c0bb b8e2 1dbc
00000260: 2fa0 9fba 54db 9fbb 50a1 febb 3aa0 6bbb
00000270: 8ae5 12bc 6ca1 32bc 204c 4bbb a105 423a
00000280: 0876 02bb 1049 d0b9 6e2c 93bb c060 9fbb
00000290: cee3 163a 6ef2 b1bb 19fc 6e3b f774 32bb
000002a0: 6d08 fa3a 9a75 09bc 91da cabb 9de7 d83b
000002b0: 1983 7eb9 85cd cebb b55b a6bb b5e0 913b
000002c0: b97f 0bb9 6151 083c 23e7 83bc 4564 a1bb
000002d0: f947 943a 691b f7bb 7533 be39 999b bfbb
000002e0: 6308 08bc 0d7b a1b9 030e a0ba 7bf8 ba39
000002f0: 2836 9f3a 4869 aa3a 232a 1c3b 885e 2bba
00000300: dd67 1a3b 893f 53bb a3a0 19bb 7517 7fba
00000310: 0990 57bc 2da4 c9bb 3337 c3bb e8d4 aebb
00000320: 8fa4 67bb d824 edba d42c 133b 7e4f 90bb
00000330: b38c ba3a 0ef8 11bc b854 463a cad6 18bb
00000340: 4b20 23bc b80c 9dbb e59c 4bbb 5f92 c1bb
00000350: 53fa 40bc 8efa 0e3c b115 edbb 1e07 b0bb
00000360: 7bfb 4ebb be82 983a 9d16 623a 3e3d 5f3a
00000370: 5be1 86bb 5290 17bb 8758 cdbb a66a febb
00000380: 87a8 a43b c7d2 173b 1a2d f9ba 7c6e 8b3b
00000390: 2367 3d3b 49ae 3a3b 4f91 d23a 9390 b53b
000003a0: 1907 2abb c92d 43bc c41b 6ebb 33bc 3d3b
000003b0: c109 1ebc f367 ba3a b722 e0ba 5d9e 8abb
000003c0: 5564 a1bb 43da 033b 20c7 21bc 4d6f a0bb
000003d0: cecb 15ba f59d 05bc 42bb d7ba d1ef 92bb
000003e0: 9482 b93b 6844 24bc b98a 043b af61 acbb
000003f0: 3df2 1fbb c2ed d8bb fb87 97bb a15d f0ba
-0.0006985879 -0.007968991 -0.003393029 0.00029946744 0.0017301842 0.000587514 -0.0047428915 0.0015262027
0.00025710437 0.006288683 -0.0011896031 -0.011848812 -0.005846149 0.002836623 -3.599971e-05 -0.0022005178
-0.0022713563 -0.0013467005 -0.01331665 -0.009259749 0.0023932366 -0.0033936594 0.007812367 0.0020336478
-0.0076082624 -0.0043669203 0.003164424 -0.0035601563 0.0014325489 -0.010328676 -0.0009102454 -0.0042889845
0.0016321039 0.009005385 -0.0043440135 0.009547938 -0.0044790288 -0.0036177728 -0.0031468591 -0.0022692988
-0.0042205243 -0.006749551 0.0014635371 -0.0055327476 -0.0023921125 -0.00028049378 -0.0069910907 -0.0020476326
0.0024228871 -0.0019158805 -0.001525639 -0.009655684 0.0001517388 0.0052683125 0.0031766228 0.0032277966
-0.0025602959 -0.002273901 0.004466835 -0.0063743386 -0.0063152085 0.0014421975 -0.0014924897 -0.0011225195
0.0034795904 -0.0034027016 -0.0031855637 0.008907854 -0.0007096396 0.0013372232 -0.0015732402 0.0048946184
-0.0129848635 -0.0020300446 -0.0031357675 -0.002710883 -0.0049297167 0.0015857606 -0.00025009058 0.002247852
-0.0010466764 -0.00050775363 -0.0091581 -0.0039638164 0.008678378 -0.0045826053 -0.005061681 -0.0081625935
0.0001999809 0.0009783633 -0.0022073253 0.0017365385 0.010783181 0.005279707 0.007944338 -0.0055413325
-0.010339229 -0.0046818964 -0.0008785692 -0.009849479 0.00017121552 0.0017801534 -0.0033412718 -0.006442518
0.0012813738 -0.0044859047 -0.0068050018 -0.0066264444 -0.0127659105 0.0021952677 0.0027354844 -0.0018846028
0.0036792222 -0.001834376 0.003907227 -0.0006720584 -0.0049855686 -0.014224073 -0.00021660447 -0.005031755
0.0031384523 -0.003060395 0.0067621176 -0.0032380836 -0.00017311728 -0.0049303425 -0.0029000305 -0.00097169145
-0.0018423095 0.001168414 0.0009912846 0.0013802423 -0.00018760406 -0.002841991 -0.006888068 -0.0041171173
-0.005772672 -0.0038163129 -0.00037266052 -1.0029732e-05 0.0030663633 -0.0057703964 -0.00871744 -0.0025357571
0.0044663385 0.002017745 -0.0011139039 -0.007405874 -0.008991035 0.00020943345 -0.0058739404 -0.0096365735
-0.0012178476 -0.004878441 -0.007770695 -0.0035953657 -0.008965859 -0.010902744 -0.0031020716 0.00074013515
-0.0019906778 -0.00039727287 -0.0044913804 -0.0048638284 0.00057559914 -0.005430511 0.003646618 -0.002723036
0.0019075997 -0.008389855 -0.006190606 0.0066194073 -0.00024272165 -0.006311121 -0.0050768503 0.004451836
-0.00013303653 0.0083201835 -0.016101426 -0.004925283 0.0011312953 -0.0075411093 0.00036277962 -0.005847406
-0.008302781 -0.00030799993 -0.0012211207 0.00035661817 0.0012146877 0.0013001347 0.0023828826 -0.00065372186
0.0023560442 -0.0032233915 -0.0023441694 -0.00097309734 -0.013156899 -0.0061536045 -0.005957508 -0.005335439
-0.0035345887 -0.0018092645 0.002245714 -0.0044040075 0.0014232605 -0.0089092385 0.00075657247 -0.0023321384
-0.00995643 -0.004792776 -0.0031068858 -0.0059073414 -0.011778432 0.008726729 -0.007235252 -0.005371942
-0.0031583 0.0011635644 0.00086245855 0.00085159007 -0.00411622 -0.0023126793 -0.006266657 -0.0077641783
0.005024973 0.0023166405 -0.0019010634 0.004255114 0.0028900586 0.002848523 0.0016065034 0.005540916
-0.0025944172 -0.0119127715 -0.0036332468 0.0028951287 -0.00964588 0.0014221653 -0.001710019 -0.004230304
-0.0049252906 0.0020119108 -0.009874135 -0.0048960806 -0.0005714268 -0.008155336 -0.0016459005 -0.0044841547
0.005661318 -0.010026075 0.0020224287 -0.005260668 -0.002440586 -0.00662014 -0.0046243644 -0.001833845

network_body._body_endoder.seq_layers.0.weight f4 [256, 24]
00000000: 97c2 11bd 8162 853d c888 12be 87be 533d
00000010: 43e8 4a3e eed8 97be a8a8 a23e 43ee b2bd
00000020: e7ef 863e 8a10 a7be c998 4bbd b396 d8be
00000030: 1cdb c33e 1a58 0fbe 1f9d 7fbe 2a33 4d3e
00000040: cbc3 15be 30a9 0f3e 28ba 543d a32d 11bd
00000050: 861d c6bb c9ea 27be c0bd 063b c438 a63d
00000060: ad1b a63d e5ab cd3e 6cbe 963e cbb6 b7bc
00000070: 54e0 dc3d 3b72 ad3e f03d 193b 1751 d13d
00000080: 8be1 063f 085b 8a3e 4ff5 8cbc 178b 97be
00000090: 4c25 853e 7895 933e 4514 8f3e be3e b63e
000000a0: 1696 d03d 8dac 863e a8bd 0bbe 446d 9bbd
000000b0: bcac fc3d db9b 3ebd 8728 ef3d c260 6e3d
000000c0: af8c 38be 9d67 423e bf31 073e 80ce 153e
000000d0: 06da d2bd ac20 6ebd 801d e1bd eaf9 e63d
000000e0: 2c85 343e 28c8 d0be 54e2 a53e eeb4 12be
000000f0: 5347 9dbb 8197 96be f86b 07be 870d 91be
00000100: 33cf e43d a60b ac3e 02a5 cdbe bf81 4d3e
00000110: 4076 89be 75c0 21be 1a68 bcbc e8a2 6dbd
00000120: 97fa 9cbd 5ef5 08bd c079 ed3e a0d6 c3bd
00000130: 13f3 ebbd 8dc2 9d3d 6e00 36be 75c5 06be
00000140: 688b f53d 20e6 303d 8712 d5bc 5a6f 8b3d
00000150: 2b42 93be 0f8f 023f d5db 873e f75c 063e
00000160: 8ee0 69be 7f3a 8fbe 0660 133e 39e0 42bb
00000170: db6d adbd fe52 23be 6d1a fd3d 5849 663c
00000180: 545f bb3e 1fa5 0bbe 83c6 433d d954 fe3e
00000190: 4cbc 4c3e 83e4 b53d b7e3 e83d 5da8 a2be
000001a0: bf03 1a3e cad5 61bd 4b7b 753d 304e 98be
000001b0: 0fbe 47bd f2c2 80be e2e0 693d 0076 673e
000001c0: 3d73 af3e 327a 98bd bdc9 07bd 7326 d33e
000001d0: 478c 423e 52f9 20be 0e1d 17be ac63 98be
000001e0: c55a b23d d045 a43e 7af6 293e b1e0 af3c
000001f0: 185b 14be 1aeb fc3d 9be3 a03d e764 dabd
00000200: d8c2 033f 0d08 d63d 2dde 45bc 598d 53be
00000210: 176d e03c 92c3 6fbe ba99 a23e fd62 d13d
00000220: 2004 6e3e d3a8 073e 30c6 9c3d b480 f1bd
00000230: 1ebf 4fbc d747 24bd b0c6 e9bd 96c7 9b3d
00000240: f73f a7be 8698 f23d b9ca f93e 1787 7c3e
00000250: bc74 bcbd cc4c 913e 5aaf d8bc 086d b3bd
00000260: 99a6 af3e dc8e a5be 67f5 51bd 4d1c 803e
00000270: 4ad1 173e 9276 193e 0ab6 2d3e 4cab 00bd
00000280: 0ee8 7e3e b165 0abe 8d64 04be 6b18 a53d
00000290: 80b6 bebd 6bb4 783e f94c a5bd 42ea 28be
000002a0: 4c7e 84be 5b05 49bd 030d 2c3e e2e1 f0bd
000002b0: 52fd 75bd 2459 9fbe 87a0 0b3e 0ce8 f13d
000002c0: b9fd e43a 0f6c fdbd e5b7 893e 1997 90be
000002d0: 720d e2bd 2b1f 5bbd fca7 13be 7dc8 263e
000002e0: f33d d33e c573 353d 0eea 453e 5f5c a8be
000002f0: 90b8 ea3d b0d0 f8be 7caf 12be 36a0 28be
00000300: 8b9e c0bd f235 f93d 4391 b6bd 7a57 e53c
00000310: 66bf 54be fa34 10bd 1187 4dbe 3579 633e
00000320: c030 cb3d 3e7d 0b3e 6653 aa3d a540 4c3d
00000330: a8ed 87be cb32 dc3d c44a 7abe 1cb0 73be
00000340: 7e10 923e 9df1 0f3e bb90 bc3d 54e4 08be
00000350: 649c 2bbe 6ca5 5abe dc8a c3bd b274 e43d
00000360: 81bb 993e effb 923d 0e15 063e 8ab0 0abe
00000370: 4a30 1bbc d69e 553d cb56 a13b 9615 ddbd
00000380: d794 e33e e8e3 14bc 15a3 083e 54b0 4b3e
00000390: 922b 1d3e 8c5d 2b3e e5f6 46be 3219 2c3d
000003a0: 41af 7abd 81fa 903d 70b6 6d3e 9941 d93d
000003b0: a72a 9cbe 64c9 56be 8736 f5bd b7f4 30bf
000003c0: 8ea1 d0bd ddcb 643e 7513 2d3e 0a7a dcbd
000003d0: 1c21 8abd d2c9 bf3d 703a 123e 509d cebe
000003e0: 2400 823e db73 423e b53a 023e e86a d3be
000003f0: 31db 0e3e 4e2d 833e 611b 9fbe a578 233e
-0.035585966 0.06512929 -0.1430999 0.051695373 0.19815163 -0.29657692 0.317693 -0.08736851
0.26354906 -0.32629806 -0.049706254 -0.42302474 0.38253105 -0.13998452 -0.2496228 0.20039049
-0.1462547 0.14029384 0.051935345 -0.035443913 -0.006046 -0.16398157 0.0020559877 0.08116296
0.081107475 0.40170208 0.29442155 -0.02242603 0.10784975 0.33876213 0.0023382865 0.10220545
0.526879 0.27022576 -0.017206816 -0.29598305 0.26005018 0.28824973 0.27945152 0.35594743
0.101848766 0.2630352 -0.13646567 -0.075892 0.12337634 -0.046535354 0.11677652 0.058197744
-0.18022417 0.18984838 0.1320257 0.14629555 -0.10295491 -0.058136627 -0.10991955 0.11278136
0.17628926 -0.40777707 0.32399237 -0.14326832 -0.0047997623 -0.29412463 -0.1322478 -0.28330633
0.111723326 0.33602637 -0.40164953 0.20069025 -0.2684803 -0.15796073 -0.022998858 -0.058016688
-0.07664984 -0.033437125 0.4638195 -0.09562421 -0.11520972 0.07703123 -0.17773601 -0.13161261
0.1198948 0.043188214 -0.026009811 0.06808348 -0.2876142 0.5099954 0.26534906 0.13121401
-0.22839567 -0.27974316 0.14392099 -0.0029735698 -0.08468219 -0.15949628 0.12358556 0.014055572
0.36596167 -0.13637207 0.047796737 0.4967411 0.19993705 0.08881476 0.11371558 -0.31769076
0.15040492 -0.055135526 0.059932034 -0.29747152 -0.04876524 -0.2514873 0.05709923 0.22603607
0.34267607 -0.07445182 -0.033151377 0.41240272 0.18998824 -0.15720108 -0.14757177 -0.29763544
0.08708719 0.32084513 0.1659793 0.021469446 -0.14487875 0.123495296 0.07855912 -0.10663777
0.5146918 0.10450754 -0.012076897 -0.20659389 0.027395768 -0.23414448 0.3175791 0.10223959
0.23243761 0.13247995 0.07654989 -0.11792126 -0.012679843 -0.040107574 -0.1141485 0.07606427
-0.3266599 0.11845498 0.48787478 0.24660908 -0.09201953 0.28378904 -0.026450802 -0.087610304
0.3430679 -0.32335556 -0.051259425 0.25021592 0.14825931 0.14986637 0.16963974 -0.03141336
0.2489321 -0.13515355 -0.12928982 0.08061298 -0.09312153 0.24287574 -0.08071322 -0.16495612
-0.25877607 -0.049077373 0.16801839 -0.11761834 -0.06005604 -0.31122696 0.13635455 0.118118376
0.0017470635 -0.12374126 0.26898113 -0.28240278 -0.11037721 -0.05349652 -0.1441955 0.16287418
0.412582 0.04429986 0.19327566 -0.32882974 0.11460984 -0.48596716 -0.14324754 -0.16467366
-0.0940524 0.121684924 -0.08914425 0.027995814 -0.20776138 -0.035206772 -0.20071055 0.22214206
0.09921408 0.13621995 0.08316688 0.049866337 -0.26548505 0.107518755 -0.24442583 -0.23797649
0.28528208 0.14057012 0.09207293 -0.1336835 -0.16758877 -0.21352166 -0.0954797 0.1115507
0.30025867 0.07176959 0.13093969 -0.13543907 -0.009471962 0.05215343 0.0049236766 -0.10795133
0.44449493 -0.00908754 0.13343461 0.19891483 0.15348652 0.16734904 -0.1943012 0.042016216
-0.06120229 0.0707903 0.23214126 0.10608215 -0.3050129 -0.20975262 -0.11973291 -0.69123405
-0.10187064 0.22343393 0.16901954 -0.107654646 -0.06744596 0.09364666 0.14280105 -0.40354395
0.25390732 0.18989508 0.12717707 -0.412925 0.13950802 0.25620502 -0.31075576 0.15963991

network_body._body_endoder.seq_layers.2.bias f4 [256]
00000000: 7126 dcbb a18a acbb 6bc9 75bb a8a5 98bb
00000010: d357 4f3b 714b 88bb fbca 36bb 85d7 65bb
00000020: 58e2 40bb 2cf5 06bc 7b4d 58ba 085a a3ba
00000030: 8380 b1bb 5176 25b8 a602 87bb fed7 83bc
00000040: f5b1 84bb e6e1 11ba 4f66 eabb da25 c0b7
00000050: bc1f 963a 9ea1 82b8 3a1e 9aba 623f 40bb
00000060: 1497 9cbb 0be8 dcbb e8fe 80bb c5a7 49bb
00000070: c75a b8bb 81b4 1bbb 7773 cebb 34c5 49bb
00000080: a935 5dbb 7950 69bb b162 7cbb a59d 89bb
00000090: 3dbc 67bb 7871 d9bb 6082 86bb c7e9 47bb
000000a0: 0944 16bc 7d51 e4ba f8fd 1bbc f83a 63bb
000000b0: d373 97bb 86ae 1dbb 3de3 50bb 9329 50ba
000000c0: 6817 6d3a 2a59 ddba 8250 ffba b979 c3bb
000000d0: ae58 7bbb cb67 31bb f09e 7dbb 9737 0dbc
000000e0: f60e 16bb 1410 fdbb 56b5 45bb 3371 42ba
000000f0: ed62 cabb 3f59 1f3b fabb 9fbb 2c98 ecbb
00000100: 9393 80b9 69f5 bebb 0aa6 84bb c994 6dbb
00000110: 7890 92bb dc86 e8b9 308c 6fbb 11bc baba
00000120: f902 b9bb f7d7 debb c8e0 1fbb 4329 84bb
00000130: f8df c0bb bb1a 323b c164 1cbb c04d e8bb
00000140: c5dc 02bb dafa 43bb 6637 4dbb edde 37bb
00000150: 6fda 99bb 85db 66bb 9830 10bb b64f 27bb
00000160: 6d81 88bb 7877 81bb 0c85 dcba 739c c1bb
00000170: 4b88 16bb 55fd 533b 26de cabb 0c53 0dbb
00000180: 5a5e 86bb a53c 20b9 0ef7 31bb 62ba 83bb
00000190: 6543 e5bb 4651 d93b f9ff 5fbb 9a41 67bb
000001a0: ca1a 1cbb 4fe7 33ba 740c 3d39 404c 55b7
000001b0: b6d4 c4bb a107 62bb e9c0 33bb bf1d b1bb
000001c0: e4a4 4639 0dbf 7f3b ee8f 19bc fc2a 13bb
000001d0: 1fbc 7ebb 14c5 72bb ca99 72bb fc9f 95bb
000001e0: 2884 01b9 4224 8dbb cc04 923b fb7f efba
000001f0: 91ea 8d3b ce72 e1ba a0f4 fbba 43e0 7538
00000200: ee09 dd3a fcc7 58bb 4a53 f3bb b143 a1bb
00000210: 2cab 1bbb 2876 c2bb d519 c0bb 855e 79bb
00000220: 8019 f3bb 279d 5a3b e122 52ba 73ae 9fbb
00000230: bd6a 8bba f292 bbbb b7c3 5d3a 3ace e13a
00000240: 16c4 2fbb 2068 23bc 087f 83bb c916 29bb
00000250: d5b6 7b3b b880 74bb 4b7c 73bb b4d9 5b3a
00000260: e23a 0b3b 56ca fc3a e429 4fbb 066c d73a
00000270: da6e 8cbb 4849 6dbb 008a 2bba c0a3 89bb
00000280: e50c cbba e084 f2ba 6bfc e0ba c85a bdbb
00000290: 5933 debb 8d49 35bc 143f b1ba d78b 013c
000002a0: ff1d 03bb 0bfc 2abb 4f49 e0ba 2721 65bb
000002b0: fc69 d3bb e416 69ba 4dfc fe38 8b08 5bbb
000002c0: 7433 21b9 268b 06bc f988 b2bb b7b1 d8bb
000002d0: be42 baba 4cef 46bb 08a9 6fbb e08f 12bb
000002e0: 6a89 a3bb 1cec a6b9 c436 c4bb 48fd 07bc
000002f0: 9770 4bbb 9a9d 53bb d6cb b5bb 8243 52bb
00000300: 87c9 e1bb fde7 40bb c5d3 22bb 722a 97bb
00000310: 7818 a5bb ecc0 d4b8 d812 88ba 45da 8f3a
00000320: b4d6 cebb 6ff9 a43a d39c 2ebc 31af b1bb
00000330: 70ee 3bbb 7a0f babb ffb4 82bb 3829 30bb
00000340: 16df 56ba 5ca5 1639 af5a 42bb 6d7f 1dbb
00000350: 6667 a53b 0f10 3fb9 ac7f 85bb 540f eb37
00000360: 0afe 6c3b b01f d0bb 33cf 56bb 43b6 cdbb
00000370: 947f 483a 8ad0 3aba eb27 503b 616c 64bb
00000380: 8530 0cbb d2c1 7bb9 6e42 12bc bba8 a13b
00000390: 5d47 ff39 cf3c a5bb 921b 92bb 4793 3ebb
000003a0: cd4d b1bb 09f8 4ebb a400 46bb 4c68 95bb
000003b0: e33f 20bc 0b02 88bb a100 e1ba 9808 48bb
000003c0: e3c9 22b9 fc39 bcbb 4171 c6bb 3f59 f3bb
000003d0: 9ce0 f1bb b72e a1bb 617a 8fba 22b9 8bbb
000003e0: 47c6 a3bb 24c4 3dbc 7133 ecb9 749e 9abb
000003f0: 6e62 35bb 7812 c4ba 0e1d 96bb 4ab4 58bb
-0.0067184498 -0.0052655493 -0.0037504088 -0.0046584196 0.003163804 -0.004159384 -0.0027891982 -0.0035071087
-0.0029431786 -0.0082371645 -0.00082512916 -0.0012462744 -0.005416931 -3.9449256e-05 -0.0041201888 -0.016094204
-0.0040495344 -0.00055649725 -0.0071533094 -2.290581e-05 0.0011453549 -6.2289866e-05 -0.0011758276 -0.0029334654
-0.004778752 -0.006741529 -0.003936637 -0.0030770164 -0.005626056 -0.0023758712 -0.0063003856 -0.0030787708
-0.0033753908 -0.0035600944 -0.0038510973 -0.004199701 -0.0035360001 -0.006635841 -0.0041048974 -0.0030504332
-0.009171494 -0.0017419305 -0.009521 -0.00346726 -0.0046219616 -0.0024060323 -0.0031873726 -0.00079407654
0.00090443203 -0.0016887535 -0.0019478949 -0.005965438 -0.0038352418 -0.0027069922 -0.003869947 -0.008619211
-0.00228971 -0.007722864 -0.00301679 -0.00074173807 -0.0061763437 0.002431467 -0.0048747035 -0.0072202887
-0.00024524014 -0.005827595 -0.0040481137 -0.0036252013 -0.0044727884 -0.00044350966 -0.0036552064 -0.0014246722
-0.0056461063 -0.0068006474 -0.0024395455 -0.004033239 -0.005886074 0.0027176577 -0.0023863765 -0.0070893466
-0.0019968015 -0.0029904158 -0.0031313538 -0.0028056458 -0.0046952288 -0.0035226059 -0.002200162 -0.002552969
-0.0041658194 -0.0039510094 -0.0016824319 -0.005908543 -0.002296942 0.0032347043 -0.006191033 -0.0021564392
-0.004100603 -0.00015281381 -0.0027155313 -0.0040200213 -0.0069965594 0.006632003 -0.0034179671 -0.0035286904
-0.0023819678 -0.0006862776 0.00018029084 -1.2713543e-05 -0.0060068024 -0.003448941 -0.0027428216 -0.0054051573
0.00018944178 0.0039023787 -0.009372694 -0.002245604 -0.0038869453 -0.0037043737 -0.0037017935 -0.0045661908
-0.0001235163 -0.004307301 0.0044561382 -0.0018272394 0.004330941 -0.0017200352 -0.0019222684 5.8621412e-05
0.0016863921 -0.0033078184 -0.0074257003 -0.0049213995 -0.002375315 -0.0059344955 -0.0058624544 -0.0038050723
-0.0074188113 0.003335783 -0.00080160616 -0.004873091 -0.0010636669 -0.0057243044 0.0008459645 0.0017227598
-0.0026819757 -0.009973556 -0.004012946 -0.0025800935 0.0038408537 -0.0037308168 -0.0037152942 0.00083866273
0.0021244814 0.0019286375 -0.0031610662 0.0016435392 -0.0042856755 -0.003620701 -0.0006543696 -0.0042004287
-0.0015491514 -0.0018502735 -0.001716507 -0.0057786442 -0.0067810235 -0.011064899 -0.0013522827 0.007906876
-0.0020006893 -0.002609017 -0.0017111691 -0.0034962387 -0.0064518433 -0.00088916556 0.000121586585 -0.003342184
-0.00015373324 -0.0082118865 -0.0054484573 -0.006612982 -0.0014210565 -0.0030355034 -0.0036569256 -0.0022363588
-0.0049907463 -0.00031837902 -0.005987974 -0.008300133 -0.003104245 -0.0032289983 -0.005547981 -0.0032083695
-0.006890479 -0.002943515 -0.0024845463 -0.004613214 -0.0050383173 -0.00010144882 -0.0010381592 0.0010975084
-0.0063122157 0.0012586544 -0.010657507 -0.005422496 -0.0028676055 -0.0056781145 -0.0039888616 -0.0026880037
-0.00081966945 0.00014366716 -0.0029656102 -0.002403225 0.0050477264 -0.00018221162 -0.0040740576 2.802132e-05
0.0036162161 -0.0063514337 -0.003277731 -0.006277831 0.0007648405 -0.00071264117 0.0031762074 -0.0034854638
-0.0021391225 -0.00024009429 -0.008926971 0.0049334443 0.0004869056 -0.0050426493 -0.004458853 -0.0029079483
-0.005410886 -0.0031580946 -0.0030212784 -0.0045595523 -0.009780857 -0.004150634 -0.0017166325 -0.00305227
-0.00015524733 -0.005744217 -0.0060559814 -0.0074264104 -0.007381512 -0.004918899 -0.0010946506 -0.004264013
-0.0049980017 -0.011582408 -0.00045051755 -0.004718596 -0.0027677077 -0.0014959117 -0.0045811003 -0.0033066445

network_body._body_endoder.seq_layers.2.weight f4 [256, 256]
00000000: f4a4 a23d 0d71 eabc 78cc 87bd aff9 6fbb
00000010: d525 963d 388b 19be b826 d03d e349 3d3b
00000020: 8f29 21bd fa90 cdbc 2c00 a13c 13ad da3c
00000030: f525 423d 8fb3 983d 8aa7 053d 237f 983c
00000040: 5193 1fbd 4f6f bb3c 5d09 0c3e ab7d c6bc
00000050: 74b1 193d 5ead 47bd 52f3 233d 0775 debd
00000060: 9795 97bd a429 113d 31b3 f63c 0c88 21bd
00000070: 49d4 863d d7db e9bd f680 423d 22dc 1d3d
00000080: 02c1 9ebd 5aa4 1a3e f6c5 b03c 0c4b 9f3d
00000090: 3b66 853d 7735 093d 3cfe 69bc f3fa 9f3d
000000a0: dd95 f6bc 9dca 6dbd 4dde 913b 05bf 5f3d
000000b0: 572e e03c 5d89 42bc 9433 2cbc 1da2 223d
000000c0: 58b6 bbbd fe72 0dbd e747 cbbc 97ba 983d
000000d0: e1fc 6c3d 3c20 c0bc 771f 3ebd cbb4 b2bd
000000e0: ee11 793b 1011 e4bc 0310 8cbd ac5b 06bd
000000f0: f2b4 0e3e 846f 823d 8f15 17bd 1cba d0bc
00000100: cf77 d0bd 2e1f 9bbd 06f7 743c 29a9 a83d
00000110: 8cb9 a4bc 6a91 363d 5db6 e2bc 386d 38be
00000120: 3034 6bbd 4246 6f3a 46cd adbb 93d9 8ebd
00000130: f977 7c3d 5df8 ae3d f584 2abd 3cca e53d
00000140: cd4a 883d aef8 803d a815 22bd c874 20ba
00000150: e17a cd3d f1b4 acbd 7aaa 773c 6fde 1ebd
00000160: 6735 a53d 7779 a9bd e5ff 07bd ac64 a23d
00000170: d367 0d3d 7496 d33d fe0f 443d c0cc 2fbd
00000180: 521f c43d 3d31 4abd e826 f9bd 87be c5ba
00000190: 0ca6 8fbd 1577 26bc 0dde 193d db18 6c3c
000001a0: e587 99bd 3dcb aebd 2250 463d 986a 01bc
000001b0: e3b0 57bb 55b7 673d 538c ff3d 6d66 08bc
000001c0: 8bc2 ddbd 40c3 c9bd 88ff 1cbd b45b 273c
000001d0: 9204 00be e782 853a 7dec 523d 47a1 23bd
000001e0: be97 76bc f380 c23d 00b5 a93d 5634 e53d
000001f0: 8403 77bd 5173 1fbd 43dd f43c 96e9 bcbc
00000200: e524 03bd 238e b43a ca15 f43c 0f79 0bbd
00000210: 5eeb 0cbd af14 883c 7ed2 50bc a890 38bd
00000220: 14bc 303d 5762 3c3d 4e5a 2fbd 2bed 9ebd
00000230: 2475 a1bd 0c13 033c c3b1 253e 797b 4b3d
00000240: 5f44 4c3c 06bb ebbc a8b8 43bc 512c 173d
00000250: 12e8 05bd a56e e2bc 0044 0cbd 2f91 17bd
00000260: a28c 8abc d140 caba fa2b 3ebb c3e5 db3a
00000270: 1543 80bc fc93 80bd c2a3 afbc 2aea 90bd
00000280: 6989 4e3d adf3 b9bd e828 913c 28f0 153d
00000290: 1482 78bd c72f 673d 3fb3 3bbe 02fc cfbc
000002a0: c2b9 643d 64e5 0fbd 32a3 ec3c 173a b4bd
000002b0: 7948 9b3d 6b37 0c3c 1663 f83c 2273 443d
000002c0: 5720 40bc cb5a bb3c 16fa 17bd fb4b 093c
000002d0: bec7 19bd 0e6a 6dbd 1dcb 453c d96f 26bd
000002e0: 0b48 04bd 413b 1bbc cb68 a03d 9522 3a3d
000002f0: 48f2 5e3d 9637 24be bc78 c53d 9f5c c13c
00000300: 52ec 9e3d 0716 0a3b c8e0 9bbc f44e ba3d
00000310: 2b86 773d 1596 983d 69bb 413d d535 fbbc
00000320: e3f6 363d 92de 043d 9668 91bd 2365 053c
00000330: 308a 833d dae6 983d 51e4 a1bd 2555 12bd
00000340: ea38 c33c f122 68bd 9e02 2b3e 2e28 113e
00000350: 13a9 f7bc 6658 14bb 1c3d 8ebc f1d2 ef3b
00000360: b615 1bbd b2af 553c f85e 913d c371 1f3d
00000370: bd05 d73d 8ea4 a13d 6593 86bd 5fb1 8e3c
00000380: ed54 e73a 489b 9dbd b251 c3bd 5fae 6bbb
00000390: 995f a63b e9ec 693b dbb7 6d3d 24cc 24bc
000003a0: 1a9b 6fbd c9f7 e4bd 4f70 8b3d 2d37 97bc
000003b0: 449a 213e e02b a23c 10d8 1fbc 3dd8 b4bc
000003c0: 60d1 673c 657c 84bd c1b9 063c dfe6 933d
000003d0: 4d32 0abc e296 dc3c 1b9e 9d38 a03f b7bd
000003e0: e860 933d 3418 ecbc 0be0 79bd 6427 02bd
000003f0: 0a13 4cbd 016f 39be 2632 ed3c 4915 fb3c
0.079416186 -0.02861836 -0.06630796 -0.003661733 0.07331435 -0.14994514 0.10163635 0.0028883151
-0.039346274 -0.025093544 0.019653402 0.026693856 0.04739948 0.07456123 0.03263048 0.018615311
-0.03895885 0.022880225 0.13675447 -0.024229845 0.037522748 -0.04874932 0.04002697 -0.10862165
-0.07401579 0.035440102 0.030114742 -0.039436385 0.06583459 -0.11418884 0.047486268 0.038540013
-0.07751657 0.15101758 0.02157877 0.07777986 0.065136395 0.033498254 -0.014281806 0.07811537
-0.030100757 -0.058054555 0.004451549 0.05462553 0.027365847 -0.01187357 -0.010510344 0.039705385
-0.09165639 -0.034533493 -0.02481456 0.07457464 0.05785835 -0.02345287 -0.046416726 -0.0872589
0.0038005072 -0.027840167 -0.068389915 -0.03280227 0.13936213 0.06368926 -0.036885794 -0.025479369
-0.10179102 -0.075743064 0.014951473 0.0823539 -0.020108007 0.04457227 -0.027674848 -0.18010414
-0.057422817 0.00091275957 -0.0053040115 -0.06975093 0.061637852 0.08543465 -0.041630704 0.11220214
0.06654892 0.06297432 -0.039571434 -0.00061209174 0.10033203 -0.08432949 0.015116328 -0.038786348
0.08066826 -0.08275121 -0.033203024 0.07929358 0.034522843 0.10331431 0.047866814 -0.042919874
0.095762864 -0.049363364 -0.12165624 -0.0015086689 -0.07014093 -0.010160227 0.03756528 0.014410223
-0.07496623 -0.085348584 0.048416264 -0.007898949 -0.003291183 0.056571323 0.124779366 -0.008325201
-0.10828122 -0.09851694 -0.03832963 0.010214735 -0.12501743 0.0010186107 0.051495064 -0.039948728
-0.015050827 0.09497251 0.08286476 0.11191623 -0.060306087 -0.038928334 0.029890662 -0.023060601
-0.032017607 0.001377527 0.029795546 -0.034050997 -0.03440415 0.016611425 -0.012745498 -0.04505983
0.043148115 0.04599222 -0.04281073 -0.0776008 -0.07883671 0.008000147 0.16181092 0.0496783
0.012467473 -0.028775703 -0.011945881 0.036907498 -0.032692023 -0.02764065 -0.034244537 -0.037003692
-0.016912762 -0.0015430694 -0.0029017911 0.0016776848 -0.015656987 -0.06278226 -0.02144039 -0.07075913
0.050424013 -0.090796806 0.017719701 0.036605984 -0.060670927 0.05644205 -0.18330096 -0.025388721
0.055841215 -0.035130873 0.028886411 -0.08800142 0.075821824 0.008558135 0.030320685 0.04796136
-0.01172646 0.022870442 -0.037103735 0.008379932 -0.037544005 -0.05796247 0.012072352 -0.04063401
-0.032295268 -0.009474576 0.07832488 0.045443136 0.054430276 -0.1603683 0.09642169 0.023603735
0.07759918 0.0021070258 -0.019028082 0.0909709 0.060430687 0.07450501 0.04729787 -0.030665318
0.044669043 0.032438822 -0.07100026 0.008141789 0.064228415 0.074659064 -0.07904876 -0.03572573
0.02383085 -0.056673948 0.16700217 0.14175484 -0.030231988 -0.0022635697 -0.017363124 0.0073188473
-0.037862502 0.013042377 0.07098192 0.03892685 0.10499141 0.078927144 -0.06571082 0.017418562
0.0017649211 -0.07695633 -0.095370665 -0.0035962088 0.005077314 0.0035694188 0.058036666 -0.010058437
-0.058497526 -0.11180074 0.068085305 -0.018458927 0.15781504 0.019796312 -0.009756103 -0.022075767
0.01414904 -0.06469039 0.008222998 0.072217695 -0.008434844 0.026927415 7.515793e-05 -0.089476824
0.07196218 -0.028820135 -0.06100468 -0.031775847 -0.049822845 -0.18108751 0.028954577 0.030649798
