Assets/Training/results/Run 1/My Behavior/My Behavior-552.onnx (onnx, 297918 bytes, 5 tensors)

network_body._body_endoder.seq_layers.0.weight f4 [256, 24]
0.008817237 -0.43951082 -0.27810916 0.1715474 -0.1633652 0.09089147 0.26994586 -0.39023927
0.17934777 0.039538603 0.33788416 -0.46343625 0.14164492 -0.18288597 -0.1636865 -0.053355746
0.4055008 -0.40991297 -0.16863078 -0.32892692 0.17247783 -0.03453547 0.051243797 -0.42483655
-0.13446128 -0.13668887 0.2215941 -0.049424656 -0.21217631 -0.19382179 -0.14056823 -0.025705244
-0.123606175 0.06667035 -0.111187585 0.016572569 0.2973583 0.12163405 -0.034259867 -0.24626242
-0.15004455 0.2884522 -0.39017317 -0.11441781 -0.2697132 -0.014377622 0.45119673 0.103478916
-0.071072005 0.15687294 0.10025318 -0.1624098 -0.10336543 0.039084833 0.26363817 -0.2746056
0.20406267 0.06273349 -0.28265944 0.0048730397 -0.23146889 -0.10160861 0.261312 -0.313225
-0.15330076 0.18018956 -0.18477197 0.17415583 0.27418518 -0.10197951 -0.020205284 -0.071269624
-0.1601073 -0.0031468903 0.14850068 0.31288457 0.1509039 -0.120105825 0.2161348 0.0590809
0.13033946 0.20148969 0.010182201 0.16454089 0.0746675 -0.10475259 -0.08954119 -0.56683785
-0.3294292 -0.2798547 -0.2754051 0.26062793 0.1254895 0.3202862 -0.24996033 0.05545585
0.16737781 -0.095147565 0.012022025 0.2860391 0.048152268 0.04986463 -0.09151106 0.15234251
0.22782665 -0.42668235 -0.17251022 0.07454738 -0.06333393 -0.2019427 0.0016334124 0.08448773
0.10843848 -0.20036311 0.20458196 -0.038533617 0.17359947 -0.058387917 0.029398704 -0.15318665
-0.09280095 0.2445883 -0.08597898 -0.3758565 0.099523455 -0.014939394 0.14926012 0.10579885
0.014735875 -0.016958559 0.16635022 0.23033118 -0.12725754 -0.10177941 0.2009199 0.062690616
-0.10594131 0.16543682 0.13151762 -0.10580682 -0.15345682 0.2287709 0.014869767 -0.017033435
-0.026582034 -0.09545841 -0.2998318 0.088126704 0.13098454 -0.021469608 0.35636488 0.49893203
0.20038931 0.098039314 -0.07922732 0.12374827 0.2200174 -0.14972864 -0.12038791 0.118414186
0.036329713 0.24779256 0.610082 -0.09448119 0.14868443 0.0017614805 0.008639486 0.18822563
-0.42582864 -0.0730949 -0.06357589 0.11875713 -0.068751484 0.3413501 0.26141974 0.15432902
-0.14097781 0.4189862 0.009580736 -0.16849948 0.41590464 0.39127442 -0.05384845 -0.2033472
-0.17650822 -0.349148 -0.116972156 -0.2162589 -0.28440073 0.0017593113 0.07361722 -0.013382751
-0.139048 0.057437617 0.3751474 -0.14382266 0.21362011 0.17204875 -0.06745804 -0.2349527
-0.4068441 0.332057 0.11634878 0.30367807 -0.00017373926 0.32914162 -0.2110227 -0.2350008
-0.08801637 -0.3377833 -0.06049984 -0.12840456 -0.0023829492 -0.4064785 -0.16423169 -0.06576471
-0.13431102 -0.15230498 0.3159467 0.04199489 0.06087699 -0.34183675 0.0017666889 0.27042338
-0.250335 0.17566672 -0.17260659 0.16789277 0.017590862 -0.00014830273 -0.052649792 0.24204199
-0.43933833 -0.14023556 -0.213049 -0.08712986 -0.032886878 -0.0217824 -0.13768135 -0.23344645
-0.012753066 -0.05740626 -0.22998905 0.54727423 -0.11784605 -0.4161819 -0.06247435 0.2757841
0.20606348 -0.3013611 -0.25356925 0.17082676 -0.30650762 0.025768636 -0.14124146 -0.41814128
00000000: 2c76 103c 9007 e1be 5364 8ebe 1faa 2f3e
00000010: 3549 27be 4f25 ba3d 5836 8a3e 71cd c7be
00000020: f1a6 373e 3bf3 213d 27ff ac3e 8447 edbe
00000030: 5e0b 113e 7646 3bbe 6f9d 27be 8e8b 5abd
00000040: cd9d cf3e 1de0 d1be 8cad 2cbe 1c69 a8be
00000050: 079e 303e 1175 0dbd 04e5 513d 2d84 d9be
00000060: 38b0 09be 2bf8 0bbe 90e9 623e 8271 4abd
00000070: bf44 59be 3879 46be 1ef1 0fbe ce93 d2bc
00000080: 3c25 fdbd 778a 883d 51b6 e3bd 32c3 873c
00000090: 593f 983e 461b f93d 1354 0cbd 372c 7cbe
000000a0: 47a5 19be 02b0 933e c7c4 c7be e353 eabd
000000b0: d917 8abe 1e90 6bbc 4203 e73e c1ec d33d
000000c0: 338e 91bd 4da3 203e 8a51 cd3d c14e 26be
000000d0: 41b1 d3bd 6b17 203d 95fb 863e 1b99 8cbe
000000e0: cef5 503e 6a7a 803d bdb8 90be 05ae 9f3b
000000f0: 2e06 6dbe 2d18 d0bd b0ca 853e 075f a0be
00000100: e0fa 1cbe 9d83 383e dd34 3dbe e855 323e
00000110: 0062 8c3e a2da d0bd 8d85 a5bc cff5 91bd
00000120: 2bf3 23be 0f3c 4ebb 9010 183e 6832 a03e
00000130: 8d86 1a3e 0bfa f5bd 7152 5d3e d0fe 713d
00000140: b577 053e 5053 4e3e 3fd3 263c 687d 283e
00000150: 46eb 983d 8788 d6bd 5f61 b7bd 491c 11bf
00000160: f2aa a8be 1e49 8fbe e601 8dbe 0671 853e
00000170: 5280 003e 8efc a33e 9af5 7fbe ac25 633d
00000180: 1765 2b3e badc c2bd 07f8 443c b873 923e
00000190: 503b 453d db3e 4c3d 276a bbbd adff 1b3e
000001a0: 644b 693e 1c76 dabe 85a6 30be 4cac 983d
000001b0: 38b5 81bd 11ca 4ebe 3a18 d63a e707 ad3d
000001c0: fe14 de3d fd2b 4dbe ef7d 513e 6dd5 1dbd
000001d0: 0fc4 313e 2b28 6fbd 8dd5 f03c f6dc 1cbe
000001e0: 6d0e bebd 5b75 7a3e bf15 b0bd 4370 c0be
000001f0: f4d2 cb3d 5cc4 74bc a5d7 183e 11ad d83d
00000200: bd6e 713c adec 8abc b657 2a3e f0db 6b3e
00000210: cd4f 02be b971 d0bd f2bd 4d3e f063 803d
00000220: c2f7 d8bd 4568 293e 8eac 063e 3fb1 d8bd
00000230: c923 1dbe eb42 6a3e 53a0 733c b489 8bbc
00000240: 91c2 d9bc b37f c3bd 8e83 99be c67b b43d
00000250: d020 063e 08e1 afbc 7575 b63e 0574 ff3e
00000260: db32 4d3e d6c8 c83d ef41 a2bd bc6f fd3d
00000270: 3e4c 613e 7752 19be f08d f6bd 2383 f23d
00000280: 77ce 143d 55bd 7d3e 552e 1c3f 5b7f c1bd
00000290: bb40 183e 7ae1 e63a a18c 0d3c 38be 403e
000002a0: 3606 dabe c7b2 95bd 1434 82bd f036 f33d
000002b0: 94cd 8cbd 71c5 ae3e cfd8 853e 6d08 1e3e
000002c0: 7d5c 10be 5c85 d63e 85f8 1c3c 218b 2cbe
000002d0: 74f1 d43e 1f55 c83e 3190 5cbd 403a 50be
000002e0: 92be 34be 87c3 b2be 198f efbd f972 5dbe
000002f0: f99c 91be b198 e63a a0c4 963d 5343 5bbc
00000300: 9962 0ebe b543 6b3d 5213 c03e 3f46 13be
00000310: 3bbf 5a3e 8c2d 303e 7127 8abd 7197 70be
00000320: df4d d0be 6003 aa3e 4548 ee3d b17b 9b3e
00000330: c72d 36b9 4085 a83e 5616 58be 0da4 70be
00000340: ed41 b4bd eff1 acbe aece 77bd 7c7c 03be
00000350: 412b 1cbb f31d d0be 5a2c 28be a6af 86bd
00000360: d488 09be d6f5 1bbe c4c3 a13e d502 2c3d
00000370: 275a 793d 3a05 afbe 3e90 e73a ef74 8a3e
00000380: e92b 80be fae1 333e c8bf 30be 15ec 2b3e
00000390: b61a 903c b681 1bb9 4fa7 57bd dbd9 773e
000003a0: f4f0 e0be e999 0fbe 8429 5abe 2471 b2bd
000003b0: 64b4 06bd 0171 b2bc 57fc 0cbe 960c 6fbe
000003c0: 3cf2 50bc d422 6bbd 4082 6bbe 2a1a 0c3f
000003d0: 4559 f1bd cb15 d5be 1be5 7fbd 9333 8d3e
000003e0: 4e02 533e 014c 9abe d4d3 81be 36ed 2e3e
000003f0: 91ee 9cbe bf18 d33c 9aa1 10be 9d16 d6be

network_body._body_endoder.seq_layers.0.bias f4 [256]
0.0 0.0 0.0 0.0 0.0 0.0 0.0 0.0
0.0 0.0 0.0 0.0 0.0 0.0 0.0 0.0
0.0 0.0 0.0 0.0 0.0 0.0 0.0 0.0
0.0 0.0 0.0 0.0 0.0 0.0 0.0 0.0
0.0 0.0 0.0 0.0 0.0 0.0 0.0 0.0
0.0 0.0 0.0 0.0 0.0 0.0 0.0 0.0
0.0 0.0 0.0 0.0 0.0 0.0 0.0 0.0
0.0 0.0 0.0 0.0 0.0 0.0 0.0 0.0
0.0 0.0 0.0 0.0 0.0 0.0 0.0 0.0
0.0 0.0 0.0 0.0 0.0 0.0 0.0 0.0
0.0 0.0 0.0 0.0 0.0 0.0 0.0 0.0
0.0 0.0 0.0 0.0 0.0 0.0 0.0 0.0
0.0 0.0 0.0 0.0 0.0 0.0 0.0 0.0
0.0 0.0 0.0 0.0 0.0 0.0 0.0 0.0
0.0 0.0 0.0 0.0 0.0 0.0 0.0 0.0
0.0 0.0 0.0 0.0 0.0 0.0 0.0 0.0
0.0 0.0 0.0 0.0 0.0 0.0 0.0 0.0
0.0 0.0 0.0 0.0 0.0 0.0 0.0 0.0
0.0 0.0 0.0 0.0 0.0 0.0 0.0 0.0
0.0 0.0 0.0 0.0 0.0 0.0 0.0 0.0
0.0 0.0 0.0 0.0 0.0 0.0 0.0 0.0
0.0 0.0 0.0 0.0 0.0 0.0 0.0 0.0
0.0 0.0 0.0 0.0 0.0 0.0 0.0 0.0
0.0 0.0 0.0 0.0 0.0 0.0 0.0 0.0
0.0 0.0 0.0 0.0 0.0 0.0 0.0 0.0
0.0 0.0 0.0 0.0 0.0 0.0 0.0 0.0
0.0 0.0 0.0 0.0 0.0 0.0 0.0 0.0
0.0 0.0 0.0 0.0 0.0 0.0 0.0 0.0
0.0 0.0 0.0 0.0 0.0 0.0 0.0 0.0
0.0 0.0 0.0 0.0 0.0 0.0 0.0 0.0
0.0 0.0 0.0 0.0 0.0 0.0 0.0 0.0
0.0 0.0 0.0 0.0 0.0 0.0 0.0 0.0
00000000: 0000 0000 0000 0000 0000 0000 0000 0000
00000010: 0000 0000 0000 0000 0000 0000 0000 0000
00000020: 0000 0000 0000 0000 0000 0000 0000 0000
00000030: 0000 0000 0000 0000 0000 0000 0000 0000
00000040: 0000 0000 0000 0000 0000 0000 0000 0000
00000050: 0000 0000 0000 0000 0000 0000 0000 0000
00000060: 0000 0000 0000 0000 0000 0000 0000 0000
00000070: 0000 0000 0000 0000 0000 0000 0000 0000
00000080: 0000 0000 0000 0000 0000 0000 0000 0000
00000090: 0000 0000 0000 0000 0000 0000 0000 0000
000000a0: 0000 0000 0000 0000 0000 0000 0000 0000
000000b0: 0000 0000 0000 0000 0000 0000 0000 0000
000000c0: 0000 0000 0000 0000 0000 0000 0000 0000
000000d0: 0000 0000 0000 0000 0000 0000 0000 0000
000000e0: 0000 0000 0000 0000 0000 0000 0000 0000
000000f0: 0000 0000 0000 0000 0000 0000 0000 0000
00000100: 0000 0000 0000 0000 0000 0000 0000 0000
00000110: 0000 0000 0000 0000 0000 0000 0000 0000
00000120: 0000 0000 0000 0000 0000 0000 0000 0000
00000130: 0000 0000 0000 0000 0000 0000 0000 0000
00000140: 0000 0000 0000 0000 0000 0000 0000 0000
00000150: 0000 0000 0000 0000 0000 0000 0000 0000
00000160: 0000 0000 0000 0000 0000 0000 0000 0000
00000170: 0000 0000 0000 0000 0000 0000 0000 0000
00000180: 0000 0000 0000 0000 0000 0000 0000 0000
00000190: 0000 0000 0000 0000 0000 0000 0000 0000
000001a0: 0000 0000 0000 0000 0000 0000 0000 0000
000001b0: 0000 0000 0000 0000 0000 0000 0000 0000
000001c0: 0000 0000 0000 0000 0000 0000 0000 0000
000001d0: 0000 0000 0000 0000 0000 0000 0000 0000
000001e0: 0000 0000 0000 0000 0000 0000 0000 0000
000001f0: 0000 0000 0000 0000 0000 0000 0000 0000
00000200: 0000 0000 0000 0000 0000 0000 0000 0000
00000210: 0000 0000 0000 0000 0000 0000 0000 0000
00000220: 0000 0000 0000 0000 0000 0000 0000 0000
00000230: 0000 0000 0000 0000 0000 0000 0000 0000
00000240: 0000 0000 0000 0000 0000 0000 0000 0000
00000250: 0000 0000 0000 0000 0000 0000 0000 0000
00000260: 0000 0000 0000 0000 0000 0000 0000 0000
00000270: 0000 0000 0000 0000 0000 0000 0000 0000
00000280: 0000 0000 0000 0000 0000 0000 0000 0000
00000290: 0000 0000 0000 0000 0000 0000 0000 0000
000002a0: 0000 0000 0000 0000 0000 0000 0000 0000
000002b0: 0000 0000 0000 0000 0000 0000 0000 0000
000002c0: 0000 0000 0000 0000 0000 0000 0000 0000
000002d0: 0000 0000 0000 0000 0000 0000 0000 0000
000002e0: 0000 0000 0000 0000 0000 0000 0000 0000
000002f0: 0000 0000 0000 0000 0000 0000 0000 0000
00000300: 0000 0000 0000 0000 0000 0000 0000 0000
00000310: 0000 0000 0000 0000 0000 0000 0000 0000
00000320: 0000 0000 0000 0000 0000 0000 0000 0000
00000330: 0000 0000 0000 0000 0000 0000 0000 0000
00000340: 0000 0000 0000 0000 0000 0000 0000 0000
00000350: 0000 0000 0000 0000 0000 0000 0000 0000
00000360: 0000 0000 0000 0000 0000 0000 0000 0000
00000370: 0000 0000 0000 0000 0000 0000 0000 0000
00000380: 0000 0000 0000 0000 0000 0000 0000 0000
00000390: 0000 0000 0000 0000 0000 0000 0000 0000
000003a0: 0000 0000 0000 0000 0000 0000 0000 0000
000003b0: 0000 0000 0000 0000 0000 0000 0000 0000
000003c0: 0000 0000 0000 0000 0000 0000 0000 0000
000003d0: 0000 0000 0000 0000 0000 0000 0000 0000
000003e0: 0000 0000 0000 0000 0000 0000 0000 0000
000003f0: 0000 0000 0000 0000 0000 0000 0000 0000

network_body._body_endoder.seq_layers.2.weight f4 [256, 256]
0.012275753 -0.058742017 -0.036558315 -0.07947879 0.054968745 0.069571994 0.13719189 -0.033182316
-0.055953704 -0.06894768 0.07431389 0.09357658 0.07580814 -0.13415292 0.091825366 0.084261216
0.14031354 0.033437677 -0.02518805 -0.038065746 -0.05058777 0.02126666 0.03993162 -0.09207009
-0.1258778 0.06483758 0.07000378 0.027811429 0.06559466 0.024188936 0.060593992 -0.004162201
0.034050178 0.051412385 -0.14148277 -0.03658468 -0.11328183 -0.02637134 0.01573377 -0.04344818
0.05318761 -0.0096887015 -0.015169975 0.060816363 -0.009787775 -0.14622907 -0.020083547 0.067062706
-0.07405727 -0.07541112 0.012123008 -0.04479593 0.059891973 -0.004460597 -0.030197777 -0.10588539
0.041056708 0.07154873 -0.07174088 0.07651248 -0.031647723 -0.003532503 0.01377803 -0.069606304
-0.083396934 0.03610912 -0.13289994 -0.07847127 -0.027587805 0.022404028 0.008440674 -0.009722183
0.04737174 0.051498707 0.034718085 0.095816456 0.052509014 -0.11865481 0.05896693 -0.0405579
0.009568641 0.026711784 0.06663468 -0.08433597 0.020907821 -0.002956591 0.02091795 0.023392389
-0.04500673 0.04341596 -0.10306301 0.004244413 -0.07536496 -0.049592342 0.028613577 -0.0481541
0.07459376 0.035293214 0.0497428 0.0062238723 0.05230402 -0.115378544 0.025368014 0.04328217
-0.028735416 -0.05971223 -0.008589679 0.06341018 0.112290435 0.043813054 0.047077093 0.07659021
0.020352082 -0.063022144 0.10303033 -0.13720165 -0.013851357 -0.033691306 0.008904119 -0.03768347
0.029383847 -0.05337165 0.03358925 0.029696226 -0.036585085 0.130072 0.107976116 0.06296952
-0.009530118 -0.1297696 -0.035635125 -0.06307905 0.04305665 -0.1229976 0.083685204 0.07567519
0.024467492 0.026992429 0.024637097 -0.042736307 0.1129506 -0.05201371 0.07538927 -0.07218387
0.0072920974 -0.083592094 0.028535169 -0.037721314 0.062401317 0.2317115 0.039810028 -0.0040483787
-0.012077784 -0.06142116 0.0751066 -0.00902568 0.07549117 -0.033500396 0.08979909 -0.065053955
-0.053955514 0.004923877 -0.040741373 0.0277869 -0.056905057 0.050182484 -0.03814303 -0.0019554729
-0.032785036 -0.07426499 -0.03387867 -0.062369492 -0.05268847 0.01922822 0.08514508 -0.039028622
-0.022540927 0.07734342 0.02683531 0.008243863 -0.030787503 0.06756561 -0.105648294 -0.03343158
0.10104036 -0.14943662 0.04679246 0.09046714 0.09760687 0.020193001 -0.15650672 0.037572425
-0.030938255 -0.0066082897 0.07358858 0.1262224 -0.106718406 0.06705752 0.10421302 -0.06828811
-0.018131036 0.00027804275 0.091865756 0.028241968 -0.09161271 -0.029150052 0.03838369 -0.044990268
0.06587498 -0.048388977 -0.013244487 0.08785563 0.028674288 0.040561933 -0.036104366 -0.031572636
-0.07083941 -0.075617805 0.01611359 -0.01739958 0.036742654 -0.092461996 -0.12406792 0.114559546
-0.047697596 -0.03966477 0.06722831 0.038138397 -0.042994317 -0.027798418 0.016522624 0.09785922
-0.14289309 0.099433996 0.063461594 0.018229967 0.04132335 -0.087108694 -0.010782895 -0.11183381
0.033822395 -0.021837302 0.05744762 0.065065 -0.007493189 0.029279107 -0.047257047 -0.027427495
0.06419975 0.03773591 -0.0066827587 -0.04384969 -0.08741154 0.08864274 0.010681458 0.055353027
00000000: 3d20 493c 789b 70bd 2cbe 15bd c7c5 a2bd
00000010: e826 613d c37b 8e3d 087c 0c3e 2eea 07bd
00000020: b62f 65bd 7134 8dbd e131 983d 14a5 bf3d
00000030: 4c41 9b3d 625f 09be f00e bc3d 2591 ac3d
00000040: 5aae 0f3e f2f5 083d 2b57 cebc d4ea 1bbd
00000050: 1f35 4fbd 6b37 ae3c 578f 233d 3e8f bcbd
00000060: 1ce6 00be 91c9 843d 245e 8f3d cbd4 e33c
00000070: 7e56 863d e027 c63c 6831 783d 1363 88bb
00000080: 3378 0b3d cb95 523d dce0 10be d1d9 15bd
00000090: 4e00 e8bd b508 d8bc 1be4 803c b8f6 31bd
000000a0: 40db 593d 5cbd 1ebc 7d8b 78bc 941a 793d
000000b0: e75c 20bc 13bd 15be 4086 a4bc 2c58 893d
000000c0: 57ab 97bd 2571 9abd 959f 463c f07b 37bd
000000d0: 4951 753d 332a 92bb 5461 f7bc 70da d8bd
000000e0: 142b 283d 2488 923d e2ec 92bd 93b2 9c3d
000000f0: 0ba1 01bd 9181 67bb 3fbd 613c c08d 8ebd
00000100: 03cc aabd 28e7 133d ec16 08be 8cb5 a0bd
00000110: d2ff e1bc a788 b73c c14a 0a3c cb49 1fbc
00000120: df08 423d 4ff0 523d 8d34 0e3d 6b3b c43d
00000130: b113 573d 4b01 f3bd 4f87 713d 0a20 26bd
00000140: cac5 1c3c acd2 da3c c377 883d 56b8 acbd
00000150: e146 ab3c 5ec3 41bb 1f5c ab3c 65a1 bf3c
00000160: fa58 38bd efd4 313d b312 d3bd b814 8b3b
00000170: f258 9abd 5721 4bbd 0567 ea3c 3c3d 45bd
00000180: 9dc4 983d 9e8f 103d 1bbf 4b3d a0f1 cb3b
00000190: bd3c 563d 964b ecbd 95d0 cf3c a548 313d
000001a0: 8966 ebbc d094 74bd babb 0cbc 32dd 813d
000001b0: 87f8 e53d 5175 333d e9d3 403d 54db 9c3d
000001c0: 69b9 a63c c111 81bd 9101 d33d 977e 0cbe
000001d0: cdf0 62bc e5ff 09bd 95e2 113c fb59 1abd
000001e0: 65b6 f03c 3b9c 5abd e294 093d 8045 f33c
000001f0: 3eda 15bd 9831 053e 9522 dd3d 2af6 803d
00000200: 3624 1cbc 52e2 04be 23f6 11bd 972f 81bd
00000210: 2b5c 303d 2ae6 fbbd 2663 ab3d 98fb 9a3d
00000220: 0d70 c83c 3a1f dd3c bdd3 c93c 440c 2fbd
00000230: a552 e73d 540c 55bd b165 9a3d 23d5 93bd
00000240: 8cf2 ee3b 5532 abbd 96c2 e93c aa81 1abd
00000250: 8698 7f3d c845 6d3e d70f 233d 43a8 84bb
00000260: e6e1 45bc c194 7bbd 7dd1 993d 72e0 13bc
00000270: 1d9b 9a3d b637 09bd 96e8 b73d 023b 85bd
00000280: 7500 5dbd 7958 a13b 6de0 26bd 5aa1 e33c
00000290: 4715 69bd 268c 4d3d de3b 1cbd 6427 00bb
000002a0: 9a49 06bd 3e18 98bd 5cc4 0abd 2777 7fbd
000002b0: ddcf 57bd 8084 9d3c 8b60 ae3d 7adc 1fbd
000002c0: c0a7 b8bc 3a66 9e3d b9d5 db3c 4411 073c
000002d0: 1336 fcbc d75f 8a3d 225e d8bd 8def 08bd
000002e0: 40ee ce3d ea05 19be 73a9 3f3d d646 b93d
000002f0: 1ce6 c73d cb6b a53c 4c43 20be 8be5 193d
00000300: 3972 fdbc 5a8a d8bb 9cb5 963d 7240 013e
00000310: 2e8f dabd 7455 893d a36d d53d a3da 8bbd
00000320: 8a87 94bc 44c6 9139 1d24 bc3d b35b e73c
00000330: 729f bbbd 17cc eebc 3738 1d3d b747 38bd
00000340: 76e9 863d 8533 46bd 68ff 58bc a7ed b33d
00000350: 57e6 ea3c 4524 263d 2ce2 13bd 4f52 01bd
00000360: 4114 91bd 82dd 9abd a600 843c 9089 8ebc
00000370: 777f 163d b75c bdbd 5217 febd 329e ea3d
00000380: 8e5e 43bd 8777 22bd ffae 893d 0237 1c3d
00000390: cf1a 30bd 82b9 e3bc 745a 873c 6a6a c83d
000003a0: 9152 12be 0da4 cb3d 27f8 813d 0357 953c
000003b0: ac42 293d 0b66 b2bd bdaa 30bc 2009 e5bd
000003c0: 5a89 0a3d 24e4 b2bc 324e 6b3d cc40 853d
000003d0: 6d89 f5bb bdda ef3c 9b90 41bd a0af e0bc
000003e0: 297b 833d f890 1a3d 0bfb dabb bc9b 33bd
000003f0: d204 b3bd 538a b53d 4801 2f3c dbb9 623d

action_model._discrete_distribution.branches.0.weight f4 [5, 256]
0.0014306067 -0.0029704056 -0.008760094 0.00039694502 0.0051633194 0.009382639 -0.0011790928 -0.0016885346
0.00042718192 0.0021114014 0.0076931394 -0.016210021 -0.0020595093 0.0003573077 0.0055780066 0.0019171833
-0.008664024 -0.0062798164 0.0004303835 -0.0013687186 -0.008749557 0.004486514 0.0057799513 -0.005336039
0.019512108 0.00015444988 0.007917627 0.01020705 0.0020213507 0.0032039452 0.011732804 0.005072653
0.0065155397 0.0054813926 0.00791433 0.0055648726 -0.0005003666 0.012233358 -0.0014170419 0.0009600481
0.002107811 0.00017437196 0.0065672034 -0.0055770786 -0.0016857622 -0.014344509 0.006062954 -0.0038925023
0.0065323277 0.007823155 0.011223544 -0.008195278 -0.008575045 -0.0047351005 0.003501403 -0.007581807
0.0067534866 -0.0025041148 0.010896735 0.007506373 0.0027800568 -0.016732391 -0.0067437305 0.011630836
0.0009915543 -0.0014941429 -0.0100360615 0.0018700712 -0.0032433905 0.014983532 -1.9535919e-05 0.011176719
0.0011952965 0.0007394598 -0.009654777 -0.009161666 0.009912479 0.00093421026 -0.00049138675 -0.0013521282
-0.008159136 0.012933693 -0.0021672966 -0.011861588 -0.0045501753 -0.0016425528 0.0061176787 -0.0027023384
-0.00043036067 0.008519759 -0.005974323 0.0042469953 -0.0015033988 -0.006398129 -0.0029147696 0.0034128975
-0.0045946795 0.008855676 -0.0058620195 -0.003774682 -0.007928796 -1.3165528e-05 -0.006647933 0.0009445851
0.0069926493 0.010376791 -0.00057796616 0.0017585859 0.002982318 -0.009949674 -0.008076987 0.005367243
0.0011555203 0.006286436 -0.0012182816 0.0020864338 -0.0033129584 -0.00015949908 -0.008945453 0.013089699
-0.0064309346 0.006243332 -0.0007916923 0.0012896042 -0.012001152 0.012063849 -0.005500945 0.0029906647
0.005286118 -0.001663884 0.0008461461 0.0046692304 -0.0076760063 -0.008460903 -0.006725484 0.00029422785
-0.0048990375 0.0014710546 -0.013809587 -0.0047355867 -0.0136732375 -0.003349752 -0.0010017584 0.007497877
0.0022357625 -0.0032244686 -0.0006740293 -0.0011901163 0.0023841686 0.002608802 -0.00024999934 0.003565517
0.006019717 -0.010246172 0.011804479 -0.00013611911 -0.007859784 -0.010787117 0.0051728827 -0.009760873
-0.005637379 0.0033493587 0.01066099 -0.0068895346 -0.009990258 -0.00986895 -0.0056404746 -0.0014750026
-0.00056607387 0.0004504474 0.0015012074 -0.0072283777 -0.0025470944 -0.00092148845 -0.0049201176 -0.0026478197
-0.00092074426 -0.00011285576 -0.001800327 0.0014392639 -0.00066704646 -0.005225496 -0.005108516 0.0021977925
0.0039643757 0.0005856215 0.0102275135 0.0039274944 -0.00019703948 -0.009163935 0.0014225793 -0.0059550046
-0.0022464476 -0.00037773998 -0.00029438603 -0.0017454617 -0.0016666625 1.7140284e-05 0.0026947865 0.004142105
0.0068125874 0.007130598 0.007977913 0.0039255256 -0.0023138507 0.00039048173 -0.0014296604 0.008149219
0.0039773085 -0.009944788 6.7325105e-05 0.003375927 -0.0029695665 0.0053396416 -0.0023984795 0.007505973
0.006305882 -0.0052312003 0.0077529037 -0.005615461 -0.005719743 0.0035816485 -0.0045633963 -0.0040263836
0.0018542483 9.7870645e-05 -0.004273307 -0.0022119887 0.0051801153 0.009511966 0.009469368 0.00020717502
0.0016722052 -0.005353366 -0.0079475865 -0.0033629057 -0.0049711945 0.003164075 0.00016495363 0.0029154085
0.0011015077 0.0052350843 -0.00882618 0.0032895491 0.0122791035 -0.0036571627 -0.0035559505 -0.00035719492
0.0036354915 0.0050654574 0.008443197 0.0021044004 0.010419249 0.0034613665 -0.0072940476 -0.0070393356
00000000: 3283 bb3a 23ab 42bb 7f86 0fbc 0f1d d039
00000010: 1031 a93b a4b9 193c ca8b 9aba d251 ddba
00000020: 63f7 df39 705f 0a3b bb16 fc3b e1ca 84bc
00000030: d5f8 06bb 0755 bb39 b6c7 b63b ff49 fb3a
00000040: 8df3 0dbc ebc6 cdbb 18a5 e139 9366 b3ba
00000050: 4d5a 0fbc 9b03 933b bf65 bd3b f0d9 aebb
00000060: dbd7 9f3c d3f3 2139 efb8 013c 783b 273c
00000070: a378 043b 48f9 513b f23a 403c 7f38 a63b
00000080: 4f80 d53b 419d b33b 1bab 013c 8959 b63b
00000090: 092b 03ba 6c6e 483c 09bc b9ba bdab 7b3a
000000a0: 3323 0a3b 9ed7 3639 b231 d73b edbf b6bb
000000b0: cbf4 dcba 3b05 6bbc bfab c63b 5a19 7fbb
000000c0: 230d d63b b12c 003c f5e2 373c 7d45 06bc
000000d0: 587e 0cbc e728 9bbb cb77 653b cf70 f8bb
000000e0: 5a4c dd3b 131c 24bb 3888 323c 05f8 f53b
000000f0: 9d31 363b 5e12 89bc 83fa dcbb 438f 3e3c
00000100: 0bf7 813a 1ed7 c3ba 4b6e 24bc 2d1d f53a
00000110: 108f 54bb 7d7d 753c 11e1 a3b7 8f1e 373c
00000120: 7fab 9c3a 4fd8 413a 122f 1ebc d01a 16bc
00000130: f367 223c cae5 743a 68d0 00ba e539 b1ba
00000140: e6ad 05bc d7e7 533c 3409 0ebb 1b57 42bc
00000150: a319 95bb ed4a d7ba cf76 c83b b719 31bb
00000160: 08a2 e1b9 7696 0b3c 41c4 c3bb 612a 8b3b
00000170: b10d c5ba 65a7 d1bb b805 3fbb ebaa 5f3b
00000180: f78e 96bb 6617 113c 2f16 c0bb a860 77bb
00000190: c8e7 01bc 83e1 5cb7 e7d6 d9bb 089e 773a
000001a0: 9822 e53b 6a03 2a3c a782 17ba 5a80 e63a
000001b0: fe72 433b f503 23bc 5755 04bc b3df af3b
000001c0: d474 973a 73fe cd3b bfae 9fba 8dbc 083b
000001d0: 381e 59bb 353f 27b9 f38f 12bc 2d76 563c
000001e0: 97ba d2bb dd94 cc3b 9289 4fba f007 a93a
000001f0: 7ba0 44bc 73a7 453c 4541 b4bb 07ff 433b
00000200: 2c37 ad3b af16 daba e7cf 5d3a 5800 993b
00000210: 0287 fbbb 999f 0abc 7361 dcbb 9842 9a39
00000220: 1b88 a0bb 67d0 c03a 9b41 62bc fb2c 9bbb
00000230: b705 60bc 8387 5bbb 6f4d 83ba c0b0 f53b
00000240: df85 123b 9b51 53bb 57b1 30ba adfd 9bba
00000250: b63f 1c3b 6ff8 2a3b 5812 83b9 73ab 693b
00000260: 0c41 c53b 8fdf 27bc 9367 413c 32bb 0eb9
00000270: 53c6 00bc 73bc 30bc 4981 a93b 12ec 1fbc
00000280: c3b9 b8bb ea80 5b3b 6fab 2e3c 9bc1 e1bb
00000290: 2eae 23bc 60b1 21bc bbd3 b8bb e054 c1ba
000002a0: 9364 14ba 072a ec39 29c4 c43a 07dc ecbb
000002b0: 27ed 26bb 0b90 71ba f038 a1bb 0b87 2dbb
000002c0: 1a5e 71ba faac ecb8 f3f8 ebba afa5 bc3a
000002d0: bbdc 2eba a33a abbb 5765 a7bb d708 103b
000002e0: 98e7 813b 6584 193a 4d91 273c 36b2 803b
000002f0: 629c 4eb9 5424 16bc d775 ba3a 3322 c3bb
00000300: 2339 13bb 670b c6b9 d357 9ab9 fac7 e4ba
00000310: ea73 daba 7bc8 8f37 049b 303b 7fba 873b
00000320: 203c df3b cba7 e93b cbb5 023c b2a1 803b
00000330: f9a3 17bb 92b9 cc39 7163 bbba 4d84 053c
00000340: 1554 823b 77ef 22bc e430 8d38 a83e 5d3b
00000350: 0f9d 42bb 29f8 ae3b cf2f 1dbb aaf4 f53b
00000360: 92a1 ce3b 7d6a abbb 120c fe3b e701 b8bb
00000370: af6c bbbb 17ba 6a3b 8b88 95bb c1ef 83bb
00000380: 400a f33a e73f cd38 1907 8cbb 03f7 10bb
00000390: f5bd a93b 14d8 1b3c 6825 1b3c 1f3d 5939
000003a0: e52d db3a 4a6b afbb 9836 02bc 3264 5cbb
000003b0: 67e5 a2bb 5f5c 4f3b 67f7 2c39 7010 3f3b
000003c0: 7760 903a 128b ab3b af9b 10bc 7a95 573b
000003d0: 4b2e 493c 02ad 6fbb f30a 69bb e445 bbb9
000003e0: 6d41 6e3b 23fc a53b 5655 0a3c fbe9 093b
000003f0: 7fb5 2a3c 18d8 623b e802 efbb 3aaa e6bb

action_model._discrete_distribution.branches.0.bias f4 [5]
0.0 0.0 0.0 0.0 0.0
00000000: 0000 0000 0000 0000 0000 0000 0000 0000
00000010: 0000 0000
