Assets/Training/results/Run 1/My Behavior/My Behavior-246247.onnx (onnx, 298883 bytes, 6 tensors)

network_body._body_endoder.seq_layers.0.weight f4 [256, 24]
0.008817237 -0.43951082 -0.06436379 0.1715474 -0.1633652 0.15792884 0.26994586 -0.39023927
-0.18338487 0.039538603 0.33788416 -0.042425293 0.14164492 -0.18288597 -0.37571725 -0.053355746
0.4055008 -0.14497791 -0.16863078 -0.32892692 0.43741244 -0.03977647 0.28872472 -0.2125891
-0.13446128 -0.13668887 1.0908332 -0.049424656 -0.21217631 0.6959937 -0.14056823 -0.025705244
0.6038028 0.06667035 -0.111187585 -0.21670827 0.2973583 0.12163405 0.19413298 -0.24626242
-0.15004455 0.047533248 -0.39017317 -0.11441781 -0.5106326 0.032064542 0.4021292 0.049555194
-0.071072005 0.15687294 0.11233309 -0.1624098 -0.10336543 0.079459704 0.26363817 -0.2746056
0.07956191 0.06273349 -0.28265944 0.027295453 -0.23146889 -0.10160861 0.22210059 -0.313225
-0.15330076 0.19043797 -0.18477197 0.17415583 0.28443334 -0.20375758 0.010034706 -0.09319947
-0.1601073 -0.0031468903 -0.40433064 0.31288457 0.1509039 -0.578668 0.2161348 0.0590809
0.28552687 0.20148969 0.010182201 0.13332976 0.0746675 -0.10475259 0.14063074 -0.56683785
-0.3294292 -0.31022647 -0.2754051 0.26062793 0.09511862 0.38884863 -0.30193257 0.07776721
0.16737781 -0.095147565 0.49912798 0.2860391 0.048152268 0.08693052 -0.09151106 0.15234251
-0.2197782 -0.42668235 -0.17251022 0.38061512 -0.06333393 -0.2019427 -0.3593205 0.08448773
0.10843848 -0.022192955 0.20458196 -0.038533617 0.35176945 0.045473438 0.12155009 -0.15957575
-0.09280095 0.2445883 -0.82776934 -0.3758565 0.099523455 -0.58105665 0.14926012 0.10579885
0.061737347 -0.016958559 0.16635022 0.23712711 -0.12725754 -0.10177941 0.44363457 0.062690616
-0.10594131 0.16353588 0.13151762 -0.10580682 -0.15535776 0.28138158 -0.019813 0.03244547
-0.026582034 -0.09545841 -0.6778672 0.088126704 0.13098454 0.0024058425 0.35636488 0.49893203
0.43907037 0.098039314 -0.07922732 -0.05403786 0.2200174 -0.14972864 -0.064053744 0.118414186
0.036329713 0.13801646 0.610082 -0.09448119 0.03890821 0.0025699951 -0.05023055 0.16611579
-0.42582864 -0.0730949 0.9854311 0.11875713 -0.068751484 1.5553334 0.26141974 0.15432902
0.93511105 0.4189862 0.009580736 -0.5427595 0.41590464 0.39127442 0.42026654 -0.2033472
-0.17650822 -0.640871 -0.116972156 -0.2162589 -0.5761239 0.01906735 0.14168835 0.071380176
-0.139048 0.057437617 0.42739552 -0.14382266 0.21362011 -0.012853585 -0.06745804 -0.2349527
-0.560205 0.332057 0.11634878 0.07393891 -0.00017373926 0.32914162 -0.116268694 -0.2350008
-0.08801637 -0.40236604 -0.06049984 -0.12840456 -0.066965654 -0.45156837 -0.22133672 -0.105588146
-0.13431102 -0.15230498 0.85212445 0.04199489 0.06087699 -0.44966555 0.0017666889 0.27042338
-0.85773987 0.17566672 -0.17260659 0.60642344 0.017590862 -0.00014830273 -0.3974624 0.24204199
-0.43933833 0.17800382 -0.213049 -0.08712986 0.28535265 0.051980447 0.029077502 -0.15873952
-0.012753066 -0.05740626 0.5185732 0.54727423 -0.11784605 0.329254 -0.06247435 0.2757841
0.93149275 -0.3013611 -0.25356925 -0.24648863 -0.30650762 0.025768636 0.25902382 -0.41814128
00000000: 2c76 103c 9007 e1be 2ad1 83bd 1faa 2f3e
00000010: 3549 27be 19b8 213e 5836 8a3e 71cd c7be
00000020: 3ec9 3bbe 3bf3 213d 27ff ac3e 25c6 2dbd
00000030: 5e0b 113e 7646 3bbe 035e c0be 8e8b 5abd
00000040: cd9d cf3e 1775 14be 8cad 2cbe 1c69 a8be
00000050: 86f4 df3e a7ec 22bd bad3 933e f5b0 59be
00000060: 38b0 09be 2bf8 0bbe 6ca0 8b3f 8271 4abd
00000070: bf44 59be a52c 323f 1ef1 0fbe ce93 d2bc
00000080: d292 1a3f 778a 883d 51b6 e3bd c6e8 5dbe
00000090: 593f 983e 461b f93d ccca 463e 372c 7cbe
000000a0: 47a5 19be 39b2 423d c7c4 c7be e353 eabd
000000b0: d1b8 02bf 1c56 033d e1e3 cd3e 63fa 4a3d
000000c0: 338e 91bd 4da3 203e e40e e63d c14e 26be
000000d0: 41b1 d3bd c5bb a23d 95fb 863e 1b99 8cbe
000000e0: 5bf1 a23d 6a7a 803d bdb8 90be b79a df3c
000000f0: 2e06 6dbe 2d18 d0bd 566e 633e 075f a0be
00000100: e0fa 1cbe 2c02 433e dd34 3dbe e855 323e
00000110: 3fa1 913e d4a5 50be 9c68 243c 5ddf bebd
00000120: 2bf3 23be 0f3c 4ebb 6d04 cfbe 6832 a03e
00000130: 8d86 1a3e 9623 14bf 7152 5d3e d0fe 713d
00000140: 9430 923e 5053 4e3e 3fd3 263c 9987 083e
00000150: 46eb 983d 8788 d6bd 8101 103e 491c 11bf
00000160: f2aa a8be 01d6 9ebe e601 8dbe 0671 853e
00000170: 8dcd c23d 2b17 c73e e896 9abe 6a44 9f3d
00000180: 1765 2b3e badc c2bd b48d ff3e b873 923e
00000190: 503b 453d a108 b23d 276a bbbd adff 1b3e
000001a0: 890d 61be 1c76 dabe 85a6 30be fcdf c23e
000001b0: 38b5 81bd 11ca 4ebe dbf8 b7be e707 ad3d
000001c0: fe14 de3d 00ce b5bc ef7d 513e 6dd5 1dbd
000001d0: 201b b43e 5b42 3a3d 41ef f83d d367 23be
000001e0: 6d0e bebd 5b75 7a3e b1e8 53bf 4370 c0be
000001f0: f4d2 cb3d 21c0 14bf a5d7 183e 11ad d83d
00000200: 4de0 7c3d adec 8abc b657 2a3e 73d1 723e
00000210: cd4f 02be b971 d0bd 1224 e33e f063 803d
00000220: c2f7 d8bd f375 273e 8eac 063e 3fb1 d8bd
00000230: 1b16 1fbe 3f11 903e df4e a2bc 8be5 043d
00000240: 91c2 d9bc b37f c3bd b488 2dbf c67b b43d
00000250: d020 063e 57ab 1d3b 7575 b63e 0574 ff3e
00000260: d5cd e03e d6c8 c83d ef41 a2bd ce56 5dbd
00000270: 3e4c 613e 7752 19be 9c2e 83bd 2383 f23d
00000280: 77ce 143d 3054 0d3e 552e 1c3f 5b7f c1bd
00000290: 375e 1f3d 5d6d 283b 8dbe 4dbd 421a 2a3e
000002a0: 3606 dabe c7b2 95bd 3645 7c3f f036 f33d
000002b0: 94cd 8cbd 2a15 c73f cfd8 853e 6d08 1e3e
000002c0: 7063 6f3f 5c85 d63e 85f8 1c3c 49f2 0abf
000002d0: 74f1 d43e 1f55 c83e 2d2d d73e 403a 50be
000002e0: 92be 34be 1f10 24bf 198f efbd f972 5dbe
000002f0: db7c 13bf 2233 9c3c c016 113e c52f 923d
00000300: 9962 0ebe b543 6b3d 96d3 da3e 3f46 13be
00000310: 3bbf 5a3e d897 52bc 7127 8abd 7197 70be
00000320: 9869 0fbf 6003 aa3e 4548 ee3d 496d 973d
00000330: c72d 36b9 4085 a83e 481e eebd 0da4 70be
00000340: ed41 b4bd ec02 cebe aece 77bd 7c7c 03be
00000350: 4a25 89bd f833 e7be 18a6 62be 993e d8bd
00000360: d488 09be d6f5 1bbe d424 5a3f d502 2c3d
00000370: 275a 793d 903a e6be 3e90 e73a ef74 8a3e
00000380: d794 5bbf fae1 333e c8bf 30be 913e 1b3f
00000390: b61a 903c b681 1bb9 3180 cbbe dbd9 773e
000003a0: f4f0 e0be a246 363e 8429 5abe 2471 b2bd
000003b0: be19 923e 73e9 543d f133 ee3c 9d8c 22be
000003c0: 3cf2 50bc d422 6bbd 37c1 043f 2a1a 0c3f
000003d0: 4559 f1bd fb93 a83e 1be5 7fbd 9333 8d3e
000003e0: 4f76 6e3f 014c 9abe d4d3 81be 8467 7cbe
000003f0: 91ee 9cbe bf18 d33c c59e 843e 9d16 d6be

network_body._body_endoder.seq_layers.0.bias f4 [256]
0.23744765 -0.04885621 0.030212756 -0.052099247 0.09212325 -0.035025287 -0.058748227 0.06822047
-0.057100978 0.16674241 -0.09460751 -0.080602355 0.21986316 0.07528749 -0.004368182 0.19507651
0.037227094 -0.10494209 -0.083603606 -0.015252732 0.20992078 0.14369172 -0.06278199 -0.053950094
-0.028946321 0.13640583 0.033247307 0.36791188 0.113917984 0.049158417 0.0031462072 -0.034724955
-0.03387619 -0.051310267 -0.0091597745 0.05746731 0.12361981 0.035698432 -0.12198508 -0.02179137
0.08856742 -0.07341144 -0.07729068 -0.02842082 0.20832708 -0.13471286 -0.086293995 -0.11580528
-0.0616262 -0.13630363 0.18306646 0.052309796 0.0010815951 -0.05568315 -0.041393947 -0.08247681
-0.08563587 0.0009292199 0.07712692 -0.021821331 0.07300868 -0.032149546 0.0061475025 -0.020858971
0.23956496 0.042298544 -0.09060585 -0.028469305 -0.0028248655 -0.08029593 0.0580211 0.16997978
-0.0049259374 0.17103454 -0.06428596 0.036306337 -0.059724394 -0.007146893 -0.045051854 0.053929977
-0.05973001 -0.04539947 -0.028972307 0.16565914 -0.087808296 0.16769318 0.05380538 0.0026686823
0.097782664 0.011322343 -0.012868758 -0.018691134 -0.040224057 -0.11957839 0.27799934 0.003299646
-0.009541078 0.0325597 0.03215945 -0.065008834 -0.041746926 -0.026338756 -0.077699155 -0.083612144
-0.105184324 -0.0030198586 0.20194705 -0.010324724 -0.008331839 0.16925283 -0.052852847 -0.0013104319
-0.064758524 -0.071000375 -0.028080845 0.028876016 0.17783055 -0.037494346 -0.08619723 0.104524754
0.059922483 0.07801815 -0.004170521 0.0061650733 -0.05724094 -0.012204923 -0.06432318 -0.0877421
-0.040927533 0.110450484 -0.04080383 0.13917838 0.04315443 0.061848637 0.02546141 0.0034100434
-0.08354692 0.07875328 0.031759832 0.022636894 0.04453592 -0.04601999 -0.11232572 8.529051e-05
-0.04403682 0.05270732 -0.06325908 0.049943924 -0.07464891 -0.031404097 0.06293529 0.13595745
-0.019808002 -0.010848143 -0.08227029 -0.0524752 0.11662639 -0.06941104 -0.024870813 -0.08982621
0.023129117 0.009255058 0.08930586 0.066416696 -0.003911592 0.04640519 -0.1111945 -0.044063173
0.04183619 0.054941867 -0.0051250206 0.10129902 -0.053823017 -0.07081717 -0.06833916 -0.077773035
-0.080253325 -0.06606022 -0.14461799 -0.068241216 -0.04852946 -0.025880167 -0.030657386 0.24274762
-0.030380161 0.16256605 -0.1274007 -0.04966667 -0.0850478 0.041382633 -0.018184217 -0.04102862
-0.009665958 -0.04379441 0.02044452 -0.04079055 0.1773168 -0.046436828 -0.044717006 0.23415928
-0.0051995865 -0.071134 0.022249535 -0.071894325 -0.005573192 0.029642178 -0.07440664 0.056845885
0.0074955667 0.23737969 0.10261262 0.004008818 0.028906468 -0.03962709 -0.05927385 0.008688675
0.07900414 0.0004062313 -0.082783386 -0.020477433 -0.0555287 0.0385018 -0.0064877737 0.23001185
0.131233 0.15847096 0.01362284 -0.061650008 -0.023407865 0.19758847 -0.029489363 -0.058180857
-0.06432069 -0.09283632 0.12366233 -0.018031305 -0.06866604 -0.06332221 -0.030949548 0.010603473
-0.033220336 0.07656355 0.15917931 -0.0709342 -0.042523857 0.02830889 -0.012262781 -0.1266419
-0.05141035 -0.026684865 -0.09368996 0.0063540093 0.029182285 -0.01413582 0.12559663 -0.026315305
00000000: 7a25 733e 731d 48bd be80 f73c 0566 55bd
00000010: 1dab bc3d ad76 0fbd fba1 70bd 2cb7 8b3d
00000020: b7e2 69bd 86be 2a3e 95c1 c1bd d912 a5bd
00000030: cf23 613e 5430 9a3d f722 8fbb 23c2 473e
00000040: 707b 183d e1eb d6bd 5e38 abbd 98e6 79bc
00000050: 79f5 563e ec23 133e d893 80bd c6fa 5cbd
00000060: d620 edbc f8ad 0b3e 542e 083d f25e bc3e
00000070: d54d e93d 565a 493d 9930 4e3b c13b 0ebd
00000080: c3c1 0abd b72a 52bd e112 16bc d862 6b3d
00000090: 622c fd3d 8538 123d 50d3 f9bd d183 b2bc
000000a0: d662 b53d bd58 96bd 934a 9ebd c8d2 e8bc
000000b0: b253 553e 2bf2 09be e8ba b0bd 522b edbd
000000c0: c16b 7cbd 2e93 0bbe c675 3b3e cc42 563d
000000d0: 4fc4 8d3a 0414 64bd b38c 29bd 9ae9 a8bd
000000e0: dc61 afbd e496 733a b8f4 9d3d a6c2 b2bc
000000f0: 9385 953d 3eaf 03bd fd70 c93b 6fe0 aabc
00000100: 8450 753e 3d41 2d3d 8f8f b9bd 7638 e9bc
00000110: 6121 39bb 3172 a4bd 88a7 6d3d 2e0f 2e3e
00000120: c269 a1bb ae23 2f3e 5ba8 83bd f4b5 143d
00000130: 91a1 74bd 7c30 eabb 4b88 38bd aee5 5c3d
00000140: 74a7 74bd cbf4 39bd 5557 edbc 8da2 293e
00000150: d6d4 b3bd c3b7 2b3e 0863 5c3d 0fe5 2e3b
00000160: 4742 c83d 5981 393c 7cd7 52bc 261e 99bc
00000170: fbc1 24bd 84e5 f4bd ee55 8e3e e03e 583b
00000180: 2e52 1cbc 525d 053d a1b9 033d 5a23 85bd
00000190: d3fe 2abd 60c4 d7bc bc20 9fbd d83c abbd
000001a0: e16a d7bd d2e8 45bb 35cb 4e3e 0829 29bc
000001b0: 4482 08bc 9d50 2d3e 3a7c 58bd ccc2 abba
000001c0: 1ea0 84bd a568 91bd cd09 e6bc 658d ec3c
000001d0: 3619 363e ac93 19bd 2c88 b0bd 1311 d63d
000001e0: 4771 753d fbc7 9f3d dea8 88bb 6204 ca3b
000001f0: 7a75 6abd 28f7 47bc dfbb 83bd 21b2 b3bd
00000200: a1a3 27bd dd33 e23d eb21 27bd c784 0e3e
00000210: b3c2 303d ff54 7d3d 7294 d03c 097b 5f3b
00000220: a61a abbd 6649 a13d 9916 023d 0271 b93c
00000230: 4c6b 363d 757f 3cbd 070b e6bd fedd b238
00000240: f45f 34bd a1e3 573d fa8d 81bd 0092 4c3d
00000250: 87e1 98bd 95a1 00bd 38e4 803d 6e38 0b3e
00000260: 6444 a2bc 69bc 31bc 537d a8bd 3cf0 56bd
00000270: d1d9 ee3d 6027 8ebd e0bd cbbc cef6 b7bd
00000280: 4679 bd3c 87a2 173c fee5 b63d 7a05 883d
00000290: d02c 80bb 5e13 3e3d f1b9 e3bd 967b 34bd
000002a0: 6d5c 2b3d b90a 613d caef a7bb dc75 cf3d
000002b0: 8675 5cbd 9808 91bd 67f5 8bbd 7847 9fbd
000002c0: db5b a4bd 954a 87bd bd16 14be 0dc2 8bbd
000002d0: d4c6 46bd a502 d4bc 3325 fbbc d592 783e
000002e0: d1df f8bc b777 263e 5475 02be 476f 4bbd
000002f0: 8a2d aebd d680 293d 11f7 94bc a00d 28bd
00000300: f75d 1ebc c461 33bd 447b a73c fe13 27bd
00000310: 8992 353e 8b34 3ebd 2e29 37bd 73c7 6f3e
00000320: 4b61 aabb b4ae 91bd a844 b63c 553d 93bd
00000330: 539f b6bb 27d4 f23c 8262 98bd 3bd7 683d
00000340: 5f9d f53b a913 733e 9126 d23d 675c 833b
00000350: 42cd ec3c 0450 22bd 23c9 72bd f25a 0e3c
00000360: eccc a13d 71fb d439 568a a9bd 4ac0 a7bc
00000370: 1072 63bd 10b4 1d3d 6497 d4bb 3a88 6b3e
00000380: f261 063e 3646 223e 5532 5f3c b884 7cbd
00000390: dac1 bfbc a254 4a3e ad93 f1bc 0d4f 6ebd
000003a0: 91ba 83bd f820 bebd ad42 fd3d 63b6 93bc
000003b0: c8a0 8cbd 13af 81bd e889 fdbc 30ba 2d3c
000003c0: 0c12 08bd 5acd 9c3d e7ff 223e f345 91bd
000003d0: 7f2d 2ebd 0ce8 e73c d5e9 48bc 6aae 01be
000003e0: a993 52bd 389a dabc 86e0 bfbd 4b35 d03b
000003f0: b00f ef3c ed99 67bc 679c 003e 3293 d7bc

network_body._body_endoder.seq_layers.2.weight f4 [256, 256]
-0.12848122 -0.067212746 -0.11615522 -0.12158947 -0.12380364 0.027180873 0.1259283 -0.14542647
-0.08913419 -0.2688356 0.01829531 0.05461802 -0.12550117 -0.09243455 0.09434309 -0.15056604
0.0111792525 -0.020275151 -0.037483003 -0.06488694 -0.1553987 -0.19402672 0.029976938 -0.11864571
-0.13271475 -0.115200005 0.049173348 -0.1777499 -0.09383776 -0.12501255 0.026342217 -0.104848534
0.028090982 -0.011608653 -0.14499803 -0.20991543 -0.22265999 -0.18036123 -0.018365942 -0.077313185
-0.11734501 -0.0658061 -0.050346628 -0.026629768 -0.037123963 -0.16016057 -0.054310724 0.048262447
-0.09387604 -0.0741494 -0.18851732 -0.18030433 0.03702996 -0.02498901 -0.03553906 -0.11532174
0.040094428 -0.17767116 -0.24511056 0.12472752 0.05549115 -0.061574437 -0.023905436 -0.11123404
-0.27936906 0.035376098 -0.18455292 -0.21522626 -0.079637855 -0.016006336 0.023864426 -0.20401013
0.044003688 -0.14126849 0.030786159 -0.046101164 -0.0013408384 -0.11974793 0.021463249 -0.15917547
-0.062275734 -0.02757806 0.05612333 -0.1837527 0.012890483 -0.1898492 -0.12203724 -0.01074623
0.06245876 0.042943783 -0.15711805 -0.0425618 -0.1426406 -0.053760353 -0.10542484 -0.06628705
0.0072946744 -0.027276633 0.052732643 -0.01628211 0.0028780333 -0.1612207 -0.043294072 0.016411098
-0.039493747 -0.12515695 -0.2139808 0.0011959814 -0.042194743 -0.1643886 0.00842136 -0.023332976
-0.022796096 -0.0906188 0.048807718 -0.11839874 -0.25043184 -0.03874559 -0.0019488813 -0.18148983
-0.12493265 -0.23696178 0.034040723 -0.119385175 -0.022866016 -0.020855216 0.10848657 0.049648825
-0.066221364 -0.30062324 -0.07873674 -0.24853294 -0.109114714 -0.29564783 -0.057085805 -0.050817333
-0.034823548 -0.0146647515 -0.106308244 -0.18586548 0.016213614 -0.050466344 0.07393255 -0.12214466
0.008681432 -0.22639136 -0.010920094 -0.093311325 0.077580504 0.17026268 -0.038973264 -0.1538465
-0.0802455 -0.05096539 0.05429376 -0.08254907 -0.08394697 -0.07212702 0.04243182 -0.09008565
-0.07004796 -0.007953196 -0.20221531 -0.009132183 -0.05682589 -0.049555056 -0.06013939 -0.014340127
-0.08869893 -0.120573744 -0.16058993 -0.22452995 -0.064038366 -0.014414897 0.072521575 -0.04823584
-0.04189141 0.07496303 0.027486116 -0.042579416 -0.10172972 0.036022067 -0.07939657 -0.2217341
0.049971677 -0.33355007 0.04916077 0.043704968 0.05435762 -0.11587234 -0.29795995 0.029624287
-0.036960874 -0.053623606 0.008697649 0.06691384 -0.326354 0.06887217 0.02225167 -0.29936713
-0.01428952 -0.027762836 0.06294708 0.02264232 -0.10886505 -0.066082984 0.033240274 -0.18976168
0.0044969376 -0.266635 -0.16172066 0.022517856 0.12813084 0.035589997 0.007246545 -0.0723113
-0.24941084 -0.08544112 0.01727718 -0.059460513 -0.054819945 -0.15716758 -0.11866955 -0.09445952
-0.21991439 -0.21065024 -0.07472439 0.010900507 0.017605493 -0.23253775 -0.032524046 0.100561686
-0.15040278 0.09908504 -0.12064452 -0.040181685 -0.0149154365 -0.124206424 -0.08820673 -0.103545986
-0.019009214 -0.16048744 -0.16170241 0.03313647 -0.015495163 0.0035372686 -0.1168901 -0.040934175
0.029776683 0.0070014684 -0.020957569 -0.10336358 -0.28101313 0.03303809 0.046335083 0.041590255
00000000: 9590 03be d6a6 89bd cae2 edbd e603 f9bd
00000010: c38c fdbd 6caa de3c 59f3 003e adea 14be
00000020: fc8b b6bd d2a4 89be 0ce0 953c 25b7 5f3d
00000030: 6183 00be 534e bdbd f336 c13d fc2d 1abe
00000040: 2f29 373c 1318 a6bc c787 19bd 72e3 84bd
00000050: d620 1fbe f1ae 46be 3292 f53c 86fc f2bd
00000060: 60e6 07be fbed ebbd fe69 493d 1204 36be
00000070: 032e c0bd 4a03 00be a2cb d73c d4ba d6bd
00000080: 0f1f e63c 3832 3ebc 5d7a 14be 12f4 56be
00000090: fb00 64be 9db0 38be 2c74 96bc 6056 9ebd
000000a0: 9552 f0bd 59c5 86bd 4438 4ebd ac26 dabc
000000b0: 4c0f 18bd 2201 24be ec74 5ebd d8ae 453d
000000c0: 1542 c0bd a4db 97bd af0a 41be b3a1 38be
000000d0: baac 173d c1b5 ccbc 6891 11bd ce2d ecbd
000000e0: 0e3a 243d 6eef 35be 43fe 7abe 2471 ff3d
000000f0: b04a 633d 7a35 7cbd 55d5 c3bc acce e3bd
00000100: 7609 8fbe 87e6 103d 71fb 3cbe 4664 5cbe
00000110: 2c19 a3bd b81f 83bc 547f c33c 08e8 50be
00000120: 363d 343d b0a8 10be 4133 fc3c 93d4 3cbd
00000130: 12bf afba 673e f5bd b2d3 af3c e5fe 22be
00000140: d714 7fbd 62eb e1bc 94e1 653d ab29 3cbe
00000150: 9b32 533c d467 42be a9ee f9bd f510 30bc
00000160: c2d4 7f3d d2e5 2f3d 8ee3 20be 4855 2ebd
00000170: 6110 12be d133 5cbd fae8 d7bd 81c1 87bd
00000180: 2a08 ef3b 3f73 dfbc 2ffe 573d 0f62 85bc
00000190: 639d 3c3b 0a17 25be 2055 31bd 9170 863c
000001a0: 32c4 21bd 2529 00be c81d 5bbe 7ac2 9c3a
000001b0: 65d4 2cbd 7c55 28be bef9 093c cc24 bfbc
000001c0: e1be babc 5996 b9bd 9aea 473d 0a7b f2bd
000001d0: 9a38 80be b2b3 1ebd 9b71 ffba 78d8 39be
000001e0: b0dc ffbd 1ca6 72be 496e 0b3d 3780 f4bd
000001f0: 8351 bbbc 8fd8 aabc 352e de3d 915c 4b3d
00000200: 119f 87bd 4aeb 99be ba40 a1bd 6b7f 7ebe
00000210: 8977 dfbd 275f 97be ced2 69bd d625 50bd
00000220: 23a3 0ebd 6d44 70bc 23b8 d9bd 8553 3ebe
00000230: 6ad2 843c ccb5 4ebd f369 973d fb26 fabd
00000240: 913c 0e3c 23d3 67be 32ea 32bc 021a bfbd
00000250: 87e2 9e3d 5759 2e3e 6ea2 1fbd f089 1dbe
00000260: c157 a4bd 16c1 50bd 2263 5e3d 7d0f a9bd
00000270: 64ec abbd 55b7 93bd fdcc 2d3d d37e b8bd
00000280: 4e75 8fbd 1f4e 02bc 8811 4fbe 279f 15bc
00000290: 44c2 68bd 3efa 4abd b954 76bd daf2 6abc
000002a0: c9a7 b5bd 5eef f6bd b071 24be 2eeb 65be
000002b0: 8c26 83bd 762c 6cbc 3186 943d f292 45bd
000002c0: 5496 2bbd 3886 993d 902a e13c c167 2ebd
000002d0: ac57 d0bd e08b 133d ab9a a2bd 440e 63be
000002e0: 1aaf 4c3d 13c7 aabe ce5c 493d fb03 333d
000002f0: 19a6 5e3d 7a4e edbd 358e 98be a2ae f23c
00000300: 4964 17bd 6da4 5bbd 9680 0e3c 200a 893d
00000310: df17 a7be da0c 8d3d 2249 b63c a646 99be
00000320: 971e 6abc e36e e3bc 66ea 803d 637c b93c
00000330: a4f4 debd 8456 87bd f426 083d e350 42be
00000340: 0c5b 933b 6284 88be 1a9a 25be 5e77 b83c
00000350: bb34 033e d1c6 113d 6d74 ed3b f217 94bd
00000360: 8e65 7fbe c1fb aebd df88 8d3c de8c 73bd
00000370: e18a 60bd 8af0 20be 0509 f3bd fe73 c1bd
00000380: 3d31 61be b2b4 57be 1a09 99bd 0a98 323c
00000390: 6539 903c 601e 6ebe ef37 05bd 49f3 cd3d
000003a0: 3003 1abe 19ed ca3d 7914 f7bd 8d95 24bd
000003b0: e05f 74bc f05f febd bba5 b4bd eb0f d4bd
000003c0: 36b9 9bbc d256 24be 5195 25be 1bba 073d
000003d0: 6ddf 7dbc 85d1 673b 1464 efbd 98aa 27bd
000003e0: 3bee f33c 936c e53b 35af abbc 49b0 d3bd
000003f0: f4e0 8fbe f352 073d dbc9 3d3d 8b5a 2a3d

network_body._body_endoder.seq_layers.2.bias f4 [256]
0.0655352 0.081181265 0.053017024 -0.0022037588 -0.030511657 0.009992617 -0.012980805 -0.007649469
-0.014455671 0.0031917049 0.08163103 -0.029467816 0.07847229 -0.026113024 0.06023046 -0.004393013
0.053463355 0.0067040534 0.047892086 -0.012830278 0.0601628 0.051173545 0.008259136 -0.0006320861
-0.006966042 0.070117764 0.059153136 0.04351803 0.007862403 0.016521106 0.038890876 -0.018373016
0.052312266 0.020895753 0.051127322 -0.014494427 0.019740773 0.023651091 0.04047527 0.03052738
0.018258253 0.07073804 0.017923553 -0.0017015773 0.03878632 0.028964471 0.06329374 0.053267635
0.066702515 0.04657748 0.06152773 0.00013600527 0.058435418 0.06926714 0.0886031 0.015196982
0.051066816 -0.020655949 0.051588465 0.0018799701 0.05278144 0.047752507 0.02805023 0.012225495
0.030673899 0.04851707 0.029201949 0.08458242 0.03180472 0.027451728 0.050784845 -0.024816994
0.008174866 0.03127562 0.021562604 0.055168446 0.011696249 0.023219522 0.089230716 0.0014209744
-0.044313088 0.034405358 0.005586001 0.0052239574 -0.018815205 -0.010762137 0.057121847 -0.05311412
0.024659833 0.024732081 0.019304268 0.010735793 0.005012594 0.0024855826 0.045276593 0.03705797
0.02802705 0.030158427 6.134056e-05 -0.04331884 0.0038262527 -0.0066656596 0.0515163 0.033515804
-0.039297856 -0.03891758 0.02584384 -0.036069747 -0.004405868 0.04763093 0.055547617 0.041940875
0.01772147 0.06017313 0.063169 -0.0103690885 0.06263406 0.011710131 0.016088212 -0.034205403
0.03287947 -0.036726657 -0.011766724 0.047289792 -0.021766193 0.014934042 -0.009877955 0.04472245
0.014033372 0.066440225 0.04130038 0.046582088 -0.034456234 -0.033090103 0.06341452 0.030856239
0.048498604 0.014240556 -0.048725557 0.0381397 0.006492732 -0.013016359 -0.013709927 0.014087538
-0.025943482 0.0035001247 0.026449325 0.06470798 0.06774089 0.012025067 0.03534031 0.0242999
0.0061157923 -0.0016628277 0.022105418 -0.017668448 0.092291765 0.043229546 0.052804843 -0.006827753
0.060306326 0.080208145 0.0030538642 0.066282086 0.0029788564 0.006502071 -0.013689228 -0.0017360547
0.013410508 -0.013659539 0.042439584 0.07430781 0.016807688 0.06718849 0.015814502 0.032616172
-0.022081958 0.01643514 0.037508335 0.046340432 0.04915466 0.061736714 0.019302776 0.038251817
0.07088064 0.042244628 0.045350753 -0.026534801 0.0084767835 -0.003824784 -0.043319114 0.040910944
-0.0007497158 0.0837558 -0.016848566 0.0802247 -0.0065601873 0.0015398605 -0.0040616393 0.0010581849
0.046884537 0.014347299 0.06149045 0.01719303 -0.00760169 0.0030975018 0.027793642 0.036839083
0.085333064 0.017537415 0.072452456 -0.057660412 0.04930948 0.039307885 0.063998275 0.05734536
0.060440265 0.015912568 -0.043109804 0.0071701035 0.014406991 0.01050934 0.054932132 0.022341272
0.03336919 0.045908373 0.04017667 0.027239017 -0.011391366 0.046159744 0.020555815 0.011886484
0.08424765 -0.010269079 0.06723678 0.03253268 0.045281008 0.038939454 0.05874351 0.030420514
0.0143415425 -0.03136751 0.032748837 0.02615503 0.017459111 -0.059043333 0.02765441 0.055558916
0.042809825 0.012996384 0.0034887264 0.008751904 0.043345 0.047684256 0.025021665 0.07568609
00000000: 5237 863d 5d42 a63d 6128 593d f06c 10bb
00000010: 95f3 f9bc 13b8 233c 71ad 54bc 66a8 fabb
00000020: 7bd7 6cbc ec2b 513b 2b2e a73d 7d66 f1bc
00000030: 14b6 a03d fbea d5bc 37b4 763d 44f3 8fbb
00000040: 64fc 5a3d adad db3b 7e2a 443d 1636 52bc
00000050: 456d 763d 5a9b 513d 5451 073c 95b2 25ba
00000060: 6543 e4bb e799 8f3d 8f4a 723d f63f 323d
00000070: 4fd1 003c 4557 873c 0a4c 1f3d 0283 96bc
00000080: 6345 563d 922d ab3c e26a 513d 087a 6dbc
00000090: 67b7 a13c efbf c13c 66c9 253d 8e14 fa3c
000000a0: 5592 953c 1bdf 903d 6ad4 923c 7607 dfba
000000b0: 67de 1e3d e646 ed3c 26a0 813d 2a2f 5a3d
000000c0: 549b 883d 07c8 3e3d 8004 7c3d a39c 0e39
000000d0: fa59 6f3d eedb 8d3d 8b75 b53d c3fc 783c
000000e0: 702b 513d aa36 a9bc 6d4e 533d 5469 f63a
000000f0: 5a31 583d 2298 433d 99c9 e53c 714d 483c
00000100: d447 fb3c d6b9 463d ed38 ef3c 8c39 ad3d
00000110: ab45 023d 72e2 e03c c503 503d 024d cbbc
00000120: e0ef 053c dd1a 003d 0fa4 b03c 4ff8 613d
00000130: a0a1 3f3c de36 be3c 98be b63d fd3f ba3a
00000140: a481 35bd a2ec 0c3d c60a b73b bb2d ab3b
00000150: 5822 9abc ad53 30bc 99f8 693d 318e 59bd
00000160: 6b03 ca3c ef9a ca3c fc23 9e3c 2ee5 2f3c
00000170: b040 a43b 28e5 223b f373 393d 19ca 173d
00000180: fc98 e53c ce0e f73c f6a3 8038 196f 31bd
00000190: dec1 7a3b 9b6b dabb c102 533d de47 093d
000001a0: caf6 20bd 0a68 1fbd 76b6 d33c dfbd 13bd
000001b0: 195f 90bb a618 433d e685 633d 32ca 2b3d
000001c0: 9e2c 913c 1a78 763d c05e 813d 1ce3 29bc
000001d0: 4946 803d d9db 3f3c 6dcb 833c f71a 0cbd
000001e0: a0ac 063d b16e 16bd 38c9 40bc f1b2 413d
000001f0: 044f b2bc e9ad 743c 25d7 21bc e32e 373d
00000200: 3aec 653c d011 883d 962a 293d dccc 3e3d
00000210: fb21 0dbd 7d89 07bd 79df 813d 39c6 fc3c
00000220: 79a6 463d 3951 693c 7394 47bd 6038 1c3d
00000230: fcc0 d43b 9142 55bc 9a9f 60bc 6bcf 663c
00000240: 6d87 d4bc 5962 653b 41ac d83c 9e85 843d
00000250: bcbb 8a3d c904 453c 00c1 103d 9510 c73c
00000260: fc66 c83b 3df3 d9ba 6c16 b53c 6cbd 90bc
00000270: 7703 bd3d 7711 313d e449 583d 58bb dfbb
00000280: c403 773d 2b44 a43d 5723 483b e7be 873d
00000290: eb38 433b 530f d53b c948 60bc 548c e3ba
000002a0: bfb7 5b3c 42cc 5fbc 21d5 2d3d b12e 983d
000002b0: 47b0 893c 1e9a 893d 6a8d 813c 8998 053d
000002c0: 39e5 b4bc fda2 863c 57a2 193d 77cf 3d3d
000002d0: 6656 493d a3df 7c3d db20 9e3c f0ad 1c3d
000002e0: de29 913d b408 2d3d b6c1 393d 835f d9bc
000002f0: 35e2 0a3c 3aa9 7abb 626f 31bd 3c92 273d
00000300: 9388 44ba 2988 ab3d 0106 8abc d94c a43d
00000310: d7f6 d6bb 25d5 c93a 8017 85bb cbb2 8a3a
00000320: 000a 403d ef10 6b3c 69dd 7b3d 66d8 8c3c
00000330: 9917 f9bb 75ff 4a3b 7eaf e33c 94e4 163d
00000340: 1ac3 ae3d a0aa 8f3c f461 943d 532d 6cbd
00000350: bdf8 493d 4e01 213d 8711 833d f8e2 6a3d
00000360: 3690 773d 135b 823c e893 30bd 30f3 ea3b
00000370: 4d0b 6c3c 5e2f 2c3c 8400 613d 0b05 b73c
00000380: 22ae 083d 6b0a 3c3d 4b90 243d 5c24 df3c
00000390: daa2 3abc 0012 3d3d ab64 a83c 87bf 423c
000003a0: 088a ac3d a43f 28bc 70b3 893d fd40 053d
000003b0: 9478 393d fa7e 1f3d 099d 703d 7134 f93c
000003c0: caf8 6a3c 387b 00bd a523 063d 1343 d63c
000003d0: 6906 8f3c 6cd7 71bd 808b e23c bf91 633d
000003e0: 5b59 2f3d c9ee 543c 1ea3 643b 2564 0f3c
000003f0: 878a 313d 9150 433d 3cfa cc3c 4f01 9b3d

action_model._discrete_distribution.branches.0.weight f4 [5, 256]
-0.034755573 0.1079545 -0.042144995 -0.0016649438 0.048072368 0.032899946 -0.016542275 -0.008497451
0.005348759 0.013900918 0.09799176 -0.068464674 -0.090410054 0.0055889017 -0.060714494 -0.120446526
-0.070827894 -0.010249835 -0.015205098 0.00016298893 -0.06743031 -0.05137338 -0.013152555 -0.007694981
0.027206643 -0.01753918 -0.019212598 -0.022302195 0.0001881982 -0.05413048 -0.0487015 -0.041036185
-0.04182644 -0.016396284 0.08726456 0.0012127161 0.024751289 0.055443473 0.08812852 -0.16054073
-0.12026644 -0.04528038 -0.009628274 -0.01911335 -0.088427775 -0.04541962 -0.056621734 -0.08728147
0.022863492 0.1655661 0.13283405 0.00903156 -0.08235821 -0.023190064 -0.16613933 0.053494383
-0.02565166 0.0008850439 0.17645992 -0.08816696 -0.028220704 -0.05784628 -0.05156482 0.013258657
-0.007141449 0.0211732 -0.16841698 0.14131702 -0.0013475899 0.050398663 -0.04094374 0.004119266
-0.041699346 5.1415882e-05 -0.02631844 0.0139995925 -0.006773191 -0.030500183 -0.098827325 -0.040427383
-0.0054593077 -0.044242047 -0.11625808 -0.00140663 -0.0034204037 0.021914074 -0.00964074 0.06372287
-0.011165321 0.00063353765 -0.042819396 -0.054234542 -0.01839897 -0.12852007 -0.045623086 -0.039024785
-0.040981952 -0.016707009 -0.009500408 -0.03419585 0.0029684068 -0.084695496 -0.053827535 -0.013668039
-0.0025144387 0.04014189 -0.015384035 -0.033944517 -0.011958736 -0.0651182 -0.05980012 -0.023100628
-0.014173994 -0.059987415 -0.07511189 0.00022344184 -0.058467783 0.013211969 -0.022941517 0.12107714
-0.032764673 -0.02350639 -0.010309189 -0.04323648 -0.049229268 -0.051894676 0.024776895 -0.07691544
0.011639442 -0.04427452 0.06819863 -0.010630936 -0.020626152 -0.041325785 -0.05241181 0.01633814
-0.05040007 -0.09834433 -0.005346689 -0.028961195 -0.02453491 -0.03287737 -0.0013278872 0.06220546
0.0014911644 0.025068419 -0.108377814 -0.047260523 0.11513016 -0.013975508 -0.043016247 -0.14431451
0.0002218898 -0.030025052 0.028617064 0.0074914224 -0.16233708 -0.07490155 0.003100929 -0.038056295
-0.03879574 -0.08977512 0.02092757 -0.078836665 -0.0148006575 0.007266893 0.008640801 0.032397334
-0.07565299 0.0062362896 -0.06304128 -0.07016716 -0.12643892 -0.063137755 0.009876813 -0.056271598
-0.024175392 -0.100661114 -0.030482974 -0.05700865 -0.02885567 0.019498821 -0.11852284 -0.0045845145
0.04195854 -0.04592385 -0.019162212 -0.0001253219 -0.1240974 -0.032048043 0.090733804 -0.03679425
-0.13543364 -0.0823459 0.00052592804 -0.08212615 -0.0228361 0.009496779 0.015281523 0.00969799
-0.051932532 0.0037293981 -0.018511401 0.0699174 -0.013180894 0.0023124004 -0.053169742 -0.057851356
0.026152369 -0.027931351 -0.11486234 0.03445323 -0.05543444 0.05052743 -0.056891177 -0.04355018
0.009880749 -0.147795 0.02567245 0.01708874 -0.004281297 0.057434406 -0.054404844 -0.060492657
0.14255205 -0.058518723 0.0013748665 -0.10726137 0.0024230876 0.22254287 0.057750996 -0.015953427
-0.103825875 -0.0080159595 -0.11125523 -0.033005122 -0.020312244 -0.009815797 0.17212461 0.0172795
-0.09385325 0.00044222295 -0.023724234 -0.036161136 0.030613458 0.034182515 -0.028786058 -0.042776577
0.07984393 0.004397941 0.021135658 -0.038925927 -0.030416856 -0.04942481 -0.14473945 -0.10349632
00000000: dc5b 0ebd 4017 dd3d 3ba0 2cbd 3e3a daba
00000010: 88e7 443d 18c2 063d aa83 87bc e538 0bbc
00000020: a444 af3b adc0 633c e7af c83d 3537 8cbd
00000030: e828 b9bd 1b23 b73b c3af 78bd abac f6bd
00000040: 370e 91bd edee 27bc ce1e 79bc 02e8 2a39
00000050: e718 8abd e56c 52bd d07d 57bc 2e26 fcbb
00000060: 77e0 de3c 54ae 8fbc bd63 9dbc 18b3 b6bc
00000070: 1257 4539 ecb7 5dbd 397b 47bd 8f15 28bd
00000080: 3352 2bbd 8051 86bc c3b7 b23d 00f4 9e3a
00000090: 37c3 ca3c b218 633d ba7c b43d ca64 24be
000000a0: 404e f6bd eb77 39bd e8bf 1dbc 9a93 9cbc
000000b0: 9f19 b5bd ec09 3abd 31ec 67bd a1c0 b2bd
000000c0: 384c bb3c 298a 293e a605 083e 1cf9 133c
000000d0: 6cab a8bd 17f9 bdbc 6e20 2abe ed1c 5b3d
000000e0: 6e23 d2bc 4a02 683a e9b1 343e e190 b4bd
000000f0: 1b2f e7bc 39f0 6cbd a235 53bd d73a 593c
00000100: d102 eabb 6b73 ad3c 8075 2cbe 69b5 103e
00000110: 9da1 b0ba d46e 4e3d a0b4 27bd e8fa 863b
00000120: efcc 2abd 62a7 5738 c599 d7bc 8c5e 653c
00000130: a5f1 ddbb 85db f9bc fb65 cabd 2f97 25bd
00000140: fee3 b2bb 2637 35bd b718 eebd ac5e b8ba
00000150: da28 60bb 2585 b33c 32f4 1dbc 2381 823d
00000160: c0ee 36bc fe13 263a 6463 2fbd 0a25 5ebd
00000170: 70b9 96bc c49a 03be 46df 3abd 74d8 1fbd
00000180: b1dc 27bd 23dd 88bc 99a7 1bbc f310 0cbd
00000190: 9a89 423b d574 adbd 437a 5cbd e9ef 5fbc
000001a0: 48c9 24bb d36b 243d 520d 7cbc 6809 0bbd
000001b0: 93ee 43bc b15c 85bd f8f0 74bd 873d bdbc
000001c0: 0a3a 68bc 5db5 75bd 43d4 99bd b64b 6a39
000001d0: ea7b 6fbd 0477 583c d9ef bbbc 4bf7 f73d
000001e0: 4034 06bd 7990 c0bc dfe7 28bc bc18 31bd
000001f0: a1a4 49bd 838f 54bd eaf8 ca3c d885 9dbd
00000200: 5cb3 3e3c 3359 35bd b9ab 8b3d 612d 2ebc
00000210: 2df8 a8bc 3a45 29bd c4ad 56bd 90d7 853c
00000220: 4e70 4ebd c168 c9bd 4733 afbb 0740 edbc
00000230: 70fd c8bc 6caa 06bd 800c aeba 27cb 7e3d
00000240: 2d73 c33a 495c cd3c 30f5 ddbd 4094 41bd
00000250: 5cc9 eb3d 87f9 64bc ce31 30bd 2fc7 13be
00000260: 17ab 6839 19f7 f5bc 556e ea3c 9b7a f53b
00000270: b13b 26be fc65 99bd f538 4b3b ebe0 1bbd
00000280: 48e8 1ebd 05dc b7bd 4c70 ab3c 1e75 a1bd
00000290: 757e 72bc 1e1f ee3b 2592 0d3c 11b3 043d
000002a0: f4ef 9abd ca59 cc3b c91b 81bd cdb3 8fbd
000002b0: 3479 01be 5e4e 81bd 5bd2 213c 0c7d 66bd
000002c0: 790b c6bc 6a27 cebd 6eb7 f9bc e781 69bd
000002d0: ba62 ecbc febb 9f3c 1abc f2bd b239 96bb
000002e0: b8dc 2b3d a61a 3cbd 12fa 9cbc d768 03b9
000002f0: c726 febd cf44 03bd a5d2 b93d 91b5 16bd
00000300: 1eaf 0abe f8a4 a8bd 6fde 093a c131 a8bd
00000310: c612 bbbc 6198 1b3c 5a5f 7a3c 51e4 1e3c
00000320: 35b7 54bd eb68 743b 39a5 97bc db30 8f3d
00000330: adf4 57bc a48b 173b 84c8 59bd 8bf5 6cbd
00000340: 7e3d d63c 4ad0 e4bc f23c ebbd d51e 0d3d
00000350: 390f 63bd daf5 4e3d b906 69bd ac61 32bd
00000360: dde2 213c 9357 17be 084f d23c affd 8b3c
00000370: 1f4a 8cbb 5740 6b3d 9dd7 5ebd 26c7 77bd
00000380: 2af9 113e 54b1 6fbd dd34 b43a d9ab dbbd
00000390: aacc 1e3b 47e2 633e 4f8c 6c3d c3b0 82bc
000003a0: a9a2 d4bd 5f55 03bc c8d9 e3bd 6130 07bd
000003b0: dd65 a6bc 70d2 20bc 6f41 303e bd8d 8d3c
000003c0: 2236 c0bd 29da e739 5359 c2bc b31d 14bd
000003d0: 13c9 fa3c f702 0c3d bdd0 ebbc 7e36 2fbd
000003e0: 3785 a33d 9a1c 903b b024 ad3c cb70 1fbd
000003f0: c52c f9bc ab71 4abd 9436 14be e1f5 d3bd

action_model._discrete_distribution.branches.0.bias f4 [5]
0.009475958 -0.015004392 0.03056506 0.0043108924 -0.033120204
00000000: 0c41 1b3c fbd4 75bc 9463 fa3c 6342 8d3b
00000010: 0da9 07bd
